{"modelTopology":{"class_name":"Sequential","config":[{"class_name":"Dense","config":{"units":25,"activation":"linear","use_bias":true,"kernel_initializer":{"class_name":"VarianceScaling","config":{"scale":1,"mode":"fan_avg","distribution":"normal","seed":null}},"bias_initializer":{"class_name":"Zeros","config":{}},"kernel_regularizer":null,"bias_regularizer":null,"activity_regularizer":null,"kernel_constraint":null,"bias_constraint":null,"name":"dense_Dense1","trainable":true,"batch_input_shape":[null,25],"dtype":"float32"}},{"class_name":"Dense","config":{"units":25,"activation":"linear","use_bias":true,"kernel_initializer":{"class_name":"VarianceScaling","config":{"scale":1,"mode":"fan_avg","distribution":"normal","seed":null}},"bias_initializer":{"class_name":"Zeros","config":{}},"kernel_regularizer":null,"bias_regularizer":null,"activity_regularizer":null,"kernel_constraint":null,"bias_constraint":null,"name":"dense_Dense2","trainable":true,"batch_input_shape":[null,25],"dtype":"float32"}},{"class_name":"Dense","config":{"units":25,"activation":"linear","use_bias":true,"kernel_initializer":{"class_name":"VarianceScaling","config":{"scale":1,"mode":"fan_avg","distribution":"normal","seed":null}},"bias_initializer":{"class_name":"Zeros","config":{}},"kernel_regularizer":null,"bias_regularizer":null,"activity_regularizer":null,"kernel_constraint":null,"bias_constraint":null,"name":"dense_Dense3","trainable":true,"batch_input_shape":[null,25],"dtype":"float32"}},{"class_name":"Dense","config":{"units":25,"activation":"linear","use_bias":true,"kernel_initializer":{"class_name":"VarianceScaling","config":{"scale":1,"mode":"fan_avg","distribution":"normal","seed":null}},"bias_initializer":{"class_name":"Zeros","config":{}},"kernel_regularizer":null,"bias_regularizer":null,"activity_regularizer":null,"kernel_constraint":null,"bias_constraint":null,"name":"dense_Dense4","trainable":true,"batch_input_shape":[null,25],"dtype":"float32"}},{"class_name":"Dense","config":{"units":25,"activation":"linear","use_bias":true,"kernel_initializer":{"class_name":"VarianceScaling","config":{"scale":1,"mode":"fan_avg","distribution":"normal","seed":null}},"bias_initializer":{"class_name":"Zeros","config":{}},"kernel_regularizer":null,"bias_regularizer":null,"activity_regularizer":null,"kernel_constraint":null,"bias_constraint":null,"name":"dense_Dense5","trainable":true,"batch_input_shape":[null,25],"dtype":"float32"}},{"class_name":"Dense","config":{"units":25,"activation":"linear","use_bias":true,"kernel_initializer":{"class_name":"VarianceScaling","config":{"scale":1,"mode":"fan_avg","distribution":"normal","seed":null}},"bias_initializer":{"class_name":"Zeros","config":{}},"kernel_regularizer":null,"bias_regularizer":null,"activity_regularizer":null,"kernel_constraint":null,"bias_constraint":null,"name":"dense_Dense6","trainable":true,"batch_input_shape":[null,25],"dtype":"float32"}},{"class_name":"Dense","config":{"units":25,"activation":"linear","use_bias":true,"kernel_initializer":{"class_name":"VarianceScaling","config":{"scale":1,"mode":"fan_avg","distribution":"normal","seed":null}},"bias_initializer":{"class_name":"Zeros","config":{}},"kernel_regularizer":null,"bias_regularizer":null,"activity_regularizer":null,"kernel_constraint":null,"bias_constraint":null,"name":"dense_Dense7","trainable":true,"batch_input_shape":[null,25],"dtype":"float32"}},{"class_name":"Dense","config":{"units":25,"activation":"linear","use_bias":true,"kernel_initializer":{"class_name":"VarianceScaling","config":{"scale":1,"mode":"fan_avg","distribution":"normal","seed":null}},"bias_initializer":{"class_name":"Zeros","config":{}},"kernel_regularizer":null,"bias_regularizer":null,"activity_regularizer":null,"kernel_constraint":null,"bias_constraint":null,"name":"dense_Dense8","trainable":true,"batch_input_shape":[null,25],"dtype":"float32"}},{"class_name":"Dense","config":{"units":25,"activation":"linear","use_bias":true,"kernel_initializer":{"class_name":"VarianceScaling","config":{"scale":1,"mode":"fan_avg","distribution":"normal","seed":null}},"bias_initializer":{"class_name":"Zeros","config":{}},"kernel_regularizer":null,"bias_regularizer":null,"activity_regularizer":null,"kernel_constraint":null,"bias_constraint":null,"name":"dense_Dense9","trainable":true,"batch_input_shape":[null,25],"dtype":"float32"}},{"class_name":"Dense","config":{"units":25,"activation":"linear","use_bias":true,"kernel_initializer":{"class_name":"VarianceScaling","config":{"scale":1,"mode":"fan_avg","distribution":"normal","seed":null}},"bias_initializer":{"class_name":"Zeros","config":{}},"kernel_regularizer":null,"bias_regularizer":null,"activity_regularizer":null,"kernel_constraint":null,"bias_constraint":null,"name":"dense_Dense10","trainable":true,"batch_input_shape":[null,25],"dtype":"float32"}},{"class_name":"Dense","config":{"units":25,"activation":"linear","use_bias":true,"kernel_initializer":{"class_name":"VarianceScaling","config":{"scale":1,"mode":"fan_avg","distribution":"normal","seed":null}},"bias_initializer":{"class_name":"Zeros","config":{}},"kernel_regularizer":null,"bias_regularizer":null,"activity_regularizer":null,"kernel_constraint":null,"bias_constraint":null,"name":"dense_Dense11","trainable":true,"batch_input_shape":[null,25],"dtype":"float32"}},{"class_name":"Dense","config":{"units":25,"activation":"linear","use_bias":true,"kernel_initializer":{"class_name":"VarianceScaling","config":{"scale":1,"mode":"fan_avg","distribution":"normal","seed":null}},"bias_initializer":{"class_name":"Zeros","config":{}},"kernel_regularizer":null,"bias_regularizer":null,"activity_regularizer":null,"kernel_constraint":null,"bias_constraint":null,"name":"dense_Dense12","trainable":true,"batch_input_shape":[null,25],"dtype":"float32"}},{"class_name":"Dense","config":{"units":25,"activation":"linear","use_bias":true,"kernel_initializer":{"class_name":"VarianceScaling","config":{"scale":1,"mode":"fan_avg","distribution":"normal","seed":null}},"bias_initializer":{"class_name":"Zeros","config":{}},"kernel_regularizer":null,"bias_regularizer":null,"activity_regularizer":null,"kernel_constraint":null,"bias_constraint":null,"name":"dense_Dense13","trainable":true,"batch_input_shape":[null,25],"dtype":"float32"}},{"class_name":"Dense","config":{"units":25,"activation":"linear","use_bias":true,"kernel_initializer":{"class_name":"VarianceScaling","config":{"scale":1,"mode":"fan_avg","distribution":"normal","seed":null}},"bias_initializer":{"class_name":"Zeros","config":{}},"kernel_regularizer":null,"bias_regularizer":null,"activity_regularizer":null,"kernel_constraint":null,"bias_constraint":null,"name":"dense_Dense14","trainable":true,"batch_input_shape":[null,25],"dtype":"float32"}},{"class_name":"Dense","config":{"units":25,"activation":"linear","use_bias":true,"kernel_initializer":{"class_name":"VarianceScaling","config":{"scale":1,"mode":"fan_avg","distribution":"normal","seed":null}},"bias_initializer":{"class_name":"Zeros","config":{}},"kernel_regularizer":null,"bias_regularizer":null,"activity_regularizer":null,"kernel_constraint":null,"bias_constraint":null,"name":"dense_Dense15","trainable":true,"batch_input_shape":[null,25],"dtype":"float32"}},{"class_name":"Dense","config":{"units":25,"activation":"linear","use_bias":true,"kernel_initializer":{"class_name":"VarianceScaling","config":{"scale":1,"mode":"fan_avg","distribution":"normal","seed":null}},"bias_initializer":{"class_name":"Zeros","config":{}},"kernel_regularizer":null,"bias_regularizer":null,"activity_regularizer":null,"kernel_constraint":null,"bias_constraint":null,"name":"dense_Dense16","trainable":true,"batch_input_shape":[null,25],"dtype":"float32"}},{"class_name":"Dense","config":{"units":25,"activation":"linear","use_bias":true,"kernel_initializer":{"class_name":"VarianceScaling","config":{"scale":1,"mode":"fan_avg","distribution":"normal","seed":null}},"bias_initializer":{"class_name":"Zeros","config":{}},"kernel_regularizer":null,"bias_regularizer":null,"activity_regularizer":null,"kernel_constraint":null,"bias_constraint":null,"name":"dense_Dense17","trainable":true,"batch_input_shape":[null,25],"dtype":"float32"}},{"class_name":"Dense","config":{"units":25,"activation":"linear","use_bias":true,"kernel_initializer":{"class_name":"VarianceScaling","config":{"scale":1,"mode":"fan_avg","distribution":"normal","seed":null}},"bias_initializer":{"class_name":"Zeros","config":{}},"kernel_regularizer":null,"bias_regularizer":null,"activity_regularizer":null,"kernel_constraint":null,"bias_constraint":null,"name":"dense_Dense18","trainable":true,"batch_input_shape":[null,25],"dtype":"float32"}},{"class_name":"Dense","config":{"units":25,"activation":"linear","use_bias":true,"kernel_initializer":{"class_name":"VarianceScaling","config":{"scale":1,"mode":"fan_avg","distribution":"normal","seed":null}},"bias_initializer":{"class_name":"Zeros","config":{}},"kernel_regularizer":null,"bias_regularizer":null,"activity_regularizer":null,"kernel_constraint":null,"bias_constraint":null,"name":"dense_Dense19","trainable":true,"batch_input_shape":[null,25],"dtype":"float32"}},{"class_name":"Dense","config":{"units":25,"activation":"linear","use_bias":true,"kernel_initializer":{"class_name":"VarianceScaling","config":{"scale":1,"mode":"fan_avg","distribution":"normal","seed":null}},"bias_initializer":{"class_name":"Zeros","config":{}},"kernel_regularizer":null,"bias_regularizer":null,"activity_regularizer":null,"kernel_constraint":null,"bias_constraint":null,"name":"dense_Dense20","trainable":true,"batch_input_shape":[null,25],"dtype":"float32"}},{"class_name":"Dense","config":{"units":25,"activation":"linear","use_bias":true,"kernel_initializer":{"class_name":"VarianceScaling","config":{"scale":1,"mode":"fan_avg","distribution":"normal","seed":null}},"bias_initializer":{"class_name":"Zeros","config":{}},"kernel_regularizer":null,"bias_regularizer":null,"activity_regularizer":null,"kernel_constraint":null,"bias_constraint":null,"name":"dense_Dense21","trainable":true,"batch_input_shape":[null,25],"dtype":"float32"}},{"class_name":"Dense","config":{"units":25,"activation":"linear","use_bias":true,"kernel_initializer":{"class_name":"VarianceScaling","config":{"scale":1,"mode":"fan_avg","distribution":"normal","seed":null}},"bias_initializer":{"class_name":"Zeros","config":{}},"kernel_regularizer":null,"bias_regularizer":null,"activity_regularizer":null,"kernel_constraint":null,"bias_constraint":null,"name":"dense_Dense22","trainable":true,"batch_input_shape":[null,25],"dtype":"float32"}},{"class_name":"Dense","config":{"units":25,"activation":"linear","use_bias":true,"kernel_initializer":{"class_name":"VarianceScaling","config":{"scale":1,"mode":"fan_avg","distribution":"normal","seed":null}},"bias_initializer":{"class_name":"Zeros","config":{}},"kernel_regularizer":null,"bias_regularizer":null,"activity_regularizer":null,"kernel_constraint":null,"bias_constraint":null,"name":"dense_Dense23","trainable":true,"batch_input_shape":[null,25],"dtype":"float32"}},{"class_name":"Dense","config":{"units":25,"activation":"linear","use_bias":true,"kernel_initializer":{"class_name":"VarianceScaling","config":{"scale":1,"mode":"fan_avg","distribution":"normal","seed":null}},"bias_initializer":{"class_name":"Zeros","config":{}},"kernel_regularizer":null,"bias_regularizer":null,"activity_regularizer":null,"kernel_constraint":null,"bias_constraint":null,"name":"dense_Dense24","trainable":true,"batch_input_shape":[null,25],"dtype":"float32"}},{"class_name":"Dense","config":{"units":25,"activation":"linear","use_bias":true,"kernel_initializer":{"class_name":"VarianceScaling","config":{"scale":1,"mode":"fan_avg","distribution":"normal","seed":null}},"bias_initializer":{"class_name":"Zeros","config":{}},"kernel_regularizer":null,"bias_regularizer":null,"activity_regularizer":null,"kernel_constraint":null,"bias_constraint":null,"name":"dense_Dense25","trainable":true,"batch_input_shape":[null,25],"dtype":"float32"}},{"class_name":"Dense","config":{"units":25,"activation":"linear","use_bias":true,"kernel_initializer":{"class_name":"VarianceScaling","config":{"scale":1,"mode":"fan_avg","distribution":"normal","seed":null}},"bias_initializer":{"class_name":"Zeros","config":{}},"kernel_regularizer":null,"bias_regularizer":null,"activity_regularizer":null,"kernel_constraint":null,"bias_constraint":null,"name":"dense_Dense26","trainable":true,"batch_input_shape":[null,25],"dtype":"float32"}},{"class_name":"Dense","config":{"units":25,"activation":"linear","use_bias":true,"kernel_initializer":{"class_name":"VarianceScaling","config":{"scale":1,"mode":"fan_avg","distribution":"normal","seed":null}},"bias_initializer":{"class_name":"Zeros","config":{}},"kernel_regularizer":null,"bias_regularizer":null,"activity_regularizer":null,"kernel_constraint":null,"bias_constraint":null,"name":"dense_Dense27","trainable":true,"batch_input_shape":[null,25],"dtype":"float32"}},{"class_name":"Dense","config":{"units":25,"activation":"linear","use_bias":true,"kernel_initializer":{"class_name":"VarianceScaling","config":{"scale":1,"mode":"fan_avg","distribution":"normal","seed":null}},"bias_initializer":{"class_name":"Zeros","config":{}},"kernel_regularizer":null,"bias_regularizer":null,"activity_regularizer":null,"kernel_constraint":null,"bias_constraint":null,"name":"dense_Dense28","trainable":true,"batch_input_shape":[null,25],"dtype":"float32"}},{"class_name":"Dense","config":{"units":25,"activation":"linear","use_bias":true,"kernel_initializer":{"class_name":"VarianceScaling","config":{"scale":1,"mode":"fan_avg","distribution":"normal","seed":null}},"bias_initializer":{"class_name":"Zeros","config":{}},"kernel_regularizer":null,"bias_regularizer":null,"activity_regularizer":null,"kernel_constraint":null,"bias_constraint":null,"name":"dense_Dense29","trainable":true,"batch_input_shape":[null,25],"dtype":"float32"}},{"class_name":"Dense","config":{"units":25,"activation":"linear","use_bias":true,"kernel_initializer":{"class_name":"VarianceScaling","config":{"scale":1,"mode":"fan_avg","distribution":"normal","seed":null}},"bias_initializer":{"class_name":"Zeros","config":{}},"kernel_regularizer":null,"bias_regularizer":null,"activity_regularizer":null,"kernel_constraint":null,"bias_constraint":null,"name":"dense_Dense30","trainable":true,"batch_input_shape":[null,25],"dtype":"float32"}},{"class_name":"Dense","config":{"units":25,"activation":"linear","use_bias":true,"kernel_initializer":{"class_name":"VarianceScaling","config":{"scale":1,"mode":"fan_avg","distribution":"normal","seed":null}},"bias_initializer":{"class_name":"Zeros","config":{}},"kernel_regularizer":null,"bias_regularizer":null,"activity_regularizer":null,"kernel_constraint":null,"bias_constraint":null,"name":"dense_Dense31","trainable":true,"batch_input_shape":[null,25],"dtype":"float32"}},{"class_name":"Dense","config":{"units":25,"activation":"linear","use_bias":true,"kernel_initializer":{"class_name":"VarianceScaling","config":{"scale":1,"mode":"fan_avg","distribution":"normal","seed":null}},"bias_initializer":{"class_name":"Zeros","config":{}},"kernel_regularizer":null,"bias_regularizer":null,"activity_regularizer":null,"kernel_constraint":null,"bias_constraint":null,"name":"dense_Dense32","trainable":true,"batch_input_shape":[null,25],"dtype":"float32"}},{"class_name":"Dense","config":{"units":25,"activation":"linear","use_bias":true,"kernel_initializer":{"class_name":"VarianceScaling","config":{"scale":1,"mode":"fan_avg","distribution":"normal","seed":null}},"bias_initializer":{"class_name":"Zeros","config":{}},"kernel_regularizer":null,"bias_regularizer":null,"activity_regularizer":null,"kernel_constraint":null,"bias_constraint":null,"name":"dense_Dense33","trainable":true,"batch_input_shape":[null,25],"dtype":"float32"}},{"class_name":"Dense","config":{"units":25,"activation":"linear","use_bias":true,"kernel_initializer":{"class_name":"VarianceScaling","config":{"scale":1,"mode":"fan_avg","distribution":"normal","seed":null}},"bias_initializer":{"class_name":"Zeros","config":{}},"kernel_regularizer":null,"bias_regularizer":null,"activity_regularizer":null,"kernel_constraint":null,"bias_constraint":null,"name":"dense_Dense34","trainable":true,"batch_input_shape":[null,25],"dtype":"float32"}},{"class_name":"Dense","config":{"units":25,"activation":"linear","use_bias":true,"kernel_initializer":{"class_name":"VarianceScaling","config":{"scale":1,"mode":"fan_avg","distribution":"normal","seed":null}},"bias_initializer":{"class_name":"Zeros","config":{}},"kernel_regularizer":null,"bias_regularizer":null,"activity_regularizer":null,"kernel_constraint":null,"bias_constraint":null,"name":"dense_Dense35","trainable":true,"batch_input_shape":[null,25],"dtype":"float32"}},{"class_name":"Dense","config":{"units":25,"activation":"linear","use_bias":true,"kernel_initializer":{"class_name":"VarianceScaling","config":{"scale":1,"mode":"fan_avg","distribution":"normal","seed":null}},"bias_initializer":{"class_name":"Zeros","config":{}},"kernel_regularizer":null,"bias_regularizer":null,"activity_regularizer":null,"kernel_constraint":null,"bias_constraint":null,"name":"dense_Dense36","trainable":true,"batch_input_shape":[null,25],"dtype":"float32"}},{"class_name":"Dense","config":{"units":25,"activation":"linear","use_bias":true,"kernel_initializer":{"class_name":"VarianceScaling","config":{"scale":1,"mode":"fan_avg","distribution":"normal","seed":null}},"bias_initializer":{"class_name":"Zeros","config":{}},"kernel_regularizer":null,"bias_regularizer":null,"activity_regularizer":null,"kernel_constraint":null,"bias_constraint":null,"name":"dense_Dense37","trainable":true,"batch_input_shape":[null,25],"dtype":"float32"}},{"class_name":"Dense","config":{"units":25,"activation":"linear","use_bias":true,"kernel_initializer":{"class_name":"VarianceScaling","config":{"scale":1,"mode":"fan_avg","distribution":"normal","seed":null}},"bias_initializer":{"class_name":"Zeros","config":{}},"kernel_regularizer":null,"bias_regularizer":null,"activity_regularizer":null,"kernel_constraint":null,"bias_constraint":null,"name":"dense_Dense38","trainable":true,"batch_input_shape":[null,25],"dtype":"float32"}},{"class_name":"Dense","config":{"units":25,"activation":"linear","use_bias":true,"kernel_initializer":{"class_name":"VarianceScaling","config":{"scale":1,"mode":"fan_avg","distribution":"normal","seed":null}},"bias_initializer":{"class_name":"Zeros","config":{}},"kernel_regularizer":null,"bias_regularizer":null,"activity_regularizer":null,"kernel_constraint":null,"bias_constraint":null,"name":"dense_Dense39","trainable":true,"batch_input_shape":[null,25],"dtype":"float32"}},{"class_name":"Dense","config":{"units":25,"activation":"linear","use_bias":true,"kernel_initializer":{"class_name":"VarianceScaling","config":{"scale":1,"mode":"fan_avg","distribution":"normal","seed":null}},"bias_initializer":{"class_name":"Zeros","config":{}},"kernel_regularizer":null,"bias_regularizer":null,"activity_regularizer":null,"kernel_constraint":null,"bias_constraint":null,"name":"dense_Dense40","trainable":true,"batch_input_shape":[null,25],"dtype":"float32"}},{"class_name":"Dense","config":{"units":25,"activation":"linear","use_bias":true,"kernel_initializer":{"class_name":"VarianceScaling","config":{"scale":1,"mode":"fan_avg","distribution":"normal","seed":null}},"bias_initializer":{"class_name":"Zeros","config":{}},"kernel_regularizer":null,"bias_regularizer":null,"activity_regularizer":null,"kernel_constraint":null,"bias_constraint":null,"name":"dense_Dense41","trainable":true,"batch_input_shape":[null,25],"dtype":"float32"}},{"class_name":"Dense","config":{"units":25,"activation":"linear","use_bias":true,"kernel_initializer":{"class_name":"VarianceScaling","config":{"scale":1,"mode":"fan_avg","distribution":"normal","seed":null}},"bias_initializer":{"class_name":"Zeros","config":{}},"kernel_regularizer":null,"bias_regularizer":null,"activity_regularizer":null,"kernel_constraint":null,"bias_constraint":null,"name":"dense_Dense42","trainable":true,"batch_input_shape":[null,25],"dtype":"float32"}},{"class_name":"Dense","config":{"units":25,"activation":"linear","use_bias":true,"kernel_initializer":{"class_name":"VarianceScaling","config":{"scale":1,"mode":"fan_avg","distribution":"normal","seed":null}},"bias_initializer":{"class_name":"Zeros","config":{}},"kernel_regularizer":null,"bias_regularizer":null,"activity_regularizer":null,"kernel_constraint":null,"bias_constraint":null,"name":"dense_Dense43","trainable":true,"batch_input_shape":[null,25],"dtype":"float32"}},{"class_name":"Dense","config":{"units":25,"activation":"linear","use_bias":true,"kernel_initializer":{"class_name":"VarianceScaling","config":{"scale":1,"mode":"fan_avg","distribution":"normal","seed":null}},"bias_initializer":{"class_name":"Zeros","config":{}},"kernel_regularizer":null,"bias_regularizer":null,"activity_regularizer":null,"kernel_constraint":null,"bias_constraint":null,"name":"dense_Dense44","trainable":true,"batch_input_shape":[null,25],"dtype":"float32"}},{"class_name":"Dense","config":{"units":25,"activation":"linear","use_bias":true,"kernel_initializer":{"class_name":"VarianceScaling","config":{"scale":1,"mode":"fan_avg","distribution":"normal","seed":null}},"bias_initializer":{"class_name":"Zeros","config":{}},"kernel_regularizer":null,"bias_regularizer":null,"activity_regularizer":null,"kernel_constraint":null,"bias_constraint":null,"name":"dense_Dense45","trainable":true,"batch_input_shape":[null,25],"dtype":"float32"}},{"class_name":"Dense","config":{"units":25,"activation":"linear","use_bias":true,"kernel_initializer":{"class_name":"VarianceScaling","config":{"scale":1,"mode":"fan_avg","distribution":"normal","seed":null}},"bias_initializer":{"class_name":"Zeros","config":{}},"kernel_regularizer":null,"bias_regularizer":null,"activity_regularizer":null,"kernel_constraint":null,"bias_constraint":null,"name":"dense_Dense46","trainable":true,"batch_input_shape":[null,25],"dtype":"float32"}},{"class_name":"Dense","config":{"units":25,"activation":"linear","use_bias":true,"kernel_initializer":{"class_name":"VarianceScaling","config":{"scale":1,"mode":"fan_avg","distribution":"normal","seed":null}},"bias_initializer":{"class_name":"Zeros","config":{}},"kernel_regularizer":null,"bias_regularizer":null,"activity_regularizer":null,"kernel_constraint":null,"bias_constraint":null,"name":"dense_Dense47","trainable":true,"batch_input_shape":[null,25],"dtype":"float32"}},{"class_name":"Dense","config":{"units":25,"activation":"linear","use_bias":true,"kernel_initializer":{"class_name":"VarianceScaling","config":{"scale":1,"mode":"fan_avg","distribution":"normal","seed":null}},"bias_initializer":{"class_name":"Zeros","config":{}},"kernel_regularizer":null,"bias_regularizer":null,"activity_regularizer":null,"kernel_constraint":null,"bias_constraint":null,"name":"dense_Dense48","trainable":true,"batch_input_shape":[null,25],"dtype":"float32"}},{"class_name":"Dense","config":{"units":25,"activation":"linear","use_bias":true,"kernel_initializer":{"class_name":"VarianceScaling","config":{"scale":1,"mode":"fan_avg","distribution":"normal","seed":null}},"bias_initializer":{"class_name":"Zeros","config":{}},"kernel_regularizer":null,"bias_regularizer":null,"activity_regularizer":null,"kernel_constraint":null,"bias_constraint":null,"name":"dense_Dense49","trainable":true,"batch_input_shape":[null,25],"dtype":"float32"}},{"class_name":"Dense","config":{"units":25,"activation":"linear","use_bias":true,"kernel_initializer":{"class_name":"VarianceScaling","config":{"scale":1,"mode":"fan_avg","distribution":"normal","seed":null}},"bias_initializer":{"class_name":"Zeros","config":{}},"kernel_regularizer":null,"bias_regularizer":null,"activity_regularizer":null,"kernel_constraint":null,"bias_constraint":null,"name":"dense_Dense50","trainable":true,"batch_input_shape":[null,25],"dtype":"float32"}},{"class_name":"Dense","config":{"units":25,"activation":"linear","use_bias":true,"kernel_initializer":{"class_name":"VarianceScaling","config":{"scale":1,"mode":"fan_avg","distribution":"normal","seed":null}},"bias_initializer":{"class_name":"Zeros","config":{}},"kernel_regularizer":null,"bias_regularizer":null,"activity_regularizer":null,"kernel_constraint":null,"bias_constraint":null,"name":"dense_Dense51","trainable":true,"batch_input_shape":[null,25],"dtype":"float32"}},{"class_name":"Dense","config":{"units":25,"activation":"linear","use_bias":true,"kernel_initializer":{"class_name":"VarianceScaling","config":{"scale":1,"mode":"fan_avg","distribution":"normal","seed":null}},"bias_initializer":{"class_name":"Zeros","config":{}},"kernel_regularizer":null,"bias_regularizer":null,"activity_regularizer":null,"kernel_constraint":null,"bias_constraint":null,"name":"dense_Dense52","trainable":true,"batch_input_shape":[null,25],"dtype":"float32"}},{"class_name":"Dense","config":{"units":25,"activation":"linear","use_bias":true,"kernel_initializer":{"class_name":"VarianceScaling","config":{"scale":1,"mode":"fan_avg","distribution":"normal","seed":null}},"bias_initializer":{"class_name":"Zeros","config":{}},"kernel_regularizer":null,"bias_regularizer":null,"activity_regularizer":null,"kernel_constraint":null,"bias_constraint":null,"name":"dense_Dense53","trainable":true,"batch_input_shape":[null,25],"dtype":"float32"}},{"class_name":"Dense","config":{"units":25,"activation":"linear","use_bias":true,"kernel_initializer":{"class_name":"VarianceScaling","config":{"scale":1,"mode":"fan_avg","distribution":"normal","seed":null}},"bias_initializer":{"class_name":"Zeros","config":{}},"kernel_regularizer":null,"bias_regularizer":null,"activity_regularizer":null,"kernel_constraint":null,"bias_constraint":null,"name":"dense_Dense54","trainable":true,"batch_input_shape":[null,25],"dtype":"float32"}},{"class_name":"Dense","config":{"units":25,"activation":"linear","use_bias":true,"kernel_initializer":{"class_name":"VarianceScaling","config":{"scale":1,"mode":"fan_avg","distribution":"normal","seed":null}},"bias_initializer":{"class_name":"Zeros","config":{}},"kernel_regularizer":null,"bias_regularizer":null,"activity_regularizer":null,"kernel_constraint":null,"bias_constraint":null,"name":"dense_Dense55","trainable":true,"batch_input_shape":[null,25],"dtype":"float32"}},{"class_name":"Dense","config":{"units":25,"activation":"linear","use_bias":true,"kernel_initializer":{"class_name":"VarianceScaling","config":{"scale":1,"mode":"fan_avg","distribution":"normal","seed":null}},"bias_initializer":{"class_name":"Zeros","config":{}},"kernel_regularizer":null,"bias_regularizer":null,"activity_regularizer":null,"kernel_constraint":null,"bias_constraint":null,"name":"dense_Dense56","trainable":true,"batch_input_shape":[null,25],"dtype":"float32"}},{"class_name":"Dense","config":{"units":25,"activation":"linear","use_bias":true,"kernel_initializer":{"class_name":"VarianceScaling","config":{"scale":1,"mode":"fan_avg","distribution":"normal","seed":null}},"bias_initializer":{"class_name":"Zeros","config":{}},"kernel_regularizer":null,"bias_regularizer":null,"activity_regularizer":null,"kernel_constraint":null,"bias_constraint":null,"name":"dense_Dense57","trainable":true,"batch_input_shape":[null,25],"dtype":"float32"}},{"class_name":"Dense","config":{"units":25,"activation":"linear","use_bias":true,"kernel_initializer":{"class_name":"VarianceScaling","config":{"scale":1,"mode":"fan_avg","distribution":"normal","seed":null}},"bias_initializer":{"class_name":"Zeros","config":{}},"kernel_regularizer":null,"bias_regularizer":null,"activity_regularizer":null,"kernel_constraint":null,"bias_constraint":null,"name":"dense_Dense58","trainable":true,"batch_input_shape":[null,25],"dtype":"float32"}},{"class_name":"Dense","config":{"units":25,"activation":"linear","use_bias":true,"kernel_initializer":{"class_name":"VarianceScaling","config":{"scale":1,"mode":"fan_avg","distribution":"normal","seed":null}},"bias_initializer":{"class_name":"Zeros","config":{}},"kernel_regularizer":null,"bias_regularizer":null,"activity_regularizer":null,"kernel_constraint":null,"bias_constraint":null,"name":"dense_Dense59","trainable":true,"batch_input_shape":[null,25],"dtype":"float32"}},{"class_name":"Dense","config":{"units":25,"activation":"linear","use_bias":true,"kernel_initializer":{"class_name":"VarianceScaling","config":{"scale":1,"mode":"fan_avg","distribution":"normal","seed":null}},"bias_initializer":{"class_name":"Zeros","config":{}},"kernel_regularizer":null,"bias_regularizer":null,"activity_regularizer":null,"kernel_constraint":null,"bias_constraint":null,"name":"dense_Dense60","trainable":true,"batch_input_shape":[null,25],"dtype":"float32"}},{"class_name":"Dense","config":{"units":25,"activation":"linear","use_bias":true,"kernel_initializer":{"class_name":"VarianceScaling","config":{"scale":1,"mode":"fan_avg","distribution":"normal","seed":null}},"bias_initializer":{"class_name":"Zeros","config":{}},"kernel_regularizer":null,"bias_regularizer":null,"activity_regularizer":null,"kernel_constraint":null,"bias_constraint":null,"name":"dense_Dense61","trainable":true,"batch_input_shape":[null,25],"dtype":"float32"}},{"class_name":"Dense","config":{"units":25,"activation":"linear","use_bias":true,"kernel_initializer":{"class_name":"VarianceScaling","config":{"scale":1,"mode":"fan_avg","distribution":"normal","seed":null}},"bias_initializer":{"class_name":"Zeros","config":{}},"kernel_regularizer":null,"bias_regularizer":null,"activity_regularizer":null,"kernel_constraint":null,"bias_constraint":null,"name":"dense_Dense62","trainable":true,"batch_input_shape":[null,25],"dtype":"float32"}},{"class_name":"Dense","config":{"units":25,"activation":"linear","use_bias":true,"kernel_initializer":{"class_name":"VarianceScaling","config":{"scale":1,"mode":"fan_avg","distribution":"normal","seed":null}},"bias_initializer":{"class_name":"Zeros","config":{}},"kernel_regularizer":null,"bias_regularizer":null,"activity_regularizer":null,"kernel_constraint":null,"bias_constraint":null,"name":"dense_Dense63","trainable":true,"batch_input_shape":[null,25],"dtype":"float32"}},{"class_name":"Dense","config":{"units":25,"activation":"linear","use_bias":true,"kernel_initializer":{"class_name":"VarianceScaling","config":{"scale":1,"mode":"fan_avg","distribution":"normal","seed":null}},"bias_initializer":{"class_name":"Zeros","config":{}},"kernel_regularizer":null,"bias_regularizer":null,"activity_regularizer":null,"kernel_constraint":null,"bias_constraint":null,"name":"dense_Dense64","trainable":true,"batch_input_shape":[null,25],"dtype":"float32"}},{"class_name":"Dense","config":{"units":25,"activation":"linear","use_bias":true,"kernel_initializer":{"class_name":"VarianceScaling","config":{"scale":1,"mode":"fan_avg","distribution":"normal","seed":null}},"bias_initializer":{"class_name":"Zeros","config":{}},"kernel_regularizer":null,"bias_regularizer":null,"activity_regularizer":null,"kernel_constraint":null,"bias_constraint":null,"name":"dense_Dense65","trainable":true,"batch_input_shape":[null,25],"dtype":"float32"}},{"class_name":"Dense","config":{"units":25,"activation":"linear","use_bias":true,"kernel_initializer":{"class_name":"VarianceScaling","config":{"scale":1,"mode":"fan_avg","distribution":"normal","seed":null}},"bias_initializer":{"class_name":"Zeros","config":{}},"kernel_regularizer":null,"bias_regularizer":null,"activity_regularizer":null,"kernel_constraint":null,"bias_constraint":null,"name":"dense_Dense66","trainable":true,"batch_input_shape":[null,25],"dtype":"float32"}},{"class_name":"Dense","config":{"units":25,"activation":"linear","use_bias":true,"kernel_initializer":{"class_name":"VarianceScaling","config":{"scale":1,"mode":"fan_avg","distribution":"normal","seed":null}},"bias_initializer":{"class_name":"Zeros","config":{}},"kernel_regularizer":null,"bias_regularizer":null,"activity_regularizer":null,"kernel_constraint":null,"bias_constraint":null,"name":"dense_Dense67","trainable":true,"batch_input_shape":[null,25],"dtype":"float32"}},{"class_name":"Dense","config":{"units":25,"activation":"linear","use_bias":true,"kernel_initializer":{"class_name":"VarianceScaling","config":{"scale":1,"mode":"fan_avg","distribution":"normal","seed":null}},"bias_initializer":{"class_name":"Zeros","config":{}},"kernel_regularizer":null,"bias_regularizer":null,"activity_regularizer":null,"kernel_constraint":null,"bias_constraint":null,"name":"dense_Dense68","trainable":true,"batch_input_shape":[null,25],"dtype":"float32"}},{"class_name":"Dense","config":{"units":25,"activation":"linear","use_bias":true,"kernel_initializer":{"class_name":"VarianceScaling","config":{"scale":1,"mode":"fan_avg","distribution":"normal","seed":null}},"bias_initializer":{"class_name":"Zeros","config":{}},"kernel_regularizer":null,"bias_regularizer":null,"activity_regularizer":null,"kernel_constraint":null,"bias_constraint":null,"name":"dense_Dense69","trainable":true,"batch_input_shape":[null,25],"dtype":"float32"}},{"class_name":"Dense","config":{"units":25,"activation":"linear","use_bias":true,"kernel_initializer":{"class_name":"VarianceScaling","config":{"scale":1,"mode":"fan_avg","distribution":"normal","seed":null}},"bias_initializer":{"class_name":"Zeros","config":{}},"kernel_regularizer":null,"bias_regularizer":null,"activity_regularizer":null,"kernel_constraint":null,"bias_constraint":null,"name":"dense_Dense70","trainable":true,"batch_input_shape":[null,25],"dtype":"float32"}},{"class_name":"Dense","config":{"units":25,"activation":"linear","use_bias":true,"kernel_initializer":{"class_name":"VarianceScaling","config":{"scale":1,"mode":"fan_avg","distribution":"normal","seed":null}},"bias_initializer":{"class_name":"Zeros","config":{}},"kernel_regularizer":null,"bias_regularizer":null,"activity_regularizer":null,"kernel_constraint":null,"bias_constraint":null,"name":"dense_Dense71","trainable":true,"batch_input_shape":[null,25],"dtype":"float32"}},{"class_name":"Dense","config":{"units":25,"activation":"linear","use_bias":true,"kernel_initializer":{"class_name":"VarianceScaling","config":{"scale":1,"mode":"fan_avg","distribution":"normal","seed":null}},"bias_initializer":{"class_name":"Zeros","config":{}},"kernel_regularizer":null,"bias_regularizer":null,"activity_regularizer":null,"kernel_constraint":null,"bias_constraint":null,"name":"dense_Dense72","trainable":true,"batch_input_shape":[null,25],"dtype":"float32"}},{"class_name":"Dense","config":{"units":25,"activation":"linear","use_bias":true,"kernel_initializer":{"class_name":"VarianceScaling","config":{"scale":1,"mode":"fan_avg","distribution":"normal","seed":null}},"bias_initializer":{"class_name":"Zeros","config":{}},"kernel_regularizer":null,"bias_regularizer":null,"activity_regularizer":null,"kernel_constraint":null,"bias_constraint":null,"name":"dense_Dense73","trainable":true,"batch_input_shape":[null,25],"dtype":"float32"}},{"class_name":"Dense","config":{"units":25,"activation":"linear","use_bias":true,"kernel_initializer":{"class_name":"VarianceScaling","config":{"scale":1,"mode":"fan_avg","distribution":"normal","seed":null}},"bias_initializer":{"class_name":"Zeros","config":{}},"kernel_regularizer":null,"bias_regularizer":null,"activity_regularizer":null,"kernel_constraint":null,"bias_constraint":null,"name":"dense_Dense74","trainable":true,"batch_input_shape":[null,25],"dtype":"float32"}},{"class_name":"Dense","config":{"units":25,"activation":"linear","use_bias":true,"kernel_initializer":{"class_name":"VarianceScaling","config":{"scale":1,"mode":"fan_avg","distribution":"normal","seed":null}},"bias_initializer":{"class_name":"Zeros","config":{}},"kernel_regularizer":null,"bias_regularizer":null,"activity_regularizer":null,"kernel_constraint":null,"bias_constraint":null,"name":"dense_Dense75","trainable":true,"batch_input_shape":[null,25],"dtype":"float32"}},{"class_name":"Dense","config":{"units":25,"activation":"linear","use_bias":true,"kernel_initializer":{"class_name":"VarianceScaling","config":{"scale":1,"mode":"fan_avg","distribution":"normal","seed":null}},"bias_initializer":{"class_name":"Zeros","config":{}},"kernel_regularizer":null,"bias_regularizer":null,"activity_regularizer":null,"kernel_constraint":null,"bias_constraint":null,"name":"dense_Dense76","trainable":true,"batch_input_shape":[null,25],"dtype":"float32"}},{"class_name":"Dense","config":{"units":25,"activation":"linear","use_bias":true,"kernel_initializer":{"class_name":"VarianceScaling","config":{"scale":1,"mode":"fan_avg","distribution":"normal","seed":null}},"bias_initializer":{"class_name":"Zeros","config":{}},"kernel_regularizer":null,"bias_regularizer":null,"activity_regularizer":null,"kernel_constraint":null,"bias_constraint":null,"name":"dense_Dense77","trainable":true,"batch_input_shape":[null,25],"dtype":"float32"}},{"class_name":"Dense","config":{"units":25,"activation":"linear","use_bias":true,"kernel_initializer":{"class_name":"VarianceScaling","config":{"scale":1,"mode":"fan_avg","distribution":"normal","seed":null}},"bias_initializer":{"class_name":"Zeros","config":{}},"kernel_regularizer":null,"bias_regularizer":null,"activity_regularizer":null,"kernel_constraint":null,"bias_constraint":null,"name":"dense_Dense78","trainable":true,"batch_input_shape":[null,25],"dtype":"float32"}},{"class_name":"Dense","config":{"units":25,"activation":"linear","use_bias":true,"kernel_initializer":{"class_name":"VarianceScaling","config":{"scale":1,"mode":"fan_avg","distribution":"normal","seed":null}},"bias_initializer":{"class_name":"Zeros","config":{}},"kernel_regularizer":null,"bias_regularizer":null,"activity_regularizer":null,"kernel_constraint":null,"bias_constraint":null,"name":"dense_Dense79","trainable":true,"batch_input_shape":[null,25],"dtype":"float32"}},{"class_name":"Dense","config":{"units":25,"activation":"linear","use_bias":true,"kernel_initializer":{"class_name":"VarianceScaling","config":{"scale":1,"mode":"fan_avg","distribution":"normal","seed":null}},"bias_initializer":{"class_name":"Zeros","config":{}},"kernel_regularizer":null,"bias_regularizer":null,"activity_regularizer":null,"kernel_constraint":null,"bias_constraint":null,"name":"dense_Dense80","trainable":true,"batch_input_shape":[null,25],"dtype":"float32"}},{"class_name":"Dense","config":{"units":25,"activation":"linear","use_bias":true,"kernel_initializer":{"class_name":"VarianceScaling","config":{"scale":1,"mode":"fan_avg","distribution":"normal","seed":null}},"bias_initializer":{"class_name":"Zeros","config":{}},"kernel_regularizer":null,"bias_regularizer":null,"activity_regularizer":null,"kernel_constraint":null,"bias_constraint":null,"name":"dense_Dense81","trainable":true,"batch_input_shape":[null,25],"dtype":"float32"}},{"class_name":"Dense","config":{"units":25,"activation":"linear","use_bias":true,"kernel_initializer":{"class_name":"VarianceScaling","config":{"scale":1,"mode":"fan_avg","distribution":"normal","seed":null}},"bias_initializer":{"class_name":"Zeros","config":{}},"kernel_regularizer":null,"bias_regularizer":null,"activity_regularizer":null,"kernel_constraint":null,"bias_constraint":null,"name":"dense_Dense82","trainable":true,"batch_input_shape":[null,25],"dtype":"float32"}},{"class_name":"Dense","config":{"units":25,"activation":"linear","use_bias":true,"kernel_initializer":{"class_name":"VarianceScaling","config":{"scale":1,"mode":"fan_avg","distribution":"normal","seed":null}},"bias_initializer":{"class_name":"Zeros","config":{}},"kernel_regularizer":null,"bias_regularizer":null,"activity_regularizer":null,"kernel_constraint":null,"bias_constraint":null,"name":"dense_Dense83","trainable":true,"batch_input_shape":[null,25],"dtype":"float32"}},{"class_name":"Dense","config":{"units":25,"activation":"linear","use_bias":true,"kernel_initializer":{"class_name":"VarianceScaling","config":{"scale":1,"mode":"fan_avg","distribution":"normal","seed":null}},"bias_initializer":{"class_name":"Zeros","config":{}},"kernel_regularizer":null,"bias_regularizer":null,"activity_regularizer":null,"kernel_constraint":null,"bias_constraint":null,"name":"dense_Dense84","trainable":true,"batch_input_shape":[null,25],"dtype":"float32"}},{"class_name":"Dense","config":{"units":25,"activation":"linear","use_bias":true,"kernel_initializer":{"class_name":"VarianceScaling","config":{"scale":1,"mode":"fan_avg","distribution":"normal","seed":null}},"bias_initializer":{"class_name":"Zeros","config":{}},"kernel_regularizer":null,"bias_regularizer":null,"activity_regularizer":null,"kernel_constraint":null,"bias_constraint":null,"name":"dense_Dense85","trainable":true,"batch_input_shape":[null,25],"dtype":"float32"}},{"class_name":"Dense","config":{"units":25,"activation":"linear","use_bias":true,"kernel_initializer":{"class_name":"VarianceScaling","config":{"scale":1,"mode":"fan_avg","distribution":"normal","seed":null}},"bias_initializer":{"class_name":"Zeros","config":{}},"kernel_regularizer":null,"bias_regularizer":null,"activity_regularizer":null,"kernel_constraint":null,"bias_constraint":null,"name":"dense_Dense86","trainable":true,"batch_input_shape":[null,25],"dtype":"float32"}},{"class_name":"Dense","config":{"units":25,"activation":"linear","use_bias":true,"kernel_initializer":{"class_name":"VarianceScaling","config":{"scale":1,"mode":"fan_avg","distribution":"normal","seed":null}},"bias_initializer":{"class_name":"Zeros","config":{}},"kernel_regularizer":null,"bias_regularizer":null,"activity_regularizer":null,"kernel_constraint":null,"bias_constraint":null,"name":"dense_Dense87","trainable":true,"batch_input_shape":[null,25],"dtype":"float32"}},{"class_name":"Dense","config":{"units":25,"activation":"linear","use_bias":true,"kernel_initializer":{"class_name":"VarianceScaling","config":{"scale":1,"mode":"fan_avg","distribution":"normal","seed":null}},"bias_initializer":{"class_name":"Zeros","config":{}},"kernel_regularizer":null,"bias_regularizer":null,"activity_regularizer":null,"kernel_constraint":null,"bias_constraint":null,"name":"dense_Dense88","trainable":true,"batch_input_shape":[null,25],"dtype":"float32"}},{"class_name":"Dense","config":{"units":25,"activation":"linear","use_bias":true,"kernel_initializer":{"class_name":"VarianceScaling","config":{"scale":1,"mode":"fan_avg","distribution":"normal","seed":null}},"bias_initializer":{"class_name":"Zeros","config":{}},"kernel_regularizer":null,"bias_regularizer":null,"activity_regularizer":null,"kernel_constraint":null,"bias_constraint":null,"name":"dense_Dense89","trainable":true,"batch_input_shape":[null,25],"dtype":"float32"}},{"class_name":"Dense","config":{"units":25,"activation":"linear","use_bias":true,"kernel_initializer":{"class_name":"VarianceScaling","config":{"scale":1,"mode":"fan_avg","distribution":"normal","seed":null}},"bias_initializer":{"class_name":"Zeros","config":{}},"kernel_regularizer":null,"bias_regularizer":null,"activity_regularizer":null,"kernel_constraint":null,"bias_constraint":null,"name":"dense_Dense90","trainable":true,"batch_input_shape":[null,25],"dtype":"float32"}},{"class_name":"Dense","config":{"units":25,"activation":"linear","use_bias":true,"kernel_initializer":{"class_name":"VarianceScaling","config":{"scale":1,"mode":"fan_avg","distribution":"normal","seed":null}},"bias_initializer":{"class_name":"Zeros","config":{}},"kernel_regularizer":null,"bias_regularizer":null,"activity_regularizer":null,"kernel_constraint":null,"bias_constraint":null,"name":"dense_Dense91","trainable":true,"batch_input_shape":[null,25],"dtype":"float32"}},{"class_name":"Dense","config":{"units":25,"activation":"linear","use_bias":true,"kernel_initializer":{"class_name":"VarianceScaling","config":{"scale":1,"mode":"fan_avg","distribution":"normal","seed":null}},"bias_initializer":{"class_name":"Zeros","config":{}},"kernel_regularizer":null,"bias_regularizer":null,"activity_regularizer":null,"kernel_constraint":null,"bias_constraint":null,"name":"dense_Dense92","trainable":true,"batch_input_shape":[null,25],"dtype":"float32"}},{"class_name":"Dense","config":{"units":25,"activation":"linear","use_bias":true,"kernel_initializer":{"class_name":"VarianceScaling","config":{"scale":1,"mode":"fan_avg","distribution":"normal","seed":null}},"bias_initializer":{"class_name":"Zeros","config":{}},"kernel_regularizer":null,"bias_regularizer":null,"activity_regularizer":null,"kernel_constraint":null,"bias_constraint":null,"name":"dense_Dense93","trainable":true,"batch_input_shape":[null,25],"dtype":"float32"}},{"class_name":"Dense","config":{"units":25,"activation":"linear","use_bias":true,"kernel_initializer":{"class_name":"VarianceScaling","config":{"scale":1,"mode":"fan_avg","distribution":"normal","seed":null}},"bias_initializer":{"class_name":"Zeros","config":{}},"kernel_regularizer":null,"bias_regularizer":null,"activity_regularizer":null,"kernel_constraint":null,"bias_constraint":null,"name":"dense_Dense94","trainable":true,"batch_input_shape":[null,25],"dtype":"float32"}},{"class_name":"Dense","config":{"units":25,"activation":"linear","use_bias":true,"kernel_initializer":{"class_name":"VarianceScaling","config":{"scale":1,"mode":"fan_avg","distribution":"normal","seed":null}},"bias_initializer":{"class_name":"Zeros","config":{}},"kernel_regularizer":null,"bias_regularizer":null,"activity_regularizer":null,"kernel_constraint":null,"bias_constraint":null,"name":"dense_Dense95","trainable":true,"batch_input_shape":[null,25],"dtype":"float32"}},{"class_name":"Dense","config":{"units":25,"activation":"linear","use_bias":true,"kernel_initializer":{"class_name":"VarianceScaling","config":{"scale":1,"mode":"fan_avg","distribution":"normal","seed":null}},"bias_initializer":{"class_name":"Zeros","config":{}},"kernel_regularizer":null,"bias_regularizer":null,"activity_regularizer":null,"kernel_constraint":null,"bias_constraint":null,"name":"dense_Dense96","trainable":true,"batch_input_shape":[null,25],"dtype":"float32"}},{"class_name":"Dense","config":{"units":25,"activation":"linear","use_bias":true,"kernel_initializer":{"class_name":"VarianceScaling","config":{"scale":1,"mode":"fan_avg","distribution":"normal","seed":null}},"bias_initializer":{"class_name":"Zeros","config":{}},"kernel_regularizer":null,"bias_regularizer":null,"activity_regularizer":null,"kernel_constraint":null,"bias_constraint":null,"name":"dense_Dense97","trainable":true,"batch_input_shape":[null,25],"dtype":"float32"}},{"class_name":"Dense","config":{"units":25,"activation":"linear","use_bias":true,"kernel_initializer":{"class_name":"VarianceScaling","config":{"scale":1,"mode":"fan_avg","distribution":"normal","seed":null}},"bias_initializer":{"class_name":"Zeros","config":{}},"kernel_regularizer":null,"bias_regularizer":null,"activity_regularizer":null,"kernel_constraint":null,"bias_constraint":null,"name":"dense_Dense98","trainable":true,"batch_input_shape":[null,25],"dtype":"float32"}},{"class_name":"Dense","config":{"units":25,"activation":"linear","use_bias":true,"kernel_initializer":{"class_name":"VarianceScaling","config":{"scale":1,"mode":"fan_avg","distribution":"normal","seed":null}},"bias_initializer":{"class_name":"Zeros","config":{}},"kernel_regularizer":null,"bias_regularizer":null,"activity_regularizer":null,"kernel_constraint":null,"bias_constraint":null,"name":"dense_Dense99","trainable":true,"batch_input_shape":[null,25],"dtype":"float32"}},{"class_name":"Dense","config":{"units":25,"activation":"linear","use_bias":true,"kernel_initializer":{"class_name":"VarianceScaling","config":{"scale":1,"mode":"fan_avg","distribution":"normal","seed":null}},"bias_initializer":{"class_name":"Zeros","config":{}},"kernel_regularizer":null,"bias_regularizer":null,"activity_regularizer":null,"kernel_constraint":null,"bias_constraint":null,"name":"dense_Dense100","trainable":true,"batch_input_shape":[null,25],"dtype":"float32"}},{"class_name":"Dense","config":{"units":25,"activation":"linear","use_bias":true,"kernel_initializer":{"class_name":"VarianceScaling","config":{"scale":1,"mode":"fan_avg","distribution":"normal","seed":null}},"bias_initializer":{"class_name":"Zeros","config":{}},"kernel_regularizer":null,"bias_regularizer":null,"activity_regularizer":null,"kernel_constraint":null,"bias_constraint":null,"name":"dense_Dense101","trainable":true,"batch_input_shape":[null,25],"dtype":"float32"}},{"class_name":"Dense","config":{"units":25,"activation":"linear","use_bias":true,"kernel_initializer":{"class_name":"VarianceScaling","config":{"scale":1,"mode":"fan_avg","distribution":"normal","seed":null}},"bias_initializer":{"class_name":"Zeros","config":{}},"kernel_regularizer":null,"bias_regularizer":null,"activity_regularizer":null,"kernel_constraint":null,"bias_constraint":null,"name":"dense_Dense102","trainable":true,"batch_input_shape":[null,25],"dtype":"float32"}}],"keras_version":"tfjs-layers 0.8.5","backend":"tensor_flow.js"},"weightsManifest":[{"paths":["weights.bin"],"weights":[{"name":"dense_Dense1/kernel","shape":[25,25],"dtype":"float32"},{"name":"dense_Dense1/bias","shape":[25],"dtype":"float32"},{"name":"dense_Dense2/kernel","shape":[25,25],"dtype":"float32"},{"name":"dense_Dense2/bias","shape":[25],"dtype":"float32"},{"name":"dense_Dense3/kernel","shape":[25,25],"dtype":"float32"},{"name":"dense_Dense3/bias","shape":[25],"dtype":"float32"},{"name":"dense_Dense4/kernel","shape":[25,25],"dtype":"float32"},{"name":"dense_Dense4/bias","shape":[25],"dtype":"float32"},{"name":"dense_Dense5/kernel","shape":[25,25],"dtype":"float32"},{"name":"dense_Dense5/bias","shape":[25],"dtype":"float32"},{"name":"dense_Dense6/kernel","shape":[25,25],"dtype":"float32"},{"name":"dense_Dense6/bias","shape":[25],"dtype":"float32"},{"name":"dense_Dense7/kernel","shape":[25,25],"dtype":"float32"},{"name":"dense_Dense7/bias","shape":[25],"dtype":"float32"},{"name":"dense_Dense8/kernel","shape":[25,25],"dtype":"float32"},{"name":"dense_Dense8/bias","shape":[25],"dtype":"float32"},{"name":"dense_Dense9/kernel","shape":[25,25],"dtype":"float32"},{"name":"dense_Dense9/bias","shape":[25],"dtype":"float32"},{"name":"dense_Dense10/kernel","shape":[25,25],"dtype":"float32"},{"name":"dense_Dense10/bias","shape":[25],"dtype":"float32"},{"name":"dense_Dense11/kernel","shape":[25,25],"dtype":"float32"},{"name":"dense_Dense11/bias","shape":[25],"dtype":"float32"},{"name":"dense_Dense12/kernel","shape":[25,25],"dtype":"float32"},{"name":"dense_Dense12/bias","shape":[25],"dtype":"float32"},{"name":"dense_Dense13/kernel","shape":[25,25],"dtype":"float32"},{"name":"dense_Dense13/bias","shape":[25],"dtype":"float32"},{"name":"dense_Dense14/kernel","shape":[25,25],"dtype":"float32"},{"name":"dense_Dense14/bias","shape":[25],"dtype":"float32"},{"name":"dense_Dense15/kernel","shape":[25,25],"dtype":"float32"},{"name":"dense_Dense15/bias","shape":[25],"dtype":"float32"},{"name":"dense_Dense16/kernel","shape":[25,25],"dtype":"float32"},{"name":"dense_Dense16/bias","shape":[25],"dtype":"float32"},{"name":"dense_Dense17/kernel","shape":[25,25],"dtype":"float32"},{"name":"dense_Dense17/bias","shape":[25],"dtype":"float32"},{"name":"dense_Dense18/kernel","shape":[25,25],"dtype":"float32"},{"name":"dense_Dense18/bias","shape":[25],"dtype":"float32"},{"name":"dense_Dense19/kernel","shape":[25,25],"dtype":"float32"},{"name":"dense_Dense19/bias","shape":[25],"dtype":"float32"},{"name":"dense_Dense20/kernel","shape":[25,25],"dtype":"float32"},{"name":"dense_Dense20/bias","shape":[25],"dtype":"float32"},{"name":"dense_Dense21/kernel","shape":[25,25],"dtype":"float32"},{"name":"dense_Dense21/bias","shape":[25],"dtype":"float32"},{"name":"dense_Dense22/kernel","shape":[25,25],"dtype":"float32"},{"name":"dense_Dense22/bias","shape":[25],"dtype":"float32"},{"name":"dense_Dense23/kernel","shape":[25,25],"dtype":"float32"},{"name":"dense_Dense23/bias","shape":[25],"dtype":"float32"},{"name":"dense_Dense24/kernel","shape":[25,25],"dtype":"float32"},{"name":"dense_Dense24/bias","shape":[25],"dtype":"float32"},{"name":"dense_Dense25/kernel","shape":[25,25],"dtype":"float32"},{"name":"dense_Dense25/bias","shape":[25],"dtype":"float32"},{"name":"dense_Dense26/kernel","shape":[25,25],"dtype":"float32"},{"name":"dense_Dense26/bias","shape":[25],"dtype":"float32"},{"name":"dense_Dense27/kernel","shape":[25,25],"dtype":"float32"},{"name":"dense_Dense27/bias","shape":[25],"dtype":"float32"},{"name":"dense_Dense28/kernel","shape":[25,25],"dtype":"float32"},{"name":"dense_Dense28/bias","shape":[25],"dtype":"float32"},{"name":"dense_Dense29/kernel","shape":[25,25],"dtype":"float32"},{"name":"dense_Dense29/bias","shape":[25],"dtype":"float32"},{"name":"dense_Dense30/kernel","shape":[25,25],"dtype":"float32"},{"name":"dense_Dense30/bias","shape":[25],"dtype":"float32"},{"name":"dense_Dense31/kernel","shape":[25,25],"dtype":"float32"},{"name":"dense_Dense31/bias","shape":[25],"dtype":"float32"},{"name":"dense_Dense32/kernel","shape":[25,25],"dtype":"float32"},{"name":"dense_Dense32/bias","shape":[25],"dtype":"float32"},{"name":"dense_Dense33/kernel","shape":[25,25],"dtype":"float32"},{"name":"dense_Dense33/bias","shape":[25],"dtype":"float32"},{"name":"dense_Dense34/kernel","shape":[25,25],"dtype":"float32"},{"name":"dense_Dense34/bias","shape":[25],"dtype":"float32"},{"name":"dense_Dense35/kernel","shape":[25,25],"dtype":"float32"},{"name":"dense_Dense35/bias","shape":[25],"dtype":"float32"},{"name":"dense_Dense36/kernel","shape":[25,25],"dtype":"float32"},{"name":"dense_Dense36/bias","shape":[25],"dtype":"float32"},{"name":"dense_Dense37/kernel","shape":[25,25],"dtype":"float32"},{"name":"dense_Dense37/bias","shape":[25],"dtype":"float32"},{"name":"dense_Dense38/kernel","shape":[25,25],"dtype":"float32"},{"name":"dense_Dense38/bias","shape":[25],"dtype":"float32"},{"name":"dense_Dense39/kernel","shape":[25,25],"dtype":"float32"},{"name":"dense_Dense39/bias","shape":[25],"dtype":"float32"},{"name":"dense_Dense40/kernel","shape":[25,25],"dtype":"float32"},{"name":"dense_Dense40/bias","shape":[25],"dtype":"float32"},{"name":"dense_Dense41/kernel","shape":[25,25],"dtype":"float32"},{"name":"dense_Dense41/bias","shape":[25],"dtype":"float32"},{"name":"dense_Dense42/kernel","shape":[25,25],"dtype":"float32"},{"name":"dense_Dense42/bias","shape":[25],"dtype":"float32"},{"name":"dense_Dense43/kernel","shape":[25,25],"dtype":"float32"},{"name":"dense_Dense43/bias","shape":[25],"dtype":"float32"},{"name":"dense_Dense44/kernel","shape":[25,25],"dtype":"float32"},{"name":"dense_Dense44/bias","shape":[25],"dtype":"float32"},{"name":"dense_Dense45/kernel","shape":[25,25],"dtype":"float32"},{"name":"dense_Dense45/bias","shape":[25],"dtype":"float32"},{"name":"dense_Dense46/kernel","shape":[25,25],"dtype":"float32"},{"name":"dense_Dense46/bias","shape":[25],"dtype":"float32"},{"name":"dense_Dense47/kernel","shape":[25,25],"dtype":"float32"},{"name":"dense_Dense47/bias","shape":[25],"dtype":"float32"},{"name":"dense_Dense48/kernel","shape":[25,25],"dtype":"float32"},{"name":"dense_Dense48/bias","shape":[25],"dtype":"float32"},{"name":"dense_Dense49/kernel","shape":[25,25],"dtype":"float32"},{"name":"dense_Dense49/bias","shape":[25],"dtype":"float32"},{"name":"dense_Dense50/kernel","shape":[25,25],"dtype":"float32"},{"name":"dense_Dense50/bias","shape":[25],"dtype":"float32"},{"name":"dense_Dense51/kernel","shape":[25,25],"dtype":"float32"},{"name":"dense_Dense51/bias","shape":[25],"dtype":"float32"},{"name":"dense_Dense52/kernel","shape":[25,25],"dtype":"float32"},{"name":"dense_Dense52/bias","shape":[25],"dtype":"float32"},{"name":"dense_Dense53/kernel","shape":[25,25],"dtype":"float32"},{"name":"dense_Dense53/bias","shape":[25],"dtype":"float32"},{"name":"dense_Dense54/kernel","shape":[25,25],"dtype":"float32"},{"name":"dense_Dense54/bias","shape":[25],"dtype":"float32"},{"name":"dense_Dense55/kernel","shape":[25,25],"dtype":"float32"},{"name":"dense_Dense55/bias","shape":[25],"dtype":"float32"},{"name":"dense_Dense56/kernel","shape":[25,25],"dtype":"float32"},{"name":"dense_Dense56/bias","shape":[25],"dtype":"float32"},{"name":"dense_Dense57/kernel","shape":[25,25],"dtype":"float32"},{"name":"dense_Dense57/bias","shape":[25],"dtype":"float32"},{"name":"dense_Dense58/kernel","shape":[25,25],"dtype":"float32"},{"name":"dense_Dense58/bias","shape":[25],"dtype":"float32"},{"name":"dense_Dense59/kernel","shape":[25,25],"dtype":"float32"},{"name":"dense_Dense59/bias","shape":[25],"dtype":"float32"},{"name":"dense_Dense60/kernel","shape":[25,25],"dtype":"float32"},{"name":"dense_Dense60/bias","shape":[25],"dtype":"float32"},{"name":"dense_Dense61/kernel","shape":[25,25],"dtype":"float32"},{"name":"dense_Dense61/bias","shape":[25],"dtype":"float32"},{"name":"dense_Dense62/kernel","shape":[25,25],"dtype":"float32"},{"name":"dense_Dense62/bias","shape":[25],"dtype":"float32"},{"name":"dense_Dense63/kernel","shape":[25,25],"dtype":"float32"},{"name":"dense_Dense63/bias","shape":[25],"dtype":"float32"},{"name":"dense_Dense64/kernel","shape":[25,25],"dtype":"float32"},{"name":"dense_Dense64/bias","shape":[25],"dtype":"float32"},{"name":"dense_Dense65/kernel","shape":[25,25],"dtype":"float32"},{"name":"dense_Dense65/bias","shape":[25],"dtype":"float32"},{"name":"dense_Dense66/kernel","shape":[25,25],"dtype":"float32"},{"name":"dense_Dense66/bias","shape":[25],"dtype":"float32"},{"name":"dense_Dense67/kernel","shape":[25,25],"dtype":"float32"},{"name":"dense_Dense67/bias","shape":[25],"dtype":"float32"},{"name":"dense_Dense68/kernel","shape":[25,25],"dtype":"float32"},{"name":"dense_Dense68/bias","shape":[25],"dtype":"float32"},{"name":"dense_Dense69/kernel","shape":[25,25],"dtype":"float32"},{"name":"dense_Dense69/bias","shape":[25],"dtype":"float32"},{"name":"dense_Dense70/kernel","shape":[25,25],"dtype":"float32"},{"name":"dense_Dense70/bias","shape":[25],"dtype":"float32"},{"name":"dense_Dense71/kernel","shape":[25,25],"dtype":"float32"},{"name":"dense_Dense71/bias","shape":[25],"dtype":"float32"},{"name":"dense_Dense72/kernel","shape":[25,25],"dtype":"float32"},{"name":"dense_Dense72/bias","shape":[25],"dtype":"float32"},{"name":"dense_Dense73/kernel","shape":[25,25],"dtype":"float32"},{"name":"dense_Dense73/bias","shape":[25],"dtype":"float32"},{"name":"dense_Dense74/kernel","shape":[25,25],"dtype":"float32"},{"name":"dense_Dense74/bias","shape":[25],"dtype":"float32"},{"name":"dense_Dense75/kernel","shape":[25,25],"dtype":"float32"},{"name":"dense_Dense75/bias","shape":[25],"dtype":"float32"},{"name":"dense_Dense76/kernel","shape":[25,25],"dtype":"float32"},{"name":"dense_Dense76/bias","shape":[25],"dtype":"float32"},{"name":"dense_Dense77/kernel","shape":[25,25],"dtype":"float32"},{"name":"dense_Dense77/bias","shape":[25],"dtype":"float32"},{"name":"dense_Dense78/kernel","shape":[25,25],"dtype":"float32"},{"name":"dense_Dense78/bias","shape":[25],"dtype":"float32"},{"name":"dense_Dense79/kernel","shape":[25,25],"dtype":"float32"},{"name":"dense_Dense79/bias","shape":[25],"dtype":"float32"},{"name":"dense_Dense80/kernel","shape":[25,25],"dtype":"float32"},{"name":"dense_Dense80/bias","shape":[25],"dtype":"float32"},{"name":"dense_Dense81/kernel","shape":[25,25],"dtype":"float32"},{"name":"dense_Dense81/bias","shape":[25],"dtype":"float32"},{"name":"dense_Dense82/kernel","shape":[25,25],"dtype":"float32"},{"name":"dense_Dense82/bias","shape":[25],"dtype":"float32"},{"name":"dense_Dense83/kernel","shape":[25,25],"dtype":"float32"},{"name":"dense_Dense83/bias","shape":[25],"dtype":"float32"},{"name":"dense_Dense84/kernel","shape":[25,25],"dtype":"float32"},{"name":"dense_Dense84/bias","shape":[25],"dtype":"float32"},{"name":"dense_Dense85/kernel","shape":[25,25],"dtype":"float32"},{"name":"dense_Dense85/bias","shape":[25],"dtype":"float32"},{"name":"dense_Dense86/kernel","shape":[25,25],"dtype":"float32"},{"name":"dense_Dense86/bias","shape":[25],"dtype":"float32"},{"name":"dense_Dense87/kernel","shape":[25,25],"dtype":"float32"},{"name":"dense_Dense87/bias","shape":[25],"dtype":"float32"},{"name":"dense_Dense88/kernel","shape":[25,25],"dtype":"float32"},{"name":"dense_Dense88/bias","shape":[25],"dtype":"float32"},{"name":"dense_Dense89/kernel","shape":[25,25],"dtype":"float32"},{"name":"dense_Dense89/bias","shape":[25],"dtype":"float32"},{"name":"dense_Dense90/kernel","shape":[25,25],"dtype":"float32"},{"name":"dense_Dense90/bias","shape":[25],"dtype":"float32"},{"name":"dense_Dense91/kernel","shape":[25,25],"dtype":"float32"},{"name":"dense_Dense91/bias","shape":[25],"dtype":"float32"},{"name":"dense_Dense92/kernel","shape":[25,25],"dtype":"float32"},{"name":"dense_Dense92/bias","shape":[25],"dtype":"float32"},{"name":"dense_Dense93/kernel","shape":[25,25],"dtype":"float32"},{"name":"dense_Dense93/bias","shape":[25],"dtype":"float32"},{"name":"dense_Dense94/kernel","shape":[25,25],"dtype":"float32"},{"name":"dense_Dense94/bias","shape":[25],"dtype":"float32"},{"name":"dense_Dense95/kernel","shape":[25,25],"dtype":"float32"},{"name":"dense_Dense95/bias","shape":[25],"dtype":"float32"},{"name":"dense_Dense96/kernel","shape":[25,25],"dtype":"float32"},{"name":"dense_Dense96/bias","shape":[25],"dtype":"float32"},{"name":"dense_Dense97/kernel","shape":[25,25],"dtype":"float32"},{"name":"dense_Dense97/bias","shape":[25],"dtype":"float32"},{"name":"dense_Dense98/kernel","shape":[25,25],"dtype":"float32"},{"name":"dense_Dense98/bias","shape":[25],"dtype":"float32"},{"name":"dense_Dense99/kernel","shape":[25,25],"dtype":"float32"},{"name":"dense_Dense99/bias","shape":[25],"dtype":"float32"},{"name":"dense_Dense100/kernel","shape":[25,25],"dtype":"float32"},{"name":"dense_Dense100/bias","shape":[25],"dtype":"float32"},{"name":"dense_Dense101/kernel","shape":[25,25],"dtype":"float32"},{"name":"dense_Dense101/bias","shape":[25],"dtype":"float32"},{"name":"dense_Dense102/kernel","shape":[25,25],"dtype":"float32"},{"name":"dense_Dense102/bias","shape":[25],"dtype":"float32"}]}]}