{"modelTopology":{"class_name":"Sequential","config":[{"class_name":"Dense","config":{"units":25,"activation":"linear","use_bias":true,"kernel_initializer":{"class_name":"VarianceScaling","config":{"scale":1,"mode":"fan_avg","distribution":"normal","seed":null}},"bias_initializer":{"class_name":"Zeros","config":{}},"kernel_regularizer":null,"bias_regularizer":null,"activity_regularizer":null,"kernel_constraint":null,"bias_constraint":null,"name":"dense_Dense1","trainable":true,"batch_input_shape":[null,25],"dtype":"float32"}},{"class_name":"Dense","config":{"units":25,"activation":"linear","use_bias":true,"kernel_initializer":{"class_name":"VarianceScaling","config":{"scale":1,"mode":"fan_avg","distribution":"normal","seed":null}},"bias_initializer":{"class_name":"Zeros","config":{}},"kernel_regularizer":null,"bias_regularizer":null,"activity_regularizer":null,"kernel_constraint":null,"bias_constraint":null,"name":"dense_Dense2","trainable":true,"batch_input_shape":[null,25],"dtype":"float32"}},{"class_name":"Dense","config":{"units":25,"activation":"linear","use_bias":true,"kernel_initializer":{"class_name":"VarianceScaling","config":{"scale":1,"mode":"fan_avg","distribution":"normal","seed":null}},"bias_initializer":{"class_name":"Zeros","config":{}},"kernel_regularizer":null,"bias_regularizer":null,"activity_regularizer":null,"kernel_constraint":null,"bias_constraint":null,"name":"dense_Dense3","trainable":true,"batch_input_shape":[null,25],"dtype":"float32"}},{"class_name":"Dense","config":{"units":25,"activation":"linear","use_bias":true,"kernel_initializer":{"class_name":"VarianceScaling","config":{"scale":1,"mode":"fan_avg","distribution":"normal","seed":null}},"bias_initializer":{"class_name":"Zeros","config":{}},"kernel_regularizer":null,"bias_regularizer":null,"activity_regularizer":null,"kernel_constraint":null,"bias_constraint":null,"name":"dense_Dense4","trainable":true,"batch_input_shape":[null,25],"dtype":"float32"}},{"class_name":"Dense","config":{"units":25,"activation":"linear","use_bias":true,"kernel_initializer":{"class_name":"VarianceScaling","config":{"scale":1,"mode":"fan_avg","distribution":"normal","seed":null}},"bias_initializer":{"class_name":"Zeros","config":{}},"kernel_regularizer":null,"bias_regularizer":null,"activity_regularizer":null,"kernel_constraint":null,"bias_constraint":null,"name":"dense_Dense5","trainable":true,"batch_input_shape":[null,25],"dtype":"float32"}},{"class_name":"Dense","config":{"units":25,"activation":"linear","use_bias":true,"kernel_initializer":{"class_name":"VarianceScaling","config":{"scale":1,"mode":"fan_avg","distribution":"normal","seed":null}},"bias_initializer":{"class_name":"Zeros","config":{}},"kernel_regularizer":null,"bias_regularizer":null,"activity_regularizer":null,"kernel_constraint":null,"bias_constraint":null,"name":"dense_Dense6","trainable":true,"batch_input_shape":[null,25],"dtype":"float32"}},{"class_name":"Dense","config":{"units":25,"activation":"linear","use_bias":true,"kernel_initializer":{"class_name":"VarianceScaling","config":{"scale":1,"mode":"fan_avg","distribution":"normal","seed":null}},"bias_initializer":{"class_name":"Zeros","config":{}},"kernel_regularizer":null,"bias_regularizer":null,"activity_regularizer":null,"kernel_constraint":null,"bias_constraint":null,"name":"dense_Dense7","trainable":true,"batch_input_shape":[null,25],"dtype":"float32"}},{"class_name":"Dense","config":{"units":25,"activation":"linear","use_bias":true,"kernel_initializer":{"class_name":"VarianceScaling","config":{"scale":1,"mode":"fan_avg","distribution":"normal","seed":null}},"bias_initializer":{"class_name":"Zeros","config":{}},"kernel_regularizer":null,"bias_regularizer":null,"activity_regularizer":null,"kernel_constraint":null,"bias_constraint":null,"name":"dense_Dense8","trainable":true,"batch_input_shape":[null,25],"dtype":"float32"}},{"class_name":"Dense","config":{"units":25,"activation":"linear","use_bias":true,"kernel_initializer":{"class_name":"VarianceScaling","config":{"scale":1,"mode":"fan_avg","distribution":"normal","seed":null}},"bias_initializer":{"class_name":"Zeros","config":{}},"kernel_regularizer":null,"bias_regularizer":null,"activity_regularizer":null,"kernel_constraint":null,"bias_constraint":null,"name":"dense_Dense9","trainable":true,"batch_input_shape":[null,25],"dtype":"float32"}},{"class_name":"Dense","config":{"units":25,"activation":"linear","use_bias":true,"kernel_initializer":{"class_name":"VarianceScaling","config":{"scale":1,"mode":"fan_avg","distribution":"normal","seed":null}},"bias_initializer":{"class_name":"Zeros","config":{}},"kernel_regularizer":null,"bias_regularizer":null,"activity_regularizer":null,"kernel_constraint":null,"bias_constraint":null,"name":"dense_Dense10","trainable":true,"batch_input_shape":[null,25],"dtype":"float32"}},{"class_name":"Dense","config":{"units":25,"activation":"linear","use_bias":true,"kernel_initializer":{"class_name":"VarianceScaling","config":{"scale":1,"mode":"fan_avg","distribution":"normal","seed":null}},"bias_initializer":{"class_name":"Zeros","config":{}},"kernel_regularizer":null,"bias_regularizer":null,"activity_regularizer":null,"kernel_constraint":null,"bias_constraint":null,"name":"dense_Dense11","trainable":true,"batch_input_shape":[null,25],"dtype":"float32"}},{"class_name":"Dense","config":{"units":25,"activation":"linear","use_bias":true,"kernel_initializer":{"class_name":"VarianceScaling","config":{"scale":1,"mode":"fan_avg","distribution":"normal","seed":null}},"bias_initializer":{"class_name":"Zeros","config":{}},"kernel_regularizer":null,"bias_regularizer":null,"activity_regularizer":null,"kernel_constraint":null,"bias_constraint":null,"name":"dense_Dense12","trainable":true,"batch_input_shape":[null,25],"dtype":"float32"}},{"class_name":"Dense","config":{"units":25,"activation":"linear","use_bias":true,"kernel_initializer":{"class_name":"VarianceScaling","config":{"scale":1,"mode":"fan_avg","distribution":"normal","seed":null}},"bias_initializer":{"class_name":"Zeros","config":{}},"kernel_regularizer":null,"bias_regularizer":null,"activity_regularizer":null,"kernel_constraint":null,"bias_constraint":null,"name":"dense_Dense13","trainable":true,"batch_input_shape":[null,25],"dtype":"float32"}},{"class_name":"Dense","config":{"units":25,"activation":"linear","use_bias":true,"kernel_initializer":{"class_name":"VarianceScaling","config":{"scale":1,"mode":"fan_avg","distribution":"normal","seed":null}},"bias_initializer":{"class_name":"Zeros","config":{}},"kernel_regularizer":null,"bias_regularizer":null,"activity_regularizer":null,"kernel_constraint":null,"bias_constraint":null,"name":"dense_Dense14","trainable":true,"batch_input_shape":[null,25],"dtype":"float32"}},{"class_name":"Dense","config":{"units":25,"activation":"linear","use_bias":true,"kernel_initializer":{"class_name":"VarianceScaling","config":{"scale":1,"mode":"fan_avg","distribution":"normal","seed":null}},"bias_initializer":{"class_name":"Zeros","config":{}},"kernel_regularizer":null,"bias_regularizer":null,"activity_regularizer":null,"kernel_constraint":null,"bias_constraint":null,"name":"dense_Dense15","trainable":true,"batch_input_shape":[null,25],"dtype":"float32"}},{"class_name":"Dense","config":{"units":25,"activation":"linear","use_bias":true,"kernel_initializer":{"class_name":"VarianceScaling","config":{"scale":1,"mode":"fan_avg","distribution":"normal","seed":null}},"bias_initializer":{"class_name":"Zeros","config":{}},"kernel_regularizer":null,"bias_regularizer":null,"activity_regularizer":null,"kernel_constraint":null,"bias_constraint":null,"name":"dense_Dense16","trainable":true,"batch_input_shape":[null,25],"dtype":"float32"}},{"class_name":"Dense","config":{"units":25,"activation":"linear","use_bias":true,"kernel_initializer":{"class_name":"VarianceScaling","config":{"scale":1,"mode":"fan_avg","distribution":"normal","seed":null}},"bias_initializer":{"class_name":"Zeros","config":{}},"kernel_regularizer":null,"bias_regularizer":null,"activity_regularizer":null,"kernel_constraint":null,"bias_constraint":null,"name":"dense_Dense17","trainable":true,"batch_input_shape":[null,25],"dtype":"float32"}},{"class_name":"Dense","config":{"units":25,"activation":"linear","use_bias":true,"kernel_initializer":{"class_name":"VarianceScaling","config":{"scale":1,"mode":"fan_avg","distribution":"normal","seed":null}},"bias_initializer":{"class_name":"Zeros","config":{}},"kernel_regularizer":null,"bias_regularizer":null,"activity_regularizer":null,"kernel_constraint":null,"bias_constraint":null,"name":"dense_Dense18","trainable":true,"batch_input_shape":[null,25],"dtype":"float32"}},{"class_name":"Dense","config":{"units":25,"activation":"linear","use_bias":true,"kernel_initializer":{"class_name":"VarianceScaling","config":{"scale":1,"mode":"fan_avg","distribution":"normal","seed":null}},"bias_initializer":{"class_name":"Zeros","config":{}},"kernel_regularizer":null,"bias_regularizer":null,"activity_regularizer":null,"kernel_constraint":null,"bias_constraint":null,"name":"dense_Dense19","trainable":true,"batch_input_shape":[null,25],"dtype":"float32"}},{"class_name":"Dense","config":{"units":25,"activation":"linear","use_bias":true,"kernel_initializer":{"class_name":"VarianceScaling","config":{"scale":1,"mode":"fan_avg","distribution":"normal","seed":null}},"bias_initializer":{"class_name":"Zeros","config":{}},"kernel_regularizer":null,"bias_regularizer":null,"activity_regularizer":null,"kernel_constraint":null,"bias_constraint":null,"name":"dense_Dense20","trainable":true,"batch_input_shape":[null,25],"dtype":"float32"}},{"class_name":"Dense","config":{"units":25,"activation":"linear","use_bias":true,"kernel_initializer":{"class_name":"VarianceScaling","config":{"scale":1,"mode":"fan_avg","distribution":"normal","seed":null}},"bias_initializer":{"class_name":"Zeros","config":{}},"kernel_regularizer":null,"bias_regularizer":null,"activity_regularizer":null,"kernel_constraint":null,"bias_constraint":null,"name":"dense_Dense21","trainable":true,"batch_input_shape":[null,25],"dtype":"float32"}},{"class_name":"Dense","config":{"units":25,"activation":"linear","use_bias":true,"kernel_initializer":{"class_name":"VarianceScaling","config":{"scale":1,"mode":"fan_avg","distribution":"normal","seed":null}},"bias_initializer":{"class_name":"Zeros","config":{}},"kernel_regularizer":null,"bias_regularizer":null,"activity_regularizer":null,"kernel_constraint":null,"bias_constraint":null,"name":"dense_Dense22","trainable":true,"batch_input_shape":[null,25],"dtype":"float32"}},{"class_name":"Dense","config":{"units":25,"activation":"linear","use_bias":true,"kernel_initializer":{"class_name":"VarianceScaling","config":{"scale":1,"mode":"fan_avg","distribution":"normal","seed":null}},"bias_initializer":{"class_name":"Zeros","config":{}},"kernel_regularizer":null,"bias_regularizer":null,"activity_regularizer":null,"kernel_constraint":null,"bias_constraint":null,"name":"dense_Dense23","trainable":true,"batch_input_shape":[null,25],"dtype":"float32"}},{"class_name":"Dense","config":{"units":25,"activation":"linear","use_bias":true,"kernel_initializer":{"class_name":"VarianceScaling","config":{"scale":1,"mode":"fan_avg","distribution":"normal","seed":null}},"bias_initializer":{"class_name":"Zeros","config":{}},"kernel_regularizer":null,"bias_regularizer":null,"activity_regularizer":null,"kernel_constraint":null,"bias_constraint":null,"name":"dense_Dense24","trainable":true,"batch_input_shape":[null,25],"dtype":"float32"}},{"class_name":"Dense","config":{"units":25,"activation":"linear","use_bias":true,"kernel_initializer":{"class_name":"VarianceScaling","config":{"scale":1,"mode":"fan_avg","distribution":"normal","seed":null}},"bias_initializer":{"class_name":"Zeros","config":{}},"kernel_regularizer":null,"bias_regularizer":null,"activity_regularizer":null,"kernel_constraint":null,"bias_constraint":null,"name":"dense_Dense25","trainable":true,"batch_input_shape":[null,25],"dtype":"float32"}},{"class_name":"Dense","config":{"units":25,"activation":"linear","use_bias":true,"kernel_initializer":{"class_name":"VarianceScaling","config":{"scale":1,"mode":"fan_avg","distribution":"normal","seed":null}},"bias_initializer":{"class_name":"Zeros","config":{}},"kernel_regularizer":null,"bias_regularizer":null,"activity_regularizer":null,"kernel_constraint":null,"bias_constraint":null,"name":"dense_Dense26","trainable":true,"batch_input_shape":[null,25],"dtype":"float32"}},{"class_name":"Dense","config":{"units":25,"activation":"linear","use_bias":true,"kernel_initializer":{"class_name":"VarianceScaling","config":{"scale":1,"mode":"fan_avg","distribution":"normal","seed":null}},"bias_initializer":{"class_name":"Zeros","config":{}},"kernel_regularizer":null,"bias_regularizer":null,"activity_regularizer":null,"kernel_constraint":null,"bias_constraint":null,"name":"dense_Dense27","trainable":true,"batch_input_shape":[null,25],"dtype":"float32"}},{"class_name":"Dense","config":{"units":25,"activation":"linear","use_bias":true,"kernel_initializer":{"class_name":"VarianceScaling","config":{"scale":1,"mode":"fan_avg","distribution":"normal","seed":null}},"bias_initializer":{"class_name":"Zeros","config":{}},"kernel_regularizer":null,"bias_regularizer":null,"activity_regularizer":null,"kernel_constraint":null,"bias_constraint":null,"name":"dense_Dense28","trainable":true,"batch_input_shape":[null,25],"dtype":"float32"}},{"class_name":"Dense","config":{"units":25,"activation":"linear","use_bias":true,"kernel_initializer":{"class_name":"VarianceScaling","config":{"scale":1,"mode":"fan_avg","distribution":"normal","seed":null}},"bias_initializer":{"class_name":"Zeros","config":{}},"kernel_regularizer":null,"bias_regularizer":null,"activity_regularizer":null,"kernel_constraint":null,"bias_constraint":null,"name":"dense_Dense29","trainable":true,"batch_input_shape":[null,25],"dtype":"float32"}},{"class_name":"Dense","config":{"units":25,"activation":"linear","use_bias":true,"kernel_initializer":{"class_name":"VarianceScaling","config":{"scale":1,"mode":"fan_avg","distribution":"normal","seed":null}},"bias_initializer":{"class_name":"Zeros","config":{}},"kernel_regularizer":null,"bias_regularizer":null,"activity_regularizer":null,"kernel_constraint":null,"bias_constraint":null,"name":"dense_Dense30","trainable":true,"batch_input_shape":[null,25],"dtype":"float32"}},{"class_name":"Dense","config":{"units":25,"activation":"linear","use_bias":true,"kernel_initializer":{"class_name":"VarianceScaling","config":{"scale":1,"mode":"fan_avg","distribution":"normal","seed":null}},"bias_initializer":{"class_name":"Zeros","config":{}},"kernel_regularizer":null,"bias_regularizer":null,"activity_regularizer":null,"kernel_constraint":null,"bias_constraint":null,"name":"dense_Dense31","trainable":true,"batch_input_shape":[null,25],"dtype":"float32"}},{"class_name":"Dense","config":{"units":25,"activation":"linear","use_bias":true,"kernel_initializer":{"class_name":"VarianceScaling","config":{"scale":1,"mode":"fan_avg","distribution":"normal","seed":null}},"bias_initializer":{"class_name":"Zeros","config":{}},"kernel_regularizer":null,"bias_regularizer":null,"activity_regularizer":null,"kernel_constraint":null,"bias_constraint":null,"name":"dense_Dense32","trainable":true,"batch_input_shape":[null,25],"dtype":"float32"}},{"class_name":"Dense","config":{"units":25,"activation":"linear","use_bias":true,"kernel_initializer":{"class_name":"VarianceScaling","config":{"scale":1,"mode":"fan_avg","distribution":"normal","seed":null}},"bias_initializer":{"class_name":"Zeros","config":{}},"kernel_regularizer":null,"bias_regularizer":null,"activity_regularizer":null,"kernel_constraint":null,"bias_constraint":null,"name":"dense_Dense33","trainable":true,"batch_input_shape":[null,25],"dtype":"float32"}},{"class_name":"Dense","config":{"units":25,"activation":"linear","use_bias":true,"kernel_initializer":{"class_name":"VarianceScaling","config":{"scale":1,"mode":"fan_avg","distribution":"normal","seed":null}},"bias_initializer":{"class_name":"Zeros","config":{}},"kernel_regularizer":null,"bias_regularizer":null,"activity_regularizer":null,"kernel_constraint":null,"bias_constraint":null,"name":"dense_Dense34","trainable":true,"batch_input_shape":[null,25],"dtype":"float32"}},{"class_name":"Dense","config":{"units":25,"activation":"linear","use_bias":true,"kernel_initializer":{"class_name":"VarianceScaling","config":{"scale":1,"mode":"fan_avg","distribution":"normal","seed":null}},"bias_initializer":{"class_name":"Zeros","config":{}},"kernel_regularizer":null,"bias_regularizer":null,"activity_regularizer":null,"kernel_constraint":null,"bias_constraint":null,"name":"dense_Dense35","trainable":true,"batch_input_shape":[null,25],"dtype":"float32"}},{"class_name":"Dense","config":{"units":25,"activation":"linear","use_bias":true,"kernel_initializer":{"class_name":"VarianceScaling","config":{"scale":1,"mode":"fan_avg","distribution":"normal","seed":null}},"bias_initializer":{"class_name":"Zeros","config":{}},"kernel_regularizer":null,"bias_regularizer":null,"activity_regularizer":null,"kernel_constraint":null,"bias_constraint":null,"name":"dense_Dense36","trainable":true,"batch_input_shape":[null,25],"dtype":"float32"}},{"class_name":"Dense","config":{"units":25,"activation":"linear","use_bias":true,"kernel_initializer":{"class_name":"VarianceScaling","config":{"scale":1,"mode":"fan_avg","distribution":"normal","seed":null}},"bias_initializer":{"class_name":"Zeros","config":{}},"kernel_regularizer":null,"bias_regularizer":null,"activity_regularizer":null,"kernel_constraint":null,"bias_constraint":null,"name":"dense_Dense37","trainable":true,"batch_input_shape":[null,25],"dtype":"float32"}},{"class_name":"Dense","config":{"units":25,"activation":"linear","use_bias":true,"kernel_initializer":{"class_name":"VarianceScaling","config":{"scale":1,"mode":"fan_avg","distribution":"normal","seed":null}},"bias_initializer":{"class_name":"Zeros","config":{}},"kernel_regularizer":null,"bias_regularizer":null,"activity_regularizer":null,"kernel_constraint":null,"bias_constraint":null,"name":"dense_Dense38","trainable":true,"batch_input_shape":[null,25],"dtype":"float32"}},{"class_name":"Dense","config":{"units":25,"activation":"linear","use_bias":true,"kernel_initializer":{"class_name":"VarianceScaling","config":{"scale":1,"mode":"fan_avg","distribution":"normal","seed":null}},"bias_initializer":{"class_name":"Zeros","config":{}},"kernel_regularizer":null,"bias_regularizer":null,"activity_regularizer":null,"kernel_constraint":null,"bias_constraint":null,"name":"dense_Dense39","trainable":true,"batch_input_shape":[null,25],"dtype":"float32"}},{"class_name":"Dense","config":{"units":25,"activation":"linear","use_bias":true,"kernel_initializer":{"class_name":"VarianceScaling","config":{"scale":1,"mode":"fan_avg","distribution":"normal","seed":null}},"bias_initializer":{"class_name":"Zeros","config":{}},"kernel_regularizer":null,"bias_regularizer":null,"activity_regularizer":null,"kernel_constraint":null,"bias_constraint":null,"name":"dense_Dense40","trainable":true,"batch_input_shape":[null,25],"dtype":"float32"}},{"class_name":"Dense","config":{"units":25,"activation":"linear","use_bias":true,"kernel_initializer":{"class_name":"VarianceScaling","config":{"scale":1,"mode":"fan_avg","distribution":"normal","seed":null}},"bias_initializer":{"class_name":"Zeros","config":{}},"kernel_regularizer":null,"bias_regularizer":null,"activity_regularizer":null,"kernel_constraint":null,"bias_constraint":null,"name":"dense_Dense41","trainable":true,"batch_input_shape":[null,25],"dtype":"float32"}},{"class_name":"Dense","config":{"units":25,"activation":"linear","use_bias":true,"kernel_initializer":{"class_name":"VarianceScaling","config":{"scale":1,"mode":"fan_avg","distribution":"normal","seed":null}},"bias_initializer":{"class_name":"Zeros","config":{}},"kernel_regularizer":null,"bias_regularizer":null,"activity_regularizer":null,"kernel_constraint":null,"bias_constraint":null,"name":"dense_Dense42","trainable":true,"batch_input_shape":[null,25],"dtype":"float32"}},{"class_name":"Dense","config":{"units":25,"activation":"linear","use_bias":true,"kernel_initializer":{"class_name":"VarianceScaling","config":{"scale":1,"mode":"fan_avg","distribution":"normal","seed":null}},"bias_initializer":{"class_name":"Zeros","config":{}},"kernel_regularizer":null,"bias_regularizer":null,"activity_regularizer":null,"kernel_constraint":null,"bias_constraint":null,"name":"dense_Dense43","trainable":true,"batch_input_shape":[null,25],"dtype":"float32"}},{"class_name":"Dense","config":{"units":25,"activation":"linear","use_bias":true,"kernel_initializer":{"class_name":"VarianceScaling","config":{"scale":1,"mode":"fan_avg","distribution":"normal","seed":null}},"bias_initializer":{"class_name":"Zeros","config":{}},"kernel_regularizer":null,"bias_regularizer":null,"activity_regularizer":null,"kernel_constraint":null,"bias_constraint":null,"name":"dense_Dense44","trainable":true,"batch_input_shape":[null,25],"dtype":"float32"}},{"class_name":"Dense","config":{"units":25,"activation":"linear","use_bias":true,"kernel_initializer":{"class_name":"VarianceScaling","config":{"scale":1,"mode":"fan_avg","distribution":"normal","seed":null}},"bias_initializer":{"class_name":"Zeros","config":{}},"kernel_regularizer":null,"bias_regularizer":null,"activity_regularizer":null,"kernel_constraint":null,"bias_constraint":null,"name":"dense_Dense45","trainable":true,"batch_input_shape":[null,25],"dtype":"float32"}},{"class_name":"Dense","config":{"units":25,"activation":"linear","use_bias":true,"kernel_initializer":{"class_name":"VarianceScaling","config":{"scale":1,"mode":"fan_avg","distribution":"normal","seed":null}},"bias_initializer":{"class_name":"Zeros","config":{}},"kernel_regularizer":null,"bias_regularizer":null,"activity_regularizer":null,"kernel_constraint":null,"bias_constraint":null,"name":"dense_Dense46","trainable":true,"batch_input_shape":[null,25],"dtype":"float32"}},{"class_name":"Dense","config":{"units":25,"activation":"linear","use_bias":true,"kernel_initializer":{"class_name":"VarianceScaling","config":{"scale":1,"mode":"fan_avg","distribution":"normal","seed":null}},"bias_initializer":{"class_name":"Zeros","config":{}},"kernel_regularizer":null,"bias_regularizer":null,"activity_regularizer":null,"kernel_constraint":null,"bias_constraint":null,"name":"dense_Dense47","trainable":true,"batch_input_shape":[null,25],"dtype":"float32"}},{"class_name":"Dense","config":{"units":25,"activation":"linear","use_bias":true,"kernel_initializer":{"class_name":"VarianceScaling","config":{"scale":1,"mode":"fan_avg","distribution":"normal","seed":null}},"bias_initializer":{"class_name":"Zeros","config":{}},"kernel_regularizer":null,"bias_regularizer":null,"activity_regularizer":null,"kernel_constraint":null,"bias_constraint":null,"name":"dense_Dense48","trainable":true,"batch_input_shape":[null,25],"dtype":"float32"}},{"class_name":"Dense","config":{"units":25,"activation":"linear","use_bias":true,"kernel_initializer":{"class_name":"VarianceScaling","config":{"scale":1,"mode":"fan_avg","distribution":"normal","seed":null}},"bias_initializer":{"class_name":"Zeros","config":{}},"kernel_regularizer":null,"bias_regularizer":null,"activity_regularizer":null,"kernel_constraint":null,"bias_constraint":null,"name":"dense_Dense49","trainable":true,"batch_input_shape":[null,25],"dtype":"float32"}},{"class_name":"Dense","config":{"units":25,"activation":"linear","use_bias":true,"kernel_initializer":{"class_name":"VarianceScaling","config":{"scale":1,"mode":"fan_avg","distribution":"normal","seed":null}},"bias_initializer":{"class_name":"Zeros","config":{}},"kernel_regularizer":null,"bias_regularizer":null,"activity_regularizer":null,"kernel_constraint":null,"bias_constraint":null,"name":"dense_Dense50","trainable":true,"batch_input_shape":[null,25],"dtype":"float32"}},{"class_name":"Dense","config":{"units":25,"activation":"linear","use_bias":true,"kernel_initializer":{"class_name":"VarianceScaling","config":{"scale":1,"mode":"fan_avg","distribution":"normal","seed":null}},"bias_initializer":{"class_name":"Zeros","config":{}},"kernel_regularizer":null,"bias_regularizer":null,"activity_regularizer":null,"kernel_constraint":null,"bias_constraint":null,"name":"dense_Dense51","trainable":true,"batch_input_shape":[null,25],"dtype":"float32"}},{"class_name":"Dense","config":{"units":25,"activation":"linear","use_bias":true,"kernel_initializer":{"class_name":"VarianceScaling","config":{"scale":1,"mode":"fan_avg","distribution":"normal","seed":null}},"bias_initializer":{"class_name":"Zeros","config":{}},"kernel_regularizer":null,"bias_regularizer":null,"activity_regularizer":null,"kernel_constraint":null,"bias_constraint":null,"name":"dense_Dense52","trainable":true,"batch_input_shape":[null,25],"dtype":"float32"}},{"class_name":"Dense","config":{"units":25,"activation":"linear","use_bias":true,"kernel_initializer":{"class_name":"VarianceScaling","config":{"scale":1,"mode":"fan_avg","distribution":"normal","seed":null}},"bias_initializer":{"class_name":"Zeros","config":{}},"kernel_regularizer":null,"bias_regularizer":null,"activity_regularizer":null,"kernel_constraint":null,"bias_constraint":null,"name":"dense_Dense53","trainable":true,"batch_input_shape":[null,25],"dtype":"float32"}},{"class_name":"Dense","config":{"units":25,"activation":"linear","use_bias":true,"kernel_initializer":{"class_name":"VarianceScaling","config":{"scale":1,"mode":"fan_avg","distribution":"normal","seed":null}},"bias_initializer":{"class_name":"Zeros","config":{}},"kernel_regularizer":null,"bias_regularizer":null,"activity_regularizer":null,"kernel_constraint":null,"bias_constraint":null,"name":"dense_Dense54","trainable":true,"batch_input_shape":[null,25],"dtype":"float32"}},{"class_name":"Dense","config":{"units":25,"activation":"linear","use_bias":true,"kernel_initializer":{"class_name":"VarianceScaling","config":{"scale":1,"mode":"fan_avg","distribution":"normal","seed":null}},"bias_initializer":{"class_name":"Zeros","config":{}},"kernel_regularizer":null,"bias_regularizer":null,"activity_regularizer":null,"kernel_constraint":null,"bias_constraint":null,"name":"dense_Dense55","trainable":true,"batch_input_shape":[null,25],"dtype":"float32"}},{"class_name":"Dense","config":{"units":25,"activation":"linear","use_bias":true,"kernel_initializer":{"class_name":"VarianceScaling","config":{"scale":1,"mode":"fan_avg","distribution":"normal","seed":null}},"bias_initializer":{"class_name":"Zeros","config":{}},"kernel_regularizer":null,"bias_regularizer":null,"activity_regularizer":null,"kernel_constraint":null,"bias_constraint":null,"name":"dense_Dense56","trainable":true,"batch_input_shape":[null,25],"dtype":"float32"}},{"class_name":"Dense","config":{"units":25,"activation":"linear","use_bias":true,"kernel_initializer":{"class_name":"VarianceScaling","config":{"scale":1,"mode":"fan_avg","distribution":"normal","seed":null}},"bias_initializer":{"class_name":"Zeros","config":{}},"kernel_regularizer":null,"bias_regularizer":null,"activity_regularizer":null,"kernel_constraint":null,"bias_constraint":null,"name":"dense_Dense57","trainable":true,"batch_input_shape":[null,25],"dtype":"float32"}},{"class_name":"Dense","config":{"units":25,"activation":"linear","use_bias":true,"kernel_initializer":{"class_name":"VarianceScaling","config":{"scale":1,"mode":"fan_avg","distribution":"normal","seed":null}},"bias_initializer":{"class_name":"Zeros","config":{}},"kernel_regularizer":null,"bias_regularizer":null,"activity_regularizer":null,"kernel_constraint":null,"bias_constraint":null,"name":"dense_Dense58","trainable":true,"batch_input_shape":[null,25],"dtype":"float32"}},{"class_name":"Dense","config":{"units":25,"activation":"linear","use_bias":true,"kernel_initializer":{"class_name":"VarianceScaling","config":{"scale":1,"mode":"fan_avg","distribution":"normal","seed":null}},"bias_initializer":{"class_name":"Zeros","config":{}},"kernel_regularizer":null,"bias_regularizer":null,"activity_regularizer":null,"kernel_constraint":null,"bias_constraint":null,"name":"dense_Dense59","trainable":true,"batch_input_shape":[null,25],"dtype":"float32"}},{"class_name":"Dense","config":{"units":25,"activation":"linear","use_bias":true,"kernel_initializer":{"class_name":"VarianceScaling","config":{"scale":1,"mode":"fan_avg","distribution":"normal","seed":null}},"bias_initializer":{"class_name":"Zeros","config":{}},"kernel_regularizer":null,"bias_regularizer":null,"activity_regularizer":null,"kernel_constraint":null,"bias_constraint":null,"name":"dense_Dense60","trainable":true,"batch_input_shape":[null,25],"dtype":"float32"}},{"class_name":"Dense","config":{"units":25,"activation":"linear","use_bias":true,"kernel_initializer":{"class_name":"VarianceScaling","config":{"scale":1,"mode":"fan_avg","distribution":"normal","seed":null}},"bias_initializer":{"class_name":"Zeros","config":{}},"kernel_regularizer":null,"bias_regularizer":null,"activity_regularizer":null,"kernel_constraint":null,"bias_constraint":null,"name":"dense_Dense61","trainable":true,"batch_input_shape":[null,25],"dtype":"float32"}},{"class_name":"Dense","config":{"units":25,"activation":"linear","use_bias":true,"kernel_initializer":{"class_name":"VarianceScaling","config":{"scale":1,"mode":"fan_avg","distribution":"normal","seed":null}},"bias_initializer":{"class_name":"Zeros","config":{}},"kernel_regularizer":null,"bias_regularizer":null,"activity_regularizer":null,"kernel_constraint":null,"bias_constraint":null,"name":"dense_Dense62","trainable":true,"batch_input_shape":[null,25],"dtype":"float32"}},{"class_name":"Dense","config":{"units":25,"activation":"linear","use_bias":true,"kernel_initializer":{"class_name":"VarianceScaling","config":{"scale":1,"mode":"fan_avg","distribution":"normal","seed":null}},"bias_initializer":{"class_name":"Zeros","config":{}},"kernel_regularizer":null,"bias_regularizer":null,"activity_regularizer":null,"kernel_constraint":null,"bias_constraint":null,"name":"dense_Dense63","trainable":true,"batch_input_shape":[null,25],"dtype":"float32"}},{"class_name":"Dense","config":{"units":25,"activation":"linear","use_bias":true,"kernel_initializer":{"class_name":"VarianceScaling","config":{"scale":1,"mode":"fan_avg","distribution":"normal","seed":null}},"bias_initializer":{"class_name":"Zeros","config":{}},"kernel_regularizer":null,"bias_regularizer":null,"activity_regularizer":null,"kernel_constraint":null,"bias_constraint":null,"name":"dense_Dense64","trainable":true,"batch_input_shape":[null,25],"dtype":"float32"}},{"class_name":"Dense","config":{"units":25,"activation":"linear","use_bias":true,"kernel_initializer":{"class_name":"VarianceScaling","config":{"scale":1,"mode":"fan_avg","distribution":"normal","seed":null}},"bias_initializer":{"class_name":"Zeros","config":{}},"kernel_regularizer":null,"bias_regularizer":null,"activity_regularizer":null,"kernel_constraint":null,"bias_constraint":null,"name":"dense_Dense65","trainable":true,"batch_input_shape":[null,25],"dtype":"float32"}},{"class_name":"Dense","config":{"units":25,"activation":"linear","use_bias":true,"kernel_initializer":{"class_name":"VarianceScaling","config":{"scale":1,"mode":"fan_avg","distribution":"normal","seed":null}},"bias_initializer":{"class_name":"Zeros","config":{}},"kernel_regularizer":null,"bias_regularizer":null,"activity_regularizer":null,"kernel_constraint":null,"bias_constraint":null,"name":"dense_Dense66","trainable":true,"batch_input_shape":[null,25],"dtype":"float32"}},{"class_name":"Dense","config":{"units":25,"activation":"linear","use_bias":true,"kernel_initializer":{"class_name":"VarianceScaling","config":{"scale":1,"mode":"fan_avg","distribution":"normal","seed":null}},"bias_initializer":{"class_name":"Zeros","config":{}},"kernel_regularizer":null,"bias_regularizer":null,"activity_regularizer":null,"kernel_constraint":null,"bias_constraint":null,"name":"dense_Dense67","trainable":true,"batch_input_shape":[null,25],"dtype":"float32"}},{"class_name":"Dense","config":{"units":25,"activation":"linear","use_bias":true,"kernel_initializer":{"class_name":"VarianceScaling","config":{"scale":1,"mode":"fan_avg","distribution":"normal","seed":null}},"bias_initializer":{"class_name":"Zeros","config":{}},"kernel_regularizer":null,"bias_regularizer":null,"activity_regularizer":null,"kernel_constraint":null,"bias_constraint":null,"name":"dense_Dense68","trainable":true,"batch_input_shape":[null,25],"dtype":"float32"}},{"class_name":"Dense","config":{"units":25,"activation":"linear","use_bias":true,"kernel_initializer":{"class_name":"VarianceScaling","config":{"scale":1,"mode":"fan_avg","distribution":"normal","seed":null}},"bias_initializer":{"class_name":"Zeros","config":{}},"kernel_regularizer":null,"bias_regularizer":null,"activity_regularizer":null,"kernel_constraint":null,"bias_constraint":null,"name":"dense_Dense69","trainable":true,"batch_input_shape":[null,25],"dtype":"float32"}},{"class_name":"Dense","config":{"units":25,"activation":"linear","use_bias":true,"kernel_initializer":{"class_name":"VarianceScaling","config":{"scale":1,"mode":"fan_avg","distribution":"normal","seed":null}},"bias_initializer":{"class_name":"Zeros","config":{}},"kernel_regularizer":null,"bias_regularizer":null,"activity_regularizer":null,"kernel_constraint":null,"bias_constraint":null,"name":"dense_Dense70","trainable":true,"batch_input_shape":[null,25],"dtype":"float32"}},{"class_name":"Dense","config":{"units":25,"activation":"linear","use_bias":true,"kernel_initializer":{"class_name":"VarianceScaling","config":{"scale":1,"mode":"fan_avg","distribution":"normal","seed":null}},"bias_initializer":{"class_name":"Zeros","config":{}},"kernel_regularizer":null,"bias_regularizer":null,"activity_regularizer":null,"kernel_constraint":null,"bias_constraint":null,"name":"dense_Dense71","trainable":true,"batch_input_shape":[null,25],"dtype":"float32"}},{"class_name":"Dense","config":{"units":25,"activation":"linear","use_bias":true,"kernel_initializer":{"class_name":"VarianceScaling","config":{"scale":1,"mode":"fan_avg","distribution":"normal","seed":null}},"bias_initializer":{"class_name":"Zeros","config":{}},"kernel_regularizer":null,"bias_regularizer":null,"activity_regularizer":null,"kernel_constraint":null,"bias_constraint":null,"name":"dense_Dense72","trainable":true,"batch_input_shape":[null,25],"dtype":"float32"}},{"class_name":"Dense","config":{"units":25,"activation":"linear","use_bias":true,"kernel_initializer":{"class_name":"VarianceScaling","config":{"scale":1,"mode":"fan_avg","distribution":"normal","seed":null}},"bias_initializer":{"class_name":"Zeros","config":{}},"kernel_regularizer":null,"bias_regularizer":null,"activity_regularizer":null,"kernel_constraint":null,"bias_constraint":null,"name":"dense_Dense73","trainable":true,"batch_input_shape":[null,25],"dtype":"float32"}},{"class_name":"Dense","config":{"units":25,"activation":"linear","use_bias":true,"kernel_initializer":{"class_name":"VarianceScaling","config":{"scale":1,"mode":"fan_avg","distribution":"normal","seed":null}},"bias_initializer":{"class_name":"Zeros","config":{}},"kernel_regularizer":null,"bias_regularizer":null,"activity_regularizer":null,"kernel_constraint":null,"bias_constraint":null,"name":"dense_Dense74","trainable":true,"batch_input_shape":[null,25],"dtype":"float32"}},{"class_name":"Dense","config":{"units":25,"activation":"linear","use_bias":true,"kernel_initializer":{"class_name":"VarianceScaling","config":{"scale":1,"mode":"fan_avg","distribution":"normal","seed":null}},"bias_initializer":{"class_name":"Zeros","config":{}},"kernel_regularizer":null,"bias_regularizer":null,"activity_regularizer":null,"kernel_constraint":null,"bias_constraint":null,"name":"dense_Dense75","trainable":true,"batch_input_shape":[null,25],"dtype":"float32"}},{"class_name":"Dense","config":{"units":25,"activation":"linear","use_bias":true,"kernel_initializer":{"class_name":"VarianceScaling","config":{"scale":1,"mode":"fan_avg","distribution":"normal","seed":null}},"bias_initializer":{"class_name":"Zeros","config":{}},"kernel_regularizer":null,"bias_regularizer":null,"activity_regularizer":null,"kernel_constraint":null,"bias_constraint":null,"name":"dense_Dense76","trainable":true,"batch_input_shape":[null,25],"dtype":"float32"}},{"class_name":"Dense","config":{"units":25,"activation":"linear","use_bias":true,"kernel_initializer":{"class_name":"VarianceScaling","config":{"scale":1,"mode":"fan_avg","distribution":"normal","seed":null}},"bias_initializer":{"class_name":"Zeros","config":{}},"kernel_regularizer":null,"bias_regularizer":null,"activity_regularizer":null,"kernel_constraint":null,"bias_constraint":null,"name":"dense_Dense77","trainable":true,"batch_input_shape":[null,25],"dtype":"float32"}},{"class_name":"Dense","config":{"units":25,"activation":"linear","use_bias":true,"kernel_initializer":{"class_name":"VarianceScaling","config":{"scale":1,"mode":"fan_avg","distribution":"normal","seed":null}},"bias_initializer":{"class_name":"Zeros","config":{}},"kernel_regularizer":null,"bias_regularizer":null,"activity_regularizer":null,"kernel_constraint":null,"bias_constraint":null,"name":"dense_Dense78","trainable":true,"batch_input_shape":[null,25],"dtype":"float32"}},{"class_name":"Dense","config":{"units":25,"activation":"linear","use_bias":true,"kernel_initializer":{"class_name":"VarianceScaling","config":{"scale":1,"mode":"fan_avg","distribution":"normal","seed":null}},"bias_initializer":{"class_name":"Zeros","config":{}},"kernel_regularizer":null,"bias_regularizer":null,"activity_regularizer":null,"kernel_constraint":null,"bias_constraint":null,"name":"dense_Dense79","trainable":true,"batch_input_shape":[null,25],"dtype":"float32"}},{"class_name":"Dense","config":{"units":25,"activation":"linear","use_bias":true,"kernel_initializer":{"class_name":"VarianceScaling","config":{"scale":1,"mode":"fan_avg","distribution":"normal","seed":null}},"bias_initializer":{"class_name":"Zeros","config":{}},"kernel_regularizer":null,"bias_regularizer":null,"activity_regularizer":null,"kernel_constraint":null,"bias_constraint":null,"name":"dense_Dense80","trainable":true,"batch_input_shape":[null,25],"dtype":"float32"}},{"class_name":"Dense","config":{"units":25,"activation":"linear","use_bias":true,"kernel_initializer":{"class_name":"VarianceScaling","config":{"scale":1,"mode":"fan_avg","distribution":"normal","seed":null}},"bias_initializer":{"class_name":"Zeros","config":{}},"kernel_regularizer":null,"bias_regularizer":null,"activity_regularizer":null,"kernel_constraint":null,"bias_constraint":null,"name":"dense_Dense81","trainable":true,"batch_input_shape":[null,25],"dtype":"float32"}},{"class_name":"Dense","config":{"units":25,"activation":"linear","use_bias":true,"kernel_initializer":{"class_name":"VarianceScaling","config":{"scale":1,"mode":"fan_avg","distribution":"normal","seed":null}},"bias_initializer":{"class_name":"Zeros","config":{}},"kernel_regularizer":null,"bias_regularizer":null,"activity_regularizer":null,"kernel_constraint":null,"bias_constraint":null,"name":"dense_Dense82","trainable":true,"batch_input_shape":[null,25],"dtype":"float32"}},{"class_name":"Dense","config":{"units":25,"activation":"linear","use_bias":true,"kernel_initializer":{"class_name":"VarianceScaling","config":{"scale":1,"mode":"fan_avg","distribution":"normal","seed":null}},"bias_initializer":{"class_name":"Zeros","config":{}},"kernel_regularizer":null,"bias_regularizer":null,"activity_regularizer":null,"kernel_constraint":null,"bias_constraint":null,"name":"dense_Dense83","trainable":true,"batch_input_shape":[null,25],"dtype":"float32"}},{"class_name":"Dense","config":{"units":25,"activation":"linear","use_bias":true,"kernel_initializer":{"class_name":"VarianceScaling","config":{"scale":1,"mode":"fan_avg","distribution":"normal","seed":null}},"bias_initializer":{"class_name":"Zeros","config":{}},"kernel_regularizer":null,"bias_regularizer":null,"activity_regularizer":null,"kernel_constraint":null,"bias_constraint":null,"name":"dense_Dense84","trainable":true,"batch_input_shape":[null,25],"dtype":"float32"}},{"class_name":"Dense","config":{"units":25,"activation":"linear","use_bias":true,"kernel_initializer":{"class_name":"VarianceScaling","config":{"scale":1,"mode":"fan_avg","distribution":"normal","seed":null}},"bias_initializer":{"class_name":"Zeros","config":{}},"kernel_regularizer":null,"bias_regularizer":null,"activity_regularizer":null,"kernel_constraint":null,"bias_constraint":null,"name":"dense_Dense85","trainable":true,"batch_input_shape":[null,25],"dtype":"float32"}},{"class_name":"Dense","config":{"units":25,"activation":"linear","use_bias":true,"kernel_initializer":{"class_name":"VarianceScaling","config":{"scale":1,"mode":"fan_avg","distribution":"normal","seed":null}},"bias_initializer":{"class_name":"Zeros","config":{}},"kernel_regularizer":null,"bias_regularizer":null,"activity_regularizer":null,"kernel_constraint":null,"bias_constraint":null,"name":"dense_Dense86","trainable":true,"batch_input_shape":[null,25],"dtype":"float32"}},{"class_name":"Dense","config":{"units":25,"activation":"linear","use_bias":true,"kernel_initializer":{"class_name":"VarianceScaling","config":{"scale":1,"mode":"fan_avg","distribution":"normal","seed":null}},"bias_initializer":{"class_name":"Zeros","config":{}},"kernel_regularizer":null,"bias_regularizer":null,"activity_regularizer":null,"kernel_constraint":null,"bias_constraint":null,"name":"dense_Dense87","trainable":true,"batch_input_shape":[null,25],"dtype":"float32"}},{"class_name":"Dense","config":{"units":25,"activation":"linear","use_bias":true,"kernel_initializer":{"class_name":"VarianceScaling","config":{"scale":1,"mode":"fan_avg","distribution":"normal","seed":null}},"bias_initializer":{"class_name":"Zeros","config":{}},"kernel_regularizer":null,"bias_regularizer":null,"activity_regularizer":null,"kernel_constraint":null,"bias_constraint":null,"name":"dense_Dense88","trainable":true,"batch_input_shape":[null,25],"dtype":"float32"}},{"class_name":"Dense","config":{"units":25,"activation":"linear","use_bias":true,"kernel_initializer":{"class_name":"VarianceScaling","config":{"scale":1,"mode":"fan_avg","distribution":"normal","seed":null}},"bias_initializer":{"class_name":"Zeros","config":{}},"kernel_regularizer":null,"bias_regularizer":null,"activity_regularizer":null,"kernel_constraint":null,"bias_constraint":null,"name":"dense_Dense89","trainable":true,"batch_input_shape":[null,25],"dtype":"float32"}},{"class_name":"Dense","config":{"units":25,"activation":"linear","use_bias":true,"kernel_initializer":{"class_name":"VarianceScaling","config":{"scale":1,"mode":"fan_avg","distribution":"normal","seed":null}},"bias_initializer":{"class_name":"Zeros","config":{}},"kernel_regularizer":null,"bias_regularizer":null,"activity_regularizer":null,"kernel_constraint":null,"bias_constraint":null,"name":"dense_Dense90","trainable":true,"batch_input_shape":[null,25],"dtype":"float32"}},{"class_name":"Dense","config":{"units":25,"activation":"linear","use_bias":true,"kernel_initializer":{"class_name":"VarianceScaling","config":{"scale":1,"mode":"fan_avg","distribution":"normal","seed":null}},"bias_initializer":{"class_name":"Zeros","config":{}},"kernel_regularizer":null,"bias_regularizer":null,"activity_regularizer":null,"kernel_constraint":null,"bias_constraint":null,"name":"dense_Dense91","trainable":true,"batch_input_shape":[null,25],"dtype":"float32"}},{"class_name":"Dense","config":{"units":25,"activation":"linear","use_bias":true,"kernel_initializer":{"class_name":"VarianceScaling","config":{"scale":1,"mode":"fan_avg","distribution":"normal","seed":null}},"bias_initializer":{"class_name":"Zeros","config":{}},"kernel_regularizer":null,"bias_regularizer":null,"activity_regularizer":null,"kernel_constraint":null,"bias_constraint":null,"name":"dense_Dense92","trainable":true,"batch_input_shape":[null,25],"dtype":"float32"}},{"class_name":"Dense","config":{"units":25,"activation":"linear","use_bias":true,"kernel_initializer":{"class_name":"VarianceScaling","config":{"scale":1,"mode":"fan_avg","distribution":"normal","seed":null}},"bias_initializer":{"class_name":"Zeros","config":{}},"kernel_regularizer":null,"bias_regularizer":null,"activity_regularizer":null,"kernel_constraint":null,"bias_constraint":null,"name":"dense_Dense93","trainable":true,"batch_input_shape":[null,25],"dtype":"float32"}},{"class_name":"Dense","config":{"units":25,"activation":"linear","use_bias":true,"kernel_initializer":{"class_name":"VarianceScaling","config":{"scale":1,"mode":"fan_avg","distribution":"normal","seed":null}},"bias_initializer":{"class_name":"Zeros","config":{}},"kernel_regularizer":null,"bias_regularizer":null,"activity_regularizer":null,"kernel_constraint":null,"bias_constraint":null,"name":"dense_Dense94","trainable":true,"batch_input_shape":[null,25],"dtype":"float32"}},{"class_name":"Dense","config":{"units":25,"activation":"linear","use_bias":true,"kernel_initializer":{"class_name":"VarianceScaling","config":{"scale":1,"mode":"fan_avg","distribution":"normal","seed":null}},"bias_initializer":{"class_name":"Zeros","config":{}},"kernel_regularizer":null,"bias_regularizer":null,"activity_regularizer":null,"kernel_constraint":null,"bias_constraint":null,"name":"dense_Dense95","trainable":true,"batch_input_shape":[null,25],"dtype":"float32"}},{"class_name":"Dense","config":{"units":25,"activation":"linear","use_bias":true,"kernel_initializer":{"class_name":"VarianceScaling","config":{"scale":1,"mode":"fan_avg","distribution":"normal","seed":null}},"bias_initializer":{"class_name":"Zeros","config":{}},"kernel_regularizer":null,"bias_regularizer":null,"activity_regularizer":null,"kernel_constraint":null,"bias_constraint":null,"name":"dense_Dense96","trainable":true,"batch_input_shape":[null,25],"dtype":"float32"}},{"class_name":"Dense","config":{"units":25,"activation":"linear","use_bias":true,"kernel_initializer":{"class_name":"VarianceScaling","config":{"scale":1,"mode":"fan_avg","distribution":"normal","seed":null}},"bias_initializer":{"class_name":"Zeros","config":{}},"kernel_regularizer":null,"bias_regularizer":null,"activity_regularizer":null,"kernel_constraint":null,"bias_constraint":null,"name":"dense_Dense97","trainable":true,"batch_input_shape":[null,25],"dtype":"float32"}},{"class_name":"Dense","config":{"units":25,"activation":"linear","use_bias":true,"kernel_initializer":{"class_name":"VarianceScaling","config":{"scale":1,"mode":"fan_avg","distribution":"normal","seed":null}},"bias_initializer":{"class_name":"Zeros","config":{}},"kernel_regularizer":null,"bias_regularizer":null,"activity_regularizer":null,"kernel_constraint":null,"bias_constraint":null,"name":"dense_Dense98","trainable":true,"batch_input_shape":[null,25],"dtype":"float32"}},{"class_name":"Dense","config":{"units":25,"activation":"linear","use_bias":true,"kernel_initializer":{"class_name":"VarianceScaling","config":{"scale":1,"mode":"fan_avg","distribution":"normal","seed":null}},"bias_initializer":{"class_name":"Zeros","config":{}},"kernel_regularizer":null,"bias_regularizer":null,"activity_regularizer":null,"kernel_constraint":null,"bias_constraint":null,"name":"dense_Dense99","trainable":true,"batch_input_shape":[null,25],"dtype":"float32"}},{"class_name":"Dense","config":{"units":25,"activation":"linear","use_bias":true,"kernel_initializer":{"class_name":"VarianceScaling","config":{"scale":1,"mode":"fan_avg","distribution":"normal","seed":null}},"bias_initializer":{"class_name":"Zeros","config":{}},"kernel_regularizer":null,"bias_regularizer":null,"activity_regularizer":null,"kernel_constraint":null,"bias_constraint":null,"name":"dense_Dense100","trainable":true,"batch_input_shape":[null,25],"dtype":"float32"}},{"class_name":"Dense","config":{"units":25,"activation":"linear","use_bias":true,"kernel_initializer":{"class_name":"VarianceScaling","config":{"scale":1,"mode":"fan_avg","distribution":"normal","seed":null}},"bias_initializer":{"class_name":"Zeros","config":{}},"kernel_regularizer":null,"bias_regularizer":null,"activity_regularizer":null,"kernel_constraint":null,"bias_constraint":null,"name":"dense_Dense101","trainable":true,"batch_input_shape":[null,25],"dtype":"float32"}},{"class_name":"Dense","config":{"units":25,"activation":"linear","use_bias":true,"kernel_initializer":{"class_name":"VarianceScaling","config":{"scale":1,"mode":"fan_avg","distribution":"normal","seed":null}},"bias_initializer":{"class_name":"Zeros","config":{}},"kernel_regularizer":null,"bias_regularizer":null,"activity_regularizer":null,"kernel_constraint":null,"bias_constraint":null,"name":"dense_Dense102","trainable":true,"batch_input_shape":[null,25],"dtype":"float32"}},{"class_name":"Dense","config":{"units":25,"activation":"linear","use_bias":true,"kernel_initializer":{"class_name":"VarianceScaling","config":{"scale":1,"mode":"fan_avg","distribution":"normal","seed":null}},"bias_initializer":{"class_name":"Zeros","config":{}},"kernel_regularizer":null,"bias_regularizer":null,"activity_regularizer":null,"kernel_constraint":null,"bias_constraint":null,"name":"dense_Dense103","trainable":true,"batch_input_shape":[null,25],"dtype":"float32"}},{"class_name":"Dense","config":{"units":25,"activation":"linear","use_bias":true,"kernel_initializer":{"class_name":"VarianceScaling","config":{"scale":1,"mode":"fan_avg","distribution":"normal","seed":null}},"bias_initializer":{"class_name":"Zeros","config":{}},"kernel_regularizer":null,"bias_regularizer":null,"activity_regularizer":null,"kernel_constraint":null,"bias_constraint":null,"name":"dense_Dense104","trainable":true,"batch_input_shape":[null,25],"dtype":"float32"}},{"class_name":"Dense","config":{"units":25,"activation":"linear","use_bias":true,"kernel_initializer":{"class_name":"VarianceScaling","config":{"scale":1,"mode":"fan_avg","distribution":"normal","seed":null}},"bias_initializer":{"class_name":"Zeros","config":{}},"kernel_regularizer":null,"bias_regularizer":null,"activity_regularizer":null,"kernel_constraint":null,"bias_constraint":null,"name":"dense_Dense105","trainable":true,"batch_input_shape":[null,25],"dtype":"float32"}},{"class_name":"Dense","config":{"units":25,"activation":"linear","use_bias":true,"kernel_initializer":{"class_name":"VarianceScaling","config":{"scale":1,"mode":"fan_avg","distribution":"normal","seed":null}},"bias_initializer":{"class_name":"Zeros","config":{}},"kernel_regularizer":null,"bias_regularizer":null,"activity_regularizer":null,"kernel_constraint":null,"bias_constraint":null,"name":"dense_Dense106","trainable":true,"batch_input_shape":[null,25],"dtype":"float32"}},{"class_name":"Dense","config":{"units":25,"activation":"linear","use_bias":true,"kernel_initializer":{"class_name":"VarianceScaling","config":{"scale":1,"mode":"fan_avg","distribution":"normal","seed":null}},"bias_initializer":{"class_name":"Zeros","config":{}},"kernel_regularizer":null,"bias_regularizer":null,"activity_regularizer":null,"kernel_constraint":null,"bias_constraint":null,"name":"dense_Dense107","trainable":true,"batch_input_shape":[null,25],"dtype":"float32"}},{"class_name":"Dense","config":{"units":25,"activation":"linear","use_bias":true,"kernel_initializer":{"class_name":"VarianceScaling","config":{"scale":1,"mode":"fan_avg","distribution":"normal","seed":null}},"bias_initializer":{"class_name":"Zeros","config":{}},"kernel_regularizer":null,"bias_regularizer":null,"activity_regularizer":null,"kernel_constraint":null,"bias_constraint":null,"name":"dense_Dense108","trainable":true,"batch_input_shape":[null,25],"dtype":"float32"}},{"class_name":"Dense","config":{"units":25,"activation":"linear","use_bias":true,"kernel_initializer":{"class_name":"VarianceScaling","config":{"scale":1,"mode":"fan_avg","distribution":"normal","seed":null}},"bias_initializer":{"class_name":"Zeros","config":{}},"kernel_regularizer":null,"bias_regularizer":null,"activity_regularizer":null,"kernel_constraint":null,"bias_constraint":null,"name":"dense_Dense109","trainable":true,"batch_input_shape":[null,25],"dtype":"float32"}},{"class_name":"Dense","config":{"units":25,"activation":"linear","use_bias":true,"kernel_initializer":{"class_name":"VarianceScaling","config":{"scale":1,"mode":"fan_avg","distribution":"normal","seed":null}},"bias_initializer":{"class_name":"Zeros","config":{}},"kernel_regularizer":null,"bias_regularizer":null,"activity_regularizer":null,"kernel_constraint":null,"bias_constraint":null,"name":"dense_Dense110","trainable":true,"batch_input_shape":[null,25],"dtype":"float32"}},{"class_name":"Dense","config":{"units":25,"activation":"linear","use_bias":true,"kernel_initializer":{"class_name":"VarianceScaling","config":{"scale":1,"mode":"fan_avg","distribution":"normal","seed":null}},"bias_initializer":{"class_name":"Zeros","config":{}},"kernel_regularizer":null,"bias_regularizer":null,"activity_regularizer":null,"kernel_constraint":null,"bias_constraint":null,"name":"dense_Dense111","trainable":true,"batch_input_shape":[null,25],"dtype":"float32"}},{"class_name":"Dense","config":{"units":25,"activation":"linear","use_bias":true,"kernel_initializer":{"class_name":"VarianceScaling","config":{"scale":1,"mode":"fan_avg","distribution":"normal","seed":null}},"bias_initializer":{"class_name":"Zeros","config":{}},"kernel_regularizer":null,"bias_regularizer":null,"activity_regularizer":null,"kernel_constraint":null,"bias_constraint":null,"name":"dense_Dense112","trainable":true,"batch_input_shape":[null,25],"dtype":"float32"}},{"class_name":"Dense","config":{"units":25,"activation":"linear","use_bias":true,"kernel_initializer":{"class_name":"VarianceScaling","config":{"scale":1,"mode":"fan_avg","distribution":"normal","seed":null}},"bias_initializer":{"class_name":"Zeros","config":{}},"kernel_regularizer":null,"bias_regularizer":null,"activity_regularizer":null,"kernel_constraint":null,"bias_constraint":null,"name":"dense_Dense113","trainable":true,"batch_input_shape":[null,25],"dtype":"float32"}},{"class_name":"Dense","config":{"units":25,"activation":"linear","use_bias":true,"kernel_initializer":{"class_name":"VarianceScaling","config":{"scale":1,"mode":"fan_avg","distribution":"normal","seed":null}},"bias_initializer":{"class_name":"Zeros","config":{}},"kernel_regularizer":null,"bias_regularizer":null,"activity_regularizer":null,"kernel_constraint":null,"bias_constraint":null,"name":"dense_Dense114","trainable":true,"batch_input_shape":[null,25],"dtype":"float32"}},{"class_name":"Dense","config":{"units":25,"activation":"linear","use_bias":true,"kernel_initializer":{"class_name":"VarianceScaling","config":{"scale":1,"mode":"fan_avg","distribution":"normal","seed":null}},"bias_initializer":{"class_name":"Zeros","config":{}},"kernel_regularizer":null,"bias_regularizer":null,"activity_regularizer":null,"kernel_constraint":null,"bias_constraint":null,"name":"dense_Dense115","trainable":true,"batch_input_shape":[null,25],"dtype":"float32"}},{"class_name":"Dense","config":{"units":25,"activation":"linear","use_bias":true,"kernel_initializer":{"class_name":"VarianceScaling","config":{"scale":1,"mode":"fan_avg","distribution":"normal","seed":null}},"bias_initializer":{"class_name":"Zeros","config":{}},"kernel_regularizer":null,"bias_regularizer":null,"activity_regularizer":null,"kernel_constraint":null,"bias_constraint":null,"name":"dense_Dense116","trainable":true,"batch_input_shape":[null,25],"dtype":"float32"}},{"class_name":"Dense","config":{"units":25,"activation":"linear","use_bias":true,"kernel_initializer":{"class_name":"VarianceScaling","config":{"scale":1,"mode":"fan_avg","distribution":"normal","seed":null}},"bias_initializer":{"class_name":"Zeros","config":{}},"kernel_regularizer":null,"bias_regularizer":null,"activity_regularizer":null,"kernel_constraint":null,"bias_constraint":null,"name":"dense_Dense117","trainable":true,"batch_input_shape":[null,25],"dtype":"float32"}},{"class_name":"Dense","config":{"units":25,"activation":"linear","use_bias":true,"kernel_initializer":{"class_name":"VarianceScaling","config":{"scale":1,"mode":"fan_avg","distribution":"normal","seed":null}},"bias_initializer":{"class_name":"Zeros","config":{}},"kernel_regularizer":null,"bias_regularizer":null,"activity_regularizer":null,"kernel_constraint":null,"bias_constraint":null,"name":"dense_Dense118","trainable":true,"batch_input_shape":[null,25],"dtype":"float32"}},{"class_name":"Dense","config":{"units":25,"activation":"linear","use_bias":true,"kernel_initializer":{"class_name":"VarianceScaling","config":{"scale":1,"mode":"fan_avg","distribution":"normal","seed":null}},"bias_initializer":{"class_name":"Zeros","config":{}},"kernel_regularizer":null,"bias_regularizer":null,"activity_regularizer":null,"kernel_constraint":null,"bias_constraint":null,"name":"dense_Dense119","trainable":true,"batch_input_shape":[null,25],"dtype":"float32"}},{"class_name":"Dense","config":{"units":25,"activation":"linear","use_bias":true,"kernel_initializer":{"class_name":"VarianceScaling","config":{"scale":1,"mode":"fan_avg","distribution":"normal","seed":null}},"bias_initializer":{"class_name":"Zeros","config":{}},"kernel_regularizer":null,"bias_regularizer":null,"activity_regularizer":null,"kernel_constraint":null,"bias_constraint":null,"name":"dense_Dense120","trainable":true,"batch_input_shape":[null,25],"dtype":"float32"}},{"class_name":"Dense","config":{"units":25,"activation":"linear","use_bias":true,"kernel_initializer":{"class_name":"VarianceScaling","config":{"scale":1,"mode":"fan_avg","distribution":"normal","seed":null}},"bias_initializer":{"class_name":"Zeros","config":{}},"kernel_regularizer":null,"bias_regularizer":null,"activity_regularizer":null,"kernel_constraint":null,"bias_constraint":null,"name":"dense_Dense121","trainable":true,"batch_input_shape":[null,25],"dtype":"float32"}},{"class_name":"Dense","config":{"units":25,"activation":"linear","use_bias":true,"kernel_initializer":{"class_name":"VarianceScaling","config":{"scale":1,"mode":"fan_avg","distribution":"normal","seed":null}},"bias_initializer":{"class_name":"Zeros","config":{}},"kernel_regularizer":null,"bias_regularizer":null,"activity_regularizer":null,"kernel_constraint":null,"bias_constraint":null,"name":"dense_Dense122","trainable":true,"batch_input_shape":[null,25],"dtype":"float32"}},{"class_name":"Dense","config":{"units":25,"activation":"linear","use_bias":true,"kernel_initializer":{"class_name":"VarianceScaling","config":{"scale":1,"mode":"fan_avg","distribution":"normal","seed":null}},"bias_initializer":{"class_name":"Zeros","config":{}},"kernel_regularizer":null,"bias_regularizer":null,"activity_regularizer":null,"kernel_constraint":null,"bias_constraint":null,"name":"dense_Dense123","trainable":true,"batch_input_shape":[null,25],"dtype":"float32"}},{"class_name":"Dense","config":{"units":25,"activation":"linear","use_bias":true,"kernel_initializer":{"class_name":"VarianceScaling","config":{"scale":1,"mode":"fan_avg","distribution":"normal","seed":null}},"bias_initializer":{"class_name":"Zeros","config":{}},"kernel_regularizer":null,"bias_regularizer":null,"activity_regularizer":null,"kernel_constraint":null,"bias_constraint":null,"name":"dense_Dense124","trainable":true,"batch_input_shape":[null,25],"dtype":"float32"}},{"class_name":"Dense","config":{"units":25,"activation":"linear","use_bias":true,"kernel_initializer":{"class_name":"VarianceScaling","config":{"scale":1,"mode":"fan_avg","distribution":"normal","seed":null}},"bias_initializer":{"class_name":"Zeros","config":{}},"kernel_regularizer":null,"bias_regularizer":null,"activity_regularizer":null,"kernel_constraint":null,"bias_constraint":null,"name":"dense_Dense125","trainable":true,"batch_input_shape":[null,25],"dtype":"float32"}},{"class_name":"Dense","config":{"units":25,"activation":"linear","use_bias":true,"kernel_initializer":{"class_name":"VarianceScaling","config":{"scale":1,"mode":"fan_avg","distribution":"normal","seed":null}},"bias_initializer":{"class_name":"Zeros","config":{}},"kernel_regularizer":null,"bias_regularizer":null,"activity_regularizer":null,"kernel_constraint":null,"bias_constraint":null,"name":"dense_Dense126","trainable":true,"batch_input_shape":[null,25],"dtype":"float32"}},{"class_name":"Dense","config":{"units":25,"activation":"linear","use_bias":true,"kernel_initializer":{"class_name":"VarianceScaling","config":{"scale":1,"mode":"fan_avg","distribution":"normal","seed":null}},"bias_initializer":{"class_name":"Zeros","config":{}},"kernel_regularizer":null,"bias_regularizer":null,"activity_regularizer":null,"kernel_constraint":null,"bias_constraint":null,"name":"dense_Dense127","trainable":true,"batch_input_shape":[null,25],"dtype":"float32"}},{"class_name":"Dense","config":{"units":25,"activation":"linear","use_bias":true,"kernel_initializer":{"class_name":"VarianceScaling","config":{"scale":1,"mode":"fan_avg","distribution":"normal","seed":null}},"bias_initializer":{"class_name":"Zeros","config":{}},"kernel_regularizer":null,"bias_regularizer":null,"activity_regularizer":null,"kernel_constraint":null,"bias_constraint":null,"name":"dense_Dense128","trainable":true,"batch_input_shape":[null,25],"dtype":"float32"}},{"class_name":"Dense","config":{"units":25,"activation":"linear","use_bias":true,"kernel_initializer":{"class_name":"VarianceScaling","config":{"scale":1,"mode":"fan_avg","distribution":"normal","seed":null}},"bias_initializer":{"class_name":"Zeros","config":{}},"kernel_regularizer":null,"bias_regularizer":null,"activity_regularizer":null,"kernel_constraint":null,"bias_constraint":null,"name":"dense_Dense129","trainable":true,"batch_input_shape":[null,25],"dtype":"float32"}},{"class_name":"Dense","config":{"units":25,"activation":"linear","use_bias":true,"kernel_initializer":{"class_name":"VarianceScaling","config":{"scale":1,"mode":"fan_avg","distribution":"normal","seed":null}},"bias_initializer":{"class_name":"Zeros","config":{}},"kernel_regularizer":null,"bias_regularizer":null,"activity_regularizer":null,"kernel_constraint":null,"bias_constraint":null,"name":"dense_Dense130","trainable":true,"batch_input_shape":[null,25],"dtype":"float32"}},{"class_name":"Dense","config":{"units":25,"activation":"linear","use_bias":true,"kernel_initializer":{"class_name":"VarianceScaling","config":{"scale":1,"mode":"fan_avg","distribution":"normal","seed":null}},"bias_initializer":{"class_name":"Zeros","config":{}},"kernel_regularizer":null,"bias_regularizer":null,"activity_regularizer":null,"kernel_constraint":null,"bias_constraint":null,"name":"dense_Dense131","trainable":true,"batch_input_shape":[null,25],"dtype":"float32"}},{"class_name":"Dense","config":{"units":25,"activation":"linear","use_bias":true,"kernel_initializer":{"class_name":"VarianceScaling","config":{"scale":1,"mode":"fan_avg","distribution":"normal","seed":null}},"bias_initializer":{"class_name":"Zeros","config":{}},"kernel_regularizer":null,"bias_regularizer":null,"activity_regularizer":null,"kernel_constraint":null,"bias_constraint":null,"name":"dense_Dense132","trainable":true,"batch_input_shape":[null,25],"dtype":"float32"}},{"class_name":"Dense","config":{"units":25,"activation":"linear","use_bias":true,"kernel_initializer":{"class_name":"VarianceScaling","config":{"scale":1,"mode":"fan_avg","distribution":"normal","seed":null}},"bias_initializer":{"class_name":"Zeros","config":{}},"kernel_regularizer":null,"bias_regularizer":null,"activity_regularizer":null,"kernel_constraint":null,"bias_constraint":null,"name":"dense_Dense133","trainable":true,"batch_input_shape":[null,25],"dtype":"float32"}},{"class_name":"Dense","config":{"units":25,"activation":"linear","use_bias":true,"kernel_initializer":{"class_name":"VarianceScaling","config":{"scale":1,"mode":"fan_avg","distribution":"normal","seed":null}},"bias_initializer":{"class_name":"Zeros","config":{}},"kernel_regularizer":null,"bias_regularizer":null,"activity_regularizer":null,"kernel_constraint":null,"bias_constraint":null,"name":"dense_Dense134","trainable":true,"batch_input_shape":[null,25],"dtype":"float32"}},{"class_name":"Dense","config":{"units":25,"activation":"linear","use_bias":true,"kernel_initializer":{"class_name":"VarianceScaling","config":{"scale":1,"mode":"fan_avg","distribution":"normal","seed":null}},"bias_initializer":{"class_name":"Zeros","config":{}},"kernel_regularizer":null,"bias_regularizer":null,"activity_regularizer":null,"kernel_constraint":null,"bias_constraint":null,"name":"dense_Dense135","trainable":true,"batch_input_shape":[null,25],"dtype":"float32"}},{"class_name":"Dense","config":{"units":25,"activation":"linear","use_bias":true,"kernel_initializer":{"class_name":"VarianceScaling","config":{"scale":1,"mode":"fan_avg","distribution":"normal","seed":null}},"bias_initializer":{"class_name":"Zeros","config":{}},"kernel_regularizer":null,"bias_regularizer":null,"activity_regularizer":null,"kernel_constraint":null,"bias_constraint":null,"name":"dense_Dense136","trainable":true,"batch_input_shape":[null,25],"dtype":"float32"}},{"class_name":"Dense","config":{"units":25,"activation":"linear","use_bias":true,"kernel_initializer":{"class_name":"VarianceScaling","config":{"scale":1,"mode":"fan_avg","distribution":"normal","seed":null}},"bias_initializer":{"class_name":"Zeros","config":{}},"kernel_regularizer":null,"bias_regularizer":null,"activity_regularizer":null,"kernel_constraint":null,"bias_constraint":null,"name":"dense_Dense137","trainable":true,"batch_input_shape":[null,25],"dtype":"float32"}},{"class_name":"Dense","config":{"units":25,"activation":"linear","use_bias":true,"kernel_initializer":{"class_name":"VarianceScaling","config":{"scale":1,"mode":"fan_avg","distribution":"normal","seed":null}},"bias_initializer":{"class_name":"Zeros","config":{}},"kernel_regularizer":null,"bias_regularizer":null,"activity_regularizer":null,"kernel_constraint":null,"bias_constraint":null,"name":"dense_Dense138","trainable":true,"batch_input_shape":[null,25],"dtype":"float32"}},{"class_name":"Dense","config":{"units":25,"activation":"linear","use_bias":true,"kernel_initializer":{"class_name":"VarianceScaling","config":{"scale":1,"mode":"fan_avg","distribution":"normal","seed":null}},"bias_initializer":{"class_name":"Zeros","config":{}},"kernel_regularizer":null,"bias_regularizer":null,"activity_regularizer":null,"kernel_constraint":null,"bias_constraint":null,"name":"dense_Dense139","trainable":true,"batch_input_shape":[null,25],"dtype":"float32"}},{"class_name":"Dense","config":{"units":25,"activation":"linear","use_bias":true,"kernel_initializer":{"class_name":"VarianceScaling","config":{"scale":1,"mode":"fan_avg","distribution":"normal","seed":null}},"bias_initializer":{"class_name":"Zeros","config":{}},"kernel_regularizer":null,"bias_regularizer":null,"activity_regularizer":null,"kernel_constraint":null,"bias_constraint":null,"name":"dense_Dense140","trainable":true,"batch_input_shape":[null,25],"dtype":"float32"}},{"class_name":"Dense","config":{"units":25,"activation":"linear","use_bias":true,"kernel_initializer":{"class_name":"VarianceScaling","config":{"scale":1,"mode":"fan_avg","distribution":"normal","seed":null}},"bias_initializer":{"class_name":"Zeros","config":{}},"kernel_regularizer":null,"bias_regularizer":null,"activity_regularizer":null,"kernel_constraint":null,"bias_constraint":null,"name":"dense_Dense141","trainable":true,"batch_input_shape":[null,25],"dtype":"float32"}},{"class_name":"Dense","config":{"units":25,"activation":"linear","use_bias":true,"kernel_initializer":{"class_name":"VarianceScaling","config":{"scale":1,"mode":"fan_avg","distribution":"normal","seed":null}},"bias_initializer":{"class_name":"Zeros","config":{}},"kernel_regularizer":null,"bias_regularizer":null,"activity_regularizer":null,"kernel_constraint":null,"bias_constraint":null,"name":"dense_Dense142","trainable":true,"batch_input_shape":[null,25],"dtype":"float32"}},{"class_name":"Dense","config":{"units":25,"activation":"linear","use_bias":true,"kernel_initializer":{"class_name":"VarianceScaling","config":{"scale":1,"mode":"fan_avg","distribution":"normal","seed":null}},"bias_initializer":{"class_name":"Zeros","config":{}},"kernel_regularizer":null,"bias_regularizer":null,"activity_regularizer":null,"kernel_constraint":null,"bias_constraint":null,"name":"dense_Dense143","trainable":true,"batch_input_shape":[null,25],"dtype":"float32"}},{"class_name":"Dense","config":{"units":25,"activation":"linear","use_bias":true,"kernel_initializer":{"class_name":"VarianceScaling","config":{"scale":1,"mode":"fan_avg","distribution":"normal","seed":null}},"bias_initializer":{"class_name":"Zeros","config":{}},"kernel_regularizer":null,"bias_regularizer":null,"activity_regularizer":null,"kernel_constraint":null,"bias_constraint":null,"name":"dense_Dense144","trainable":true,"batch_input_shape":[null,25],"dtype":"float32"}},{"class_name":"Dense","config":{"units":25,"activation":"linear","use_bias":true,"kernel_initializer":{"class_name":"VarianceScaling","config":{"scale":1,"mode":"fan_avg","distribution":"normal","seed":null}},"bias_initializer":{"class_name":"Zeros","config":{}},"kernel_regularizer":null,"bias_regularizer":null,"activity_regularizer":null,"kernel_constraint":null,"bias_constraint":null,"name":"dense_Dense145","trainable":true,"batch_input_shape":[null,25],"dtype":"float32"}},{"class_name":"Dense","config":{"units":25,"activation":"linear","use_bias":true,"kernel_initializer":{"class_name":"VarianceScaling","config":{"scale":1,"mode":"fan_avg","distribution":"normal","seed":null}},"bias_initializer":{"class_name":"Zeros","config":{}},"kernel_regularizer":null,"bias_regularizer":null,"activity_regularizer":null,"kernel_constraint":null,"bias_constraint":null,"name":"dense_Dense146","trainable":true,"batch_input_shape":[null,25],"dtype":"float32"}},{"class_name":"Dense","config":{"units":25,"activation":"linear","use_bias":true,"kernel_initializer":{"class_name":"VarianceScaling","config":{"scale":1,"mode":"fan_avg","distribution":"normal","seed":null}},"bias_initializer":{"class_name":"Zeros","config":{}},"kernel_regularizer":null,"bias_regularizer":null,"activity_regularizer":null,"kernel_constraint":null,"bias_constraint":null,"name":"dense_Dense147","trainable":true,"batch_input_shape":[null,25],"dtype":"float32"}},{"class_name":"Dense","config":{"units":25,"activation":"linear","use_bias":true,"kernel_initializer":{"class_name":"VarianceScaling","config":{"scale":1,"mode":"fan_avg","distribution":"normal","seed":null}},"bias_initializer":{"class_name":"Zeros","config":{}},"kernel_regularizer":null,"bias_regularizer":null,"activity_regularizer":null,"kernel_constraint":null,"bias_constraint":null,"name":"dense_Dense148","trainable":true,"batch_input_shape":[null,25],"dtype":"float32"}},{"class_name":"Dense","config":{"units":25,"activation":"linear","use_bias":true,"kernel_initializer":{"class_name":"VarianceScaling","config":{"scale":1,"mode":"fan_avg","distribution":"normal","seed":null}},"bias_initializer":{"class_name":"Zeros","config":{}},"kernel_regularizer":null,"bias_regularizer":null,"activity_regularizer":null,"kernel_constraint":null,"bias_constraint":null,"name":"dense_Dense149","trainable":true,"batch_input_shape":[null,25],"dtype":"float32"}},{"class_name":"Dense","config":{"units":25,"activation":"linear","use_bias":true,"kernel_initializer":{"class_name":"VarianceScaling","config":{"scale":1,"mode":"fan_avg","distribution":"normal","seed":null}},"bias_initializer":{"class_name":"Zeros","config":{}},"kernel_regularizer":null,"bias_regularizer":null,"activity_regularizer":null,"kernel_constraint":null,"bias_constraint":null,"name":"dense_Dense150","trainable":true,"batch_input_shape":[null,25],"dtype":"float32"}},{"class_name":"Dense","config":{"units":25,"activation":"linear","use_bias":true,"kernel_initializer":{"class_name":"VarianceScaling","config":{"scale":1,"mode":"fan_avg","distribution":"normal","seed":null}},"bias_initializer":{"class_name":"Zeros","config":{}},"kernel_regularizer":null,"bias_regularizer":null,"activity_regularizer":null,"kernel_constraint":null,"bias_constraint":null,"name":"dense_Dense151","trainable":true,"batch_input_shape":[null,25],"dtype":"float32"}},{"class_name":"Dense","config":{"units":25,"activation":"linear","use_bias":true,"kernel_initializer":{"class_name":"VarianceScaling","config":{"scale":1,"mode":"fan_avg","distribution":"normal","seed":null}},"bias_initializer":{"class_name":"Zeros","config":{}},"kernel_regularizer":null,"bias_regularizer":null,"activity_regularizer":null,"kernel_constraint":null,"bias_constraint":null,"name":"dense_Dense152","trainable":true,"batch_input_shape":[null,25],"dtype":"float32"}},{"class_name":"Dense","config":{"units":25,"activation":"linear","use_bias":true,"kernel_initializer":{"class_name":"VarianceScaling","config":{"scale":1,"mode":"fan_avg","distribution":"normal","seed":null}},"bias_initializer":{"class_name":"Zeros","config":{}},"kernel_regularizer":null,"bias_regularizer":null,"activity_regularizer":null,"kernel_constraint":null,"bias_constraint":null,"name":"dense_Dense153","trainable":true,"batch_input_shape":[null,25],"dtype":"float32"}},{"class_name":"Dense","config":{"units":25,"activation":"linear","use_bias":true,"kernel_initializer":{"class_name":"VarianceScaling","config":{"scale":1,"mode":"fan_avg","distribution":"normal","seed":null}},"bias_initializer":{"class_name":"Zeros","config":{}},"kernel_regularizer":null,"bias_regularizer":null,"activity_regularizer":null,"kernel_constraint":null,"bias_constraint":null,"name":"dense_Dense154","trainable":true,"batch_input_shape":[null,25],"dtype":"float32"}},{"class_name":"Dense","config":{"units":25,"activation":"linear","use_bias":true,"kernel_initializer":{"class_name":"VarianceScaling","config":{"scale":1,"mode":"fan_avg","distribution":"normal","seed":null}},"bias_initializer":{"class_name":"Zeros","config":{}},"kernel_regularizer":null,"bias_regularizer":null,"activity_regularizer":null,"kernel_constraint":null,"bias_constraint":null,"name":"dense_Dense155","trainable":true,"batch_input_shape":[null,25],"dtype":"float32"}},{"class_name":"Dense","config":{"units":25,"activation":"linear","use_bias":true,"kernel_initializer":{"class_name":"VarianceScaling","config":{"scale":1,"mode":"fan_avg","distribution":"normal","seed":null}},"bias_initializer":{"class_name":"Zeros","config":{}},"kernel_regularizer":null,"bias_regularizer":null,"activity_regularizer":null,"kernel_constraint":null,"bias_constraint":null,"name":"dense_Dense156","trainable":true,"batch_input_shape":[null,25],"dtype":"float32"}},{"class_name":"Dense","config":{"units":25,"activation":"linear","use_bias":true,"kernel_initializer":{"class_name":"VarianceScaling","config":{"scale":1,"mode":"fan_avg","distribution":"normal","seed":null}},"bias_initializer":{"class_name":"Zeros","config":{}},"kernel_regularizer":null,"bias_regularizer":null,"activity_regularizer":null,"kernel_constraint":null,"bias_constraint":null,"name":"dense_Dense157","trainable":true,"batch_input_shape":[null,25],"dtype":"float32"}},{"class_name":"Dense","config":{"units":25,"activation":"linear","use_bias":true,"kernel_initializer":{"class_name":"VarianceScaling","config":{"scale":1,"mode":"fan_avg","distribution":"normal","seed":null}},"bias_initializer":{"class_name":"Zeros","config":{}},"kernel_regularizer":null,"bias_regularizer":null,"activity_regularizer":null,"kernel_constraint":null,"bias_constraint":null,"name":"dense_Dense158","trainable":true,"batch_input_shape":[null,25],"dtype":"float32"}},{"class_name":"Dense","config":{"units":25,"activation":"linear","use_bias":true,"kernel_initializer":{"class_name":"VarianceScaling","config":{"scale":1,"mode":"fan_avg","distribution":"normal","seed":null}},"bias_initializer":{"class_name":"Zeros","config":{}},"kernel_regularizer":null,"bias_regularizer":null,"activity_regularizer":null,"kernel_constraint":null,"bias_constraint":null,"name":"dense_Dense159","trainable":true,"batch_input_shape":[null,25],"dtype":"float32"}},{"class_name":"Dense","config":{"units":25,"activation":"linear","use_bias":true,"kernel_initializer":{"class_name":"VarianceScaling","config":{"scale":1,"mode":"fan_avg","distribution":"normal","seed":null}},"bias_initializer":{"class_name":"Zeros","config":{}},"kernel_regularizer":null,"bias_regularizer":null,"activity_regularizer":null,"kernel_constraint":null,"bias_constraint":null,"name":"dense_Dense160","trainable":true,"batch_input_shape":[null,25],"dtype":"float32"}},{"class_name":"Dense","config":{"units":25,"activation":"linear","use_bias":true,"kernel_initializer":{"class_name":"VarianceScaling","config":{"scale":1,"mode":"fan_avg","distribution":"normal","seed":null}},"bias_initializer":{"class_name":"Zeros","config":{}},"kernel_regularizer":null,"bias_regularizer":null,"activity_regularizer":null,"kernel_constraint":null,"bias_constraint":null,"name":"dense_Dense161","trainable":true,"batch_input_shape":[null,25],"dtype":"float32"}},{"class_name":"Dense","config":{"units":25,"activation":"linear","use_bias":true,"kernel_initializer":{"class_name":"VarianceScaling","config":{"scale":1,"mode":"fan_avg","distribution":"normal","seed":null}},"bias_initializer":{"class_name":"Zeros","config":{}},"kernel_regularizer":null,"bias_regularizer":null,"activity_regularizer":null,"kernel_constraint":null,"bias_constraint":null,"name":"dense_Dense162","trainable":true,"batch_input_shape":[null,25],"dtype":"float32"}},{"class_name":"Dense","config":{"units":25,"activation":"linear","use_bias":true,"kernel_initializer":{"class_name":"VarianceScaling","config":{"scale":1,"mode":"fan_avg","distribution":"normal","seed":null}},"bias_initializer":{"class_name":"Zeros","config":{}},"kernel_regularizer":null,"bias_regularizer":null,"activity_regularizer":null,"kernel_constraint":null,"bias_constraint":null,"name":"dense_Dense163","trainable":true,"batch_input_shape":[null,25],"dtype":"float32"}},{"class_name":"Dense","config":{"units":25,"activation":"linear","use_bias":true,"kernel_initializer":{"class_name":"VarianceScaling","config":{"scale":1,"mode":"fan_avg","distribution":"normal","seed":null}},"bias_initializer":{"class_name":"Zeros","config":{}},"kernel_regularizer":null,"bias_regularizer":null,"activity_regularizer":null,"kernel_constraint":null,"bias_constraint":null,"name":"dense_Dense164","trainable":true,"batch_input_shape":[null,25],"dtype":"float32"}},{"class_name":"Dense","config":{"units":25,"activation":"linear","use_bias":true,"kernel_initializer":{"class_name":"VarianceScaling","config":{"scale":1,"mode":"fan_avg","distribution":"normal","seed":null}},"bias_initializer":{"class_name":"Zeros","config":{}},"kernel_regularizer":null,"bias_regularizer":null,"activity_regularizer":null,"kernel_constraint":null,"bias_constraint":null,"name":"dense_Dense165","trainable":true,"batch_input_shape":[null,25],"dtype":"float32"}},{"class_name":"Dense","config":{"units":25,"activation":"linear","use_bias":true,"kernel_initializer":{"class_name":"VarianceScaling","config":{"scale":1,"mode":"fan_avg","distribution":"normal","seed":null}},"bias_initializer":{"class_name":"Zeros","config":{}},"kernel_regularizer":null,"bias_regularizer":null,"activity_regularizer":null,"kernel_constraint":null,"bias_constraint":null,"name":"dense_Dense166","trainable":true,"batch_input_shape":[null,25],"dtype":"float32"}},{"class_name":"Dense","config":{"units":25,"activation":"linear","use_bias":true,"kernel_initializer":{"class_name":"VarianceScaling","config":{"scale":1,"mode":"fan_avg","distribution":"normal","seed":null}},"bias_initializer":{"class_name":"Zeros","config":{}},"kernel_regularizer":null,"bias_regularizer":null,"activity_regularizer":null,"kernel_constraint":null,"bias_constraint":null,"name":"dense_Dense167","trainable":true,"batch_input_shape":[null,25],"dtype":"float32"}},{"class_name":"Dense","config":{"units":25,"activation":"linear","use_bias":true,"kernel_initializer":{"class_name":"VarianceScaling","config":{"scale":1,"mode":"fan_avg","distribution":"normal","seed":null}},"bias_initializer":{"class_name":"Zeros","config":{}},"kernel_regularizer":null,"bias_regularizer":null,"activity_regularizer":null,"kernel_constraint":null,"bias_constraint":null,"name":"dense_Dense168","trainable":true,"batch_input_shape":[null,25],"dtype":"float32"}},{"class_name":"Dense","config":{"units":25,"activation":"linear","use_bias":true,"kernel_initializer":{"class_name":"VarianceScaling","config":{"scale":1,"mode":"fan_avg","distribution":"normal","seed":null}},"bias_initializer":{"class_name":"Zeros","config":{}},"kernel_regularizer":null,"bias_regularizer":null,"activity_regularizer":null,"kernel_constraint":null,"bias_constraint":null,"name":"dense_Dense169","trainable":true,"batch_input_shape":[null,25],"dtype":"float32"}},{"class_name":"Dense","config":{"units":25,"activation":"linear","use_bias":true,"kernel_initializer":{"class_name":"VarianceScaling","config":{"scale":1,"mode":"fan_avg","distribution":"normal","seed":null}},"bias_initializer":{"class_name":"Zeros","config":{}},"kernel_regularizer":null,"bias_regularizer":null,"activity_regularizer":null,"kernel_constraint":null,"bias_constraint":null,"name":"dense_Dense170","trainable":true,"batch_input_shape":[null,25],"dtype":"float32"}},{"class_name":"Dense","config":{"units":25,"activation":"linear","use_bias":true,"kernel_initializer":{"class_name":"VarianceScaling","config":{"scale":1,"mode":"fan_avg","distribution":"normal","seed":null}},"bias_initializer":{"class_name":"Zeros","config":{}},"kernel_regularizer":null,"bias_regularizer":null,"activity_regularizer":null,"kernel_constraint":null,"bias_constraint":null,"name":"dense_Dense171","trainable":true,"batch_input_shape":[null,25],"dtype":"float32"}},{"class_name":"Dense","config":{"units":25,"activation":"linear","use_bias":true,"kernel_initializer":{"class_name":"VarianceScaling","config":{"scale":1,"mode":"fan_avg","distribution":"normal","seed":null}},"bias_initializer":{"class_name":"Zeros","config":{}},"kernel_regularizer":null,"bias_regularizer":null,"activity_regularizer":null,"kernel_constraint":null,"bias_constraint":null,"name":"dense_Dense172","trainable":true,"batch_input_shape":[null,25],"dtype":"float32"}},{"class_name":"Dense","config":{"units":25,"activation":"linear","use_bias":true,"kernel_initializer":{"class_name":"VarianceScaling","config":{"scale":1,"mode":"fan_avg","distribution":"normal","seed":null}},"bias_initializer":{"class_name":"Zeros","config":{}},"kernel_regularizer":null,"bias_regularizer":null,"activity_regularizer":null,"kernel_constraint":null,"bias_constraint":null,"name":"dense_Dense173","trainable":true,"batch_input_shape":[null,25],"dtype":"float32"}},{"class_name":"Dense","config":{"units":25,"activation":"linear","use_bias":true,"kernel_initializer":{"class_name":"VarianceScaling","config":{"scale":1,"mode":"fan_avg","distribution":"normal","seed":null}},"bias_initializer":{"class_name":"Zeros","config":{}},"kernel_regularizer":null,"bias_regularizer":null,"activity_regularizer":null,"kernel_constraint":null,"bias_constraint":null,"name":"dense_Dense174","trainable":true,"batch_input_shape":[null,25],"dtype":"float32"}},{"class_name":"Dense","config":{"units":25,"activation":"linear","use_bias":true,"kernel_initializer":{"class_name":"VarianceScaling","config":{"scale":1,"mode":"fan_avg","distribution":"normal","seed":null}},"bias_initializer":{"class_name":"Zeros","config":{}},"kernel_regularizer":null,"bias_regularizer":null,"activity_regularizer":null,"kernel_constraint":null,"bias_constraint":null,"name":"dense_Dense175","trainable":true,"batch_input_shape":[null,25],"dtype":"float32"}},{"class_name":"Dense","config":{"units":25,"activation":"linear","use_bias":true,"kernel_initializer":{"class_name":"VarianceScaling","config":{"scale":1,"mode":"fan_avg","distribution":"normal","seed":null}},"bias_initializer":{"class_name":"Zeros","config":{}},"kernel_regularizer":null,"bias_regularizer":null,"activity_regularizer":null,"kernel_constraint":null,"bias_constraint":null,"name":"dense_Dense176","trainable":true,"batch_input_shape":[null,25],"dtype":"float32"}},{"class_name":"Dense","config":{"units":25,"activation":"linear","use_bias":true,"kernel_initializer":{"class_name":"VarianceScaling","config":{"scale":1,"mode":"fan_avg","distribution":"normal","seed":null}},"bias_initializer":{"class_name":"Zeros","config":{}},"kernel_regularizer":null,"bias_regularizer":null,"activity_regularizer":null,"kernel_constraint":null,"bias_constraint":null,"name":"dense_Dense177","trainable":true,"batch_input_shape":[null,25],"dtype":"float32"}},{"class_name":"Dense","config":{"units":25,"activation":"linear","use_bias":true,"kernel_initializer":{"class_name":"VarianceScaling","config":{"scale":1,"mode":"fan_avg","distribution":"normal","seed":null}},"bias_initializer":{"class_name":"Zeros","config":{}},"kernel_regularizer":null,"bias_regularizer":null,"activity_regularizer":null,"kernel_constraint":null,"bias_constraint":null,"name":"dense_Dense178","trainable":true,"batch_input_shape":[null,25],"dtype":"float32"}},{"class_name":"Dense","config":{"units":25,"activation":"linear","use_bias":true,"kernel_initializer":{"class_name":"VarianceScaling","config":{"scale":1,"mode":"fan_avg","distribution":"normal","seed":null}},"bias_initializer":{"class_name":"Zeros","config":{}},"kernel_regularizer":null,"bias_regularizer":null,"activity_regularizer":null,"kernel_constraint":null,"bias_constraint":null,"name":"dense_Dense179","trainable":true,"batch_input_shape":[null,25],"dtype":"float32"}},{"class_name":"Dense","config":{"units":25,"activation":"linear","use_bias":true,"kernel_initializer":{"class_name":"VarianceScaling","config":{"scale":1,"mode":"fan_avg","distribution":"normal","seed":null}},"bias_initializer":{"class_name":"Zeros","config":{}},"kernel_regularizer":null,"bias_regularizer":null,"activity_regularizer":null,"kernel_constraint":null,"bias_constraint":null,"name":"dense_Dense180","trainable":true,"batch_input_shape":[null,25],"dtype":"float32"}},{"class_name":"Dense","config":{"units":25,"activation":"linear","use_bias":true,"kernel_initializer":{"class_name":"VarianceScaling","config":{"scale":1,"mode":"fan_avg","distribution":"normal","seed":null}},"bias_initializer":{"class_name":"Zeros","config":{}},"kernel_regularizer":null,"bias_regularizer":null,"activity_regularizer":null,"kernel_constraint":null,"bias_constraint":null,"name":"dense_Dense181","trainable":true,"batch_input_shape":[null,25],"dtype":"float32"}},{"class_name":"Dense","config":{"units":25,"activation":"linear","use_bias":true,"kernel_initializer":{"class_name":"VarianceScaling","config":{"scale":1,"mode":"fan_avg","distribution":"normal","seed":null}},"bias_initializer":{"class_name":"Zeros","config":{}},"kernel_regularizer":null,"bias_regularizer":null,"activity_regularizer":null,"kernel_constraint":null,"bias_constraint":null,"name":"dense_Dense182","trainable":true,"batch_input_shape":[null,25],"dtype":"float32"}},{"class_name":"Dense","config":{"units":25,"activation":"linear","use_bias":true,"kernel_initializer":{"class_name":"VarianceScaling","config":{"scale":1,"mode":"fan_avg","distribution":"normal","seed":null}},"bias_initializer":{"class_name":"Zeros","config":{}},"kernel_regularizer":null,"bias_regularizer":null,"activity_regularizer":null,"kernel_constraint":null,"bias_constraint":null,"name":"dense_Dense183","trainable":true,"batch_input_shape":[null,25],"dtype":"float32"}},{"class_name":"Dense","config":{"units":25,"activation":"linear","use_bias":true,"kernel_initializer":{"class_name":"VarianceScaling","config":{"scale":1,"mode":"fan_avg","distribution":"normal","seed":null}},"bias_initializer":{"class_name":"Zeros","config":{}},"kernel_regularizer":null,"bias_regularizer":null,"activity_regularizer":null,"kernel_constraint":null,"bias_constraint":null,"name":"dense_Dense184","trainable":true,"batch_input_shape":[null,25],"dtype":"float32"}},{"class_name":"Dense","config":{"units":25,"activation":"linear","use_bias":true,"kernel_initializer":{"class_name":"VarianceScaling","config":{"scale":1,"mode":"fan_avg","distribution":"normal","seed":null}},"bias_initializer":{"class_name":"Zeros","config":{}},"kernel_regularizer":null,"bias_regularizer":null,"activity_regularizer":null,"kernel_constraint":null,"bias_constraint":null,"name":"dense_Dense185","trainable":true,"batch_input_shape":[null,25],"dtype":"float32"}},{"class_name":"Dense","config":{"units":25,"activation":"linear","use_bias":true,"kernel_initializer":{"class_name":"VarianceScaling","config":{"scale":1,"mode":"fan_avg","distribution":"normal","seed":null}},"bias_initializer":{"class_name":"Zeros","config":{}},"kernel_regularizer":null,"bias_regularizer":null,"activity_regularizer":null,"kernel_constraint":null,"bias_constraint":null,"name":"dense_Dense186","trainable":true,"batch_input_shape":[null,25],"dtype":"float32"}},{"class_name":"Dense","config":{"units":25,"activation":"linear","use_bias":true,"kernel_initializer":{"class_name":"VarianceScaling","config":{"scale":1,"mode":"fan_avg","distribution":"normal","seed":null}},"bias_initializer":{"class_name":"Zeros","config":{}},"kernel_regularizer":null,"bias_regularizer":null,"activity_regularizer":null,"kernel_constraint":null,"bias_constraint":null,"name":"dense_Dense187","trainable":true,"batch_input_shape":[null,25],"dtype":"float32"}},{"class_name":"Dense","config":{"units":25,"activation":"linear","use_bias":true,"kernel_initializer":{"class_name":"VarianceScaling","config":{"scale":1,"mode":"fan_avg","distribution":"normal","seed":null}},"bias_initializer":{"class_name":"Zeros","config":{}},"kernel_regularizer":null,"bias_regularizer":null,"activity_regularizer":null,"kernel_constraint":null,"bias_constraint":null,"name":"dense_Dense188","trainable":true,"batch_input_shape":[null,25],"dtype":"float32"}},{"class_name":"Dense","config":{"units":25,"activation":"linear","use_bias":true,"kernel_initializer":{"class_name":"VarianceScaling","config":{"scale":1,"mode":"fan_avg","distribution":"normal","seed":null}},"bias_initializer":{"class_name":"Zeros","config":{}},"kernel_regularizer":null,"bias_regularizer":null,"activity_regularizer":null,"kernel_constraint":null,"bias_constraint":null,"name":"dense_Dense189","trainable":true,"batch_input_shape":[null,25],"dtype":"float32"}},{"class_name":"Dense","config":{"units":25,"activation":"linear","use_bias":true,"kernel_initializer":{"class_name":"VarianceScaling","config":{"scale":1,"mode":"fan_avg","distribution":"normal","seed":null}},"bias_initializer":{"class_name":"Zeros","config":{}},"kernel_regularizer":null,"bias_regularizer":null,"activity_regularizer":null,"kernel_constraint":null,"bias_constraint":null,"name":"dense_Dense190","trainable":true,"batch_input_shape":[null,25],"dtype":"float32"}},{"class_name":"Dense","config":{"units":25,"activation":"linear","use_bias":true,"kernel_initializer":{"class_name":"VarianceScaling","config":{"scale":1,"mode":"fan_avg","distribution":"normal","seed":null}},"bias_initializer":{"class_name":"Zeros","config":{}},"kernel_regularizer":null,"bias_regularizer":null,"activity_regularizer":null,"kernel_constraint":null,"bias_constraint":null,"name":"dense_Dense191","trainable":true,"batch_input_shape":[null,25],"dtype":"float32"}},{"class_name":"Dense","config":{"units":25,"activation":"linear","use_bias":true,"kernel_initializer":{"class_name":"VarianceScaling","config":{"scale":1,"mode":"fan_avg","distribution":"normal","seed":null}},"bias_initializer":{"class_name":"Zeros","config":{}},"kernel_regularizer":null,"bias_regularizer":null,"activity_regularizer":null,"kernel_constraint":null,"bias_constraint":null,"name":"dense_Dense192","trainable":true,"batch_input_shape":[null,25],"dtype":"float32"}},{"class_name":"Dense","config":{"units":25,"activation":"linear","use_bias":true,"kernel_initializer":{"class_name":"VarianceScaling","config":{"scale":1,"mode":"fan_avg","distribution":"normal","seed":null}},"bias_initializer":{"class_name":"Zeros","config":{}},"kernel_regularizer":null,"bias_regularizer":null,"activity_regularizer":null,"kernel_constraint":null,"bias_constraint":null,"name":"dense_Dense193","trainable":true,"batch_input_shape":[null,25],"dtype":"float32"}},{"class_name":"Dense","config":{"units":25,"activation":"linear","use_bias":true,"kernel_initializer":{"class_name":"VarianceScaling","config":{"scale":1,"mode":"fan_avg","distribution":"normal","seed":null}},"bias_initializer":{"class_name":"Zeros","config":{}},"kernel_regularizer":null,"bias_regularizer":null,"activity_regularizer":null,"kernel_constraint":null,"bias_constraint":null,"name":"dense_Dense194","trainable":true,"batch_input_shape":[null,25],"dtype":"float32"}},{"class_name":"Dense","config":{"units":25,"activation":"linear","use_bias":true,"kernel_initializer":{"class_name":"VarianceScaling","config":{"scale":1,"mode":"fan_avg","distribution":"normal","seed":null}},"bias_initializer":{"class_name":"Zeros","config":{}},"kernel_regularizer":null,"bias_regularizer":null,"activity_regularizer":null,"kernel_constraint":null,"bias_constraint":null,"name":"dense_Dense195","trainable":true,"batch_input_shape":[null,25],"dtype":"float32"}},{"class_name":"Dense","config":{"units":25,"activation":"linear","use_bias":true,"kernel_initializer":{"class_name":"VarianceScaling","config":{"scale":1,"mode":"fan_avg","distribution":"normal","seed":null}},"bias_initializer":{"class_name":"Zeros","config":{}},"kernel_regularizer":null,"bias_regularizer":null,"activity_regularizer":null,"kernel_constraint":null,"bias_constraint":null,"name":"dense_Dense196","trainable":true,"batch_input_shape":[null,25],"dtype":"float32"}},{"class_name":"Dense","config":{"units":25,"activation":"linear","use_bias":true,"kernel_initializer":{"class_name":"VarianceScaling","config":{"scale":1,"mode":"fan_avg","distribution":"normal","seed":null}},"bias_initializer":{"class_name":"Zeros","config":{}},"kernel_regularizer":null,"bias_regularizer":null,"activity_regularizer":null,"kernel_constraint":null,"bias_constraint":null,"name":"dense_Dense197","trainable":true,"batch_input_shape":[null,25],"dtype":"float32"}},{"class_name":"Dense","config":{"units":25,"activation":"linear","use_bias":true,"kernel_initializer":{"class_name":"VarianceScaling","config":{"scale":1,"mode":"fan_avg","distribution":"normal","seed":null}},"bias_initializer":{"class_name":"Zeros","config":{}},"kernel_regularizer":null,"bias_regularizer":null,"activity_regularizer":null,"kernel_constraint":null,"bias_constraint":null,"name":"dense_Dense198","trainable":true,"batch_input_shape":[null,25],"dtype":"float32"}},{"class_name":"Dense","config":{"units":25,"activation":"linear","use_bias":true,"kernel_initializer":{"class_name":"VarianceScaling","config":{"scale":1,"mode":"fan_avg","distribution":"normal","seed":null}},"bias_initializer":{"class_name":"Zeros","config":{}},"kernel_regularizer":null,"bias_regularizer":null,"activity_regularizer":null,"kernel_constraint":null,"bias_constraint":null,"name":"dense_Dense199","trainable":true,"batch_input_shape":[null,25],"dtype":"float32"}},{"class_name":"Dense","config":{"units":25,"activation":"linear","use_bias":true,"kernel_initializer":{"class_name":"VarianceScaling","config":{"scale":1,"mode":"fan_avg","distribution":"normal","seed":null}},"bias_initializer":{"class_name":"Zeros","config":{}},"kernel_regularizer":null,"bias_regularizer":null,"activity_regularizer":null,"kernel_constraint":null,"bias_constraint":null,"name":"dense_Dense200","trainable":true,"batch_input_shape":[null,25],"dtype":"float32"}},{"class_name":"Dense","config":{"units":25,"activation":"linear","use_bias":true,"kernel_initializer":{"class_name":"VarianceScaling","config":{"scale":1,"mode":"fan_avg","distribution":"normal","seed":null}},"bias_initializer":{"class_name":"Zeros","config":{}},"kernel_regularizer":null,"bias_regularizer":null,"activity_regularizer":null,"kernel_constraint":null,"bias_constraint":null,"name":"dense_Dense201","trainable":true,"batch_input_shape":[null,25],"dtype":"float32"}},{"class_name":"Dense","config":{"units":25,"activation":"linear","use_bias":true,"kernel_initializer":{"class_name":"VarianceScaling","config":{"scale":1,"mode":"fan_avg","distribution":"normal","seed":null}},"bias_initializer":{"class_name":"Zeros","config":{}},"kernel_regularizer":null,"bias_regularizer":null,"activity_regularizer":null,"kernel_constraint":null,"bias_constraint":null,"name":"dense_Dense202","trainable":true,"batch_input_shape":[null,25],"dtype":"float32"}},{"class_name":"Dense","config":{"units":25,"activation":"linear","use_bias":true,"kernel_initializer":{"class_name":"VarianceScaling","config":{"scale":1,"mode":"fan_avg","distribution":"normal","seed":null}},"bias_initializer":{"class_name":"Zeros","config":{}},"kernel_regularizer":null,"bias_regularizer":null,"activity_regularizer":null,"kernel_constraint":null,"bias_constraint":null,"name":"dense_Dense203","trainable":true,"batch_input_shape":[null,25],"dtype":"float32"}},{"class_name":"Dense","config":{"units":25,"activation":"linear","use_bias":true,"kernel_initializer":{"class_name":"VarianceScaling","config":{"scale":1,"mode":"fan_avg","distribution":"normal","seed":null}},"bias_initializer":{"class_name":"Zeros","config":{}},"kernel_regularizer":null,"bias_regularizer":null,"activity_regularizer":null,"kernel_constraint":null,"bias_constraint":null,"name":"dense_Dense204","trainable":true,"batch_input_shape":[null,25],"dtype":"float32"}},{"class_name":"Dense","config":{"units":25,"activation":"linear","use_bias":true,"kernel_initializer":{"class_name":"VarianceScaling","config":{"scale":1,"mode":"fan_avg","distribution":"normal","seed":null}},"bias_initializer":{"class_name":"Zeros","config":{}},"kernel_regularizer":null,"bias_regularizer":null,"activity_regularizer":null,"kernel_constraint":null,"bias_constraint":null,"name":"dense_Dense205","trainable":true,"batch_input_shape":[null,25],"dtype":"float32"}},{"class_name":"Dense","config":{"units":25,"activation":"linear","use_bias":true,"kernel_initializer":{"class_name":"VarianceScaling","config":{"scale":1,"mode":"fan_avg","distribution":"normal","seed":null}},"bias_initializer":{"class_name":"Zeros","config":{}},"kernel_regularizer":null,"bias_regularizer":null,"activity_regularizer":null,"kernel_constraint":null,"bias_constraint":null,"name":"dense_Dense206","trainable":true,"batch_input_shape":[null,25],"dtype":"float32"}},{"class_name":"Dense","config":{"units":25,"activation":"linear","use_bias":true,"kernel_initializer":{"class_name":"VarianceScaling","config":{"scale":1,"mode":"fan_avg","distribution":"normal","seed":null}},"bias_initializer":{"class_name":"Zeros","config":{}},"kernel_regularizer":null,"bias_regularizer":null,"activity_regularizer":null,"kernel_constraint":null,"bias_constraint":null,"name":"dense_Dense207","trainable":true,"batch_input_shape":[null,25],"dtype":"float32"}},{"class_name":"Dense","config":{"units":25,"activation":"linear","use_bias":true,"kernel_initializer":{"class_name":"VarianceScaling","config":{"scale":1,"mode":"fan_avg","distribution":"normal","seed":null}},"bias_initializer":{"class_name":"Zeros","config":{}},"kernel_regularizer":null,"bias_regularizer":null,"activity_regularizer":null,"kernel_constraint":null,"bias_constraint":null,"name":"dense_Dense208","trainable":true,"batch_input_shape":[null,25],"dtype":"float32"}},{"class_name":"Dense","config":{"units":25,"activation":"linear","use_bias":true,"kernel_initializer":{"class_name":"VarianceScaling","config":{"scale":1,"mode":"fan_avg","distribution":"normal","seed":null}},"bias_initializer":{"class_name":"Zeros","config":{}},"kernel_regularizer":null,"bias_regularizer":null,"activity_regularizer":null,"kernel_constraint":null,"bias_constraint":null,"name":"dense_Dense209","trainable":true,"batch_input_shape":[null,25],"dtype":"float32"}},{"class_name":"Dense","config":{"units":25,"activation":"linear","use_bias":true,"kernel_initializer":{"class_name":"VarianceScaling","config":{"scale":1,"mode":"fan_avg","distribution":"normal","seed":null}},"bias_initializer":{"class_name":"Zeros","config":{}},"kernel_regularizer":null,"bias_regularizer":null,"activity_regularizer":null,"kernel_constraint":null,"bias_constraint":null,"name":"dense_Dense210","trainable":true,"batch_input_shape":[null,25],"dtype":"float32"}},{"class_name":"Dense","config":{"units":25,"activation":"linear","use_bias":true,"kernel_initializer":{"class_name":"VarianceScaling","config":{"scale":1,"mode":"fan_avg","distribution":"normal","seed":null}},"bias_initializer":{"class_name":"Zeros","config":{}},"kernel_regularizer":null,"bias_regularizer":null,"activity_regularizer":null,"kernel_constraint":null,"bias_constraint":null,"name":"dense_Dense211","trainable":true,"batch_input_shape":[null,25],"dtype":"float32"}},{"class_name":"Dense","config":{"units":25,"activation":"linear","use_bias":true,"kernel_initializer":{"class_name":"VarianceScaling","config":{"scale":1,"mode":"fan_avg","distribution":"normal","seed":null}},"bias_initializer":{"class_name":"Zeros","config":{}},"kernel_regularizer":null,"bias_regularizer":null,"activity_regularizer":null,"kernel_constraint":null,"bias_constraint":null,"name":"dense_Dense212","trainable":true,"batch_input_shape":[null,25],"dtype":"float32"}},{"class_name":"Dense","config":{"units":25,"activation":"linear","use_bias":true,"kernel_initializer":{"class_name":"VarianceScaling","config":{"scale":1,"mode":"fan_avg","distribution":"normal","seed":null}},"bias_initializer":{"class_name":"Zeros","config":{}},"kernel_regularizer":null,"bias_regularizer":null,"activity_regularizer":null,"kernel_constraint":null,"bias_constraint":null,"name":"dense_Dense213","trainable":true,"batch_input_shape":[null,25],"dtype":"float32"}},{"class_name":"Dense","config":{"units":25,"activation":"linear","use_bias":true,"kernel_initializer":{"class_name":"VarianceScaling","config":{"scale":1,"mode":"fan_avg","distribution":"normal","seed":null}},"bias_initializer":{"class_name":"Zeros","config":{}},"kernel_regularizer":null,"bias_regularizer":null,"activity_regularizer":null,"kernel_constraint":null,"bias_constraint":null,"name":"dense_Dense214","trainable":true,"batch_input_shape":[null,25],"dtype":"float32"}},{"class_name":"Dense","config":{"units":25,"activation":"linear","use_bias":true,"kernel_initializer":{"class_name":"VarianceScaling","config":{"scale":1,"mode":"fan_avg","distribution":"normal","seed":null}},"bias_initializer":{"class_name":"Zeros","config":{}},"kernel_regularizer":null,"bias_regularizer":null,"activity_regularizer":null,"kernel_constraint":null,"bias_constraint":null,"name":"dense_Dense215","trainable":true,"batch_input_shape":[null,25],"dtype":"float32"}},{"class_name":"Dense","config":{"units":25,"activation":"linear","use_bias":true,"kernel_initializer":{"class_name":"VarianceScaling","config":{"scale":1,"mode":"fan_avg","distribution":"normal","seed":null}},"bias_initializer":{"class_name":"Zeros","config":{}},"kernel_regularizer":null,"bias_regularizer":null,"activity_regularizer":null,"kernel_constraint":null,"bias_constraint":null,"name":"dense_Dense216","trainable":true,"batch_input_shape":[null,25],"dtype":"float32"}},{"class_name":"Dense","config":{"units":25,"activation":"linear","use_bias":true,"kernel_initializer":{"class_name":"VarianceScaling","config":{"scale":1,"mode":"fan_avg","distribution":"normal","seed":null}},"bias_initializer":{"class_name":"Zeros","config":{}},"kernel_regularizer":null,"bias_regularizer":null,"activity_regularizer":null,"kernel_constraint":null,"bias_constraint":null,"name":"dense_Dense217","trainable":true,"batch_input_shape":[null,25],"dtype":"float32"}},{"class_name":"Dense","config":{"units":25,"activation":"linear","use_bias":true,"kernel_initializer":{"class_name":"VarianceScaling","config":{"scale":1,"mode":"fan_avg","distribution":"normal","seed":null}},"bias_initializer":{"class_name":"Zeros","config":{}},"kernel_regularizer":null,"bias_regularizer":null,"activity_regularizer":null,"kernel_constraint":null,"bias_constraint":null,"name":"dense_Dense218","trainable":true,"batch_input_shape":[null,25],"dtype":"float32"}},{"class_name":"Dense","config":{"units":25,"activation":"linear","use_bias":true,"kernel_initializer":{"class_name":"VarianceScaling","config":{"scale":1,"mode":"fan_avg","distribution":"normal","seed":null}},"bias_initializer":{"class_name":"Zeros","config":{}},"kernel_regularizer":null,"bias_regularizer":null,"activity_regularizer":null,"kernel_constraint":null,"bias_constraint":null,"name":"dense_Dense219","trainable":true,"batch_input_shape":[null,25],"dtype":"float32"}},{"class_name":"Dense","config":{"units":25,"activation":"linear","use_bias":true,"kernel_initializer":{"class_name":"VarianceScaling","config":{"scale":1,"mode":"fan_avg","distribution":"normal","seed":null}},"bias_initializer":{"class_name":"Zeros","config":{}},"kernel_regularizer":null,"bias_regularizer":null,"activity_regularizer":null,"kernel_constraint":null,"bias_constraint":null,"name":"dense_Dense220","trainable":true,"batch_input_shape":[null,25],"dtype":"float32"}},{"class_name":"Dense","config":{"units":25,"activation":"linear","use_bias":true,"kernel_initializer":{"class_name":"VarianceScaling","config":{"scale":1,"mode":"fan_avg","distribution":"normal","seed":null}},"bias_initializer":{"class_name":"Zeros","config":{}},"kernel_regularizer":null,"bias_regularizer":null,"activity_regularizer":null,"kernel_constraint":null,"bias_constraint":null,"name":"dense_Dense221","trainable":true,"batch_input_shape":[null,25],"dtype":"float32"}},{"class_name":"Dense","config":{"units":25,"activation":"linear","use_bias":true,"kernel_initializer":{"class_name":"VarianceScaling","config":{"scale":1,"mode":"fan_avg","distribution":"normal","seed":null}},"bias_initializer":{"class_name":"Zeros","config":{}},"kernel_regularizer":null,"bias_regularizer":null,"activity_regularizer":null,"kernel_constraint":null,"bias_constraint":null,"name":"dense_Dense222","trainable":true,"batch_input_shape":[null,25],"dtype":"float32"}},{"class_name":"Dense","config":{"units":25,"activation":"linear","use_bias":true,"kernel_initializer":{"class_name":"VarianceScaling","config":{"scale":1,"mode":"fan_avg","distribution":"normal","seed":null}},"bias_initializer":{"class_name":"Zeros","config":{}},"kernel_regularizer":null,"bias_regularizer":null,"activity_regularizer":null,"kernel_constraint":null,"bias_constraint":null,"name":"dense_Dense223","trainable":true,"batch_input_shape":[null,25],"dtype":"float32"}},{"class_name":"Dense","config":{"units":25,"activation":"linear","use_bias":true,"kernel_initializer":{"class_name":"VarianceScaling","config":{"scale":1,"mode":"fan_avg","distribution":"normal","seed":null}},"bias_initializer":{"class_name":"Zeros","config":{}},"kernel_regularizer":null,"bias_regularizer":null,"activity_regularizer":null,"kernel_constraint":null,"bias_constraint":null,"name":"dense_Dense224","trainable":true,"batch_input_shape":[null,25],"dtype":"float32"}},{"class_name":"Dense","config":{"units":25,"activation":"linear","use_bias":true,"kernel_initializer":{"class_name":"VarianceScaling","config":{"scale":1,"mode":"fan_avg","distribution":"normal","seed":null}},"bias_initializer":{"class_name":"Zeros","config":{}},"kernel_regularizer":null,"bias_regularizer":null,"activity_regularizer":null,"kernel_constraint":null,"bias_constraint":null,"name":"dense_Dense225","trainable":true,"batch_input_shape":[null,25],"dtype":"float32"}},{"class_name":"Dense","config":{"units":25,"activation":"linear","use_bias":true,"kernel_initializer":{"class_name":"VarianceScaling","config":{"scale":1,"mode":"fan_avg","distribution":"normal","seed":null}},"bias_initializer":{"class_name":"Zeros","config":{}},"kernel_regularizer":null,"bias_regularizer":null,"activity_regularizer":null,"kernel_constraint":null,"bias_constraint":null,"name":"dense_Dense226","trainable":true,"batch_input_shape":[null,25],"dtype":"float32"}},{"class_name":"Dense","config":{"units":25,"activation":"linear","use_bias":true,"kernel_initializer":{"class_name":"VarianceScaling","config":{"scale":1,"mode":"fan_avg","distribution":"normal","seed":null}},"bias_initializer":{"class_name":"Zeros","config":{}},"kernel_regularizer":null,"bias_regularizer":null,"activity_regularizer":null,"kernel_constraint":null,"bias_constraint":null,"name":"dense_Dense227","trainable":true,"batch_input_shape":[null,25],"dtype":"float32"}},{"class_name":"Dense","config":{"units":25,"activation":"linear","use_bias":true,"kernel_initializer":{"class_name":"VarianceScaling","config":{"scale":1,"mode":"fan_avg","distribution":"normal","seed":null}},"bias_initializer":{"class_name":"Zeros","config":{}},"kernel_regularizer":null,"bias_regularizer":null,"activity_regularizer":null,"kernel_constraint":null,"bias_constraint":null,"name":"dense_Dense228","trainable":true,"batch_input_shape":[null,25],"dtype":"float32"}},{"class_name":"Dense","config":{"units":25,"activation":"linear","use_bias":true,"kernel_initializer":{"class_name":"VarianceScaling","config":{"scale":1,"mode":"fan_avg","distribution":"normal","seed":null}},"bias_initializer":{"class_name":"Zeros","config":{}},"kernel_regularizer":null,"bias_regularizer":null,"activity_regularizer":null,"kernel_constraint":null,"bias_constraint":null,"name":"dense_Dense229","trainable":true,"batch_input_shape":[null,25],"dtype":"float32"}},{"class_name":"Dense","config":{"units":25,"activation":"linear","use_bias":true,"kernel_initializer":{"class_name":"VarianceScaling","config":{"scale":1,"mode":"fan_avg","distribution":"normal","seed":null}},"bias_initializer":{"class_name":"Zeros","config":{}},"kernel_regularizer":null,"bias_regularizer":null,"activity_regularizer":null,"kernel_constraint":null,"bias_constraint":null,"name":"dense_Dense230","trainable":true,"batch_input_shape":[null,25],"dtype":"float32"}},{"class_name":"Dense","config":{"units":25,"activation":"linear","use_bias":true,"kernel_initializer":{"class_name":"VarianceScaling","config":{"scale":1,"mode":"fan_avg","distribution":"normal","seed":null}},"bias_initializer":{"class_name":"Zeros","config":{}},"kernel_regularizer":null,"bias_regularizer":null,"activity_regularizer":null,"kernel_constraint":null,"bias_constraint":null,"name":"dense_Dense231","trainable":true,"batch_input_shape":[null,25],"dtype":"float32"}},{"class_name":"Dense","config":{"units":25,"activation":"linear","use_bias":true,"kernel_initializer":{"class_name":"VarianceScaling","config":{"scale":1,"mode":"fan_avg","distribution":"normal","seed":null}},"bias_initializer":{"class_name":"Zeros","config":{}},"kernel_regularizer":null,"bias_regularizer":null,"activity_regularizer":null,"kernel_constraint":null,"bias_constraint":null,"name":"dense_Dense232","trainable":true,"batch_input_shape":[null,25],"dtype":"float32"}},{"class_name":"Dense","config":{"units":25,"activation":"linear","use_bias":true,"kernel_initializer":{"class_name":"VarianceScaling","config":{"scale":1,"mode":"fan_avg","distribution":"normal","seed":null}},"bias_initializer":{"class_name":"Zeros","config":{}},"kernel_regularizer":null,"bias_regularizer":null,"activity_regularizer":null,"kernel_constraint":null,"bias_constraint":null,"name":"dense_Dense233","trainable":true,"batch_input_shape":[null,25],"dtype":"float32"}},{"class_name":"Dense","config":{"units":25,"activation":"linear","use_bias":true,"kernel_initializer":{"class_name":"VarianceScaling","config":{"scale":1,"mode":"fan_avg","distribution":"normal","seed":null}},"bias_initializer":{"class_name":"Zeros","config":{}},"kernel_regularizer":null,"bias_regularizer":null,"activity_regularizer":null,"kernel_constraint":null,"bias_constraint":null,"name":"dense_Dense234","trainable":true,"batch_input_shape":[null,25],"dtype":"float32"}},{"class_name":"Dense","config":{"units":25,"activation":"linear","use_bias":true,"kernel_initializer":{"class_name":"VarianceScaling","config":{"scale":1,"mode":"fan_avg","distribution":"normal","seed":null}},"bias_initializer":{"class_name":"Zeros","config":{}},"kernel_regularizer":null,"bias_regularizer":null,"activity_regularizer":null,"kernel_constraint":null,"bias_constraint":null,"name":"dense_Dense235","trainable":true,"batch_input_shape":[null,25],"dtype":"float32"}},{"class_name":"Dense","config":{"units":25,"activation":"linear","use_bias":true,"kernel_initializer":{"class_name":"VarianceScaling","config":{"scale":1,"mode":"fan_avg","distribution":"normal","seed":null}},"bias_initializer":{"class_name":"Zeros","config":{}},"kernel_regularizer":null,"bias_regularizer":null,"activity_regularizer":null,"kernel_constraint":null,"bias_constraint":null,"name":"dense_Dense236","trainable":true,"batch_input_shape":[null,25],"dtype":"float32"}},{"class_name":"Dense","config":{"units":25,"activation":"linear","use_bias":true,"kernel_initializer":{"class_name":"VarianceScaling","config":{"scale":1,"mode":"fan_avg","distribution":"normal","seed":null}},"bias_initializer":{"class_name":"Zeros","config":{}},"kernel_regularizer":null,"bias_regularizer":null,"activity_regularizer":null,"kernel_constraint":null,"bias_constraint":null,"name":"dense_Dense237","trainable":true,"batch_input_shape":[null,25],"dtype":"float32"}},{"class_name":"Dense","config":{"units":25,"activation":"linear","use_bias":true,"kernel_initializer":{"class_name":"VarianceScaling","config":{"scale":1,"mode":"fan_avg","distribution":"normal","seed":null}},"bias_initializer":{"class_name":"Zeros","config":{}},"kernel_regularizer":null,"bias_regularizer":null,"activity_regularizer":null,"kernel_constraint":null,"bias_constraint":null,"name":"dense_Dense238","trainable":true,"batch_input_shape":[null,25],"dtype":"float32"}},{"class_name":"Dense","config":{"units":25,"activation":"linear","use_bias":true,"kernel_initializer":{"class_name":"VarianceScaling","config":{"scale":1,"mode":"fan_avg","distribution":"normal","seed":null}},"bias_initializer":{"class_name":"Zeros","config":{}},"kernel_regularizer":null,"bias_regularizer":null,"activity_regularizer":null,"kernel_constraint":null,"bias_constraint":null,"name":"dense_Dense239","trainable":true,"batch_input_shape":[null,25],"dtype":"float32"}},{"class_name":"Dense","config":{"units":25,"activation":"linear","use_bias":true,"kernel_initializer":{"class_name":"VarianceScaling","config":{"scale":1,"mode":"fan_avg","distribution":"normal","seed":null}},"bias_initializer":{"class_name":"Zeros","config":{}},"kernel_regularizer":null,"bias_regularizer":null,"activity_regularizer":null,"kernel_constraint":null,"bias_constraint":null,"name":"dense_Dense240","trainable":true,"batch_input_shape":[null,25],"dtype":"float32"}},{"class_name":"Dense","config":{"units":25,"activation":"linear","use_bias":true,"kernel_initializer":{"class_name":"VarianceScaling","config":{"scale":1,"mode":"fan_avg","distribution":"normal","seed":null}},"bias_initializer":{"class_name":"Zeros","config":{}},"kernel_regularizer":null,"bias_regularizer":null,"activity_regularizer":null,"kernel_constraint":null,"bias_constraint":null,"name":"dense_Dense241","trainable":true,"batch_input_shape":[null,25],"dtype":"float32"}},{"class_name":"Dense","config":{"units":25,"activation":"linear","use_bias":true,"kernel_initializer":{"class_name":"VarianceScaling","config":{"scale":1,"mode":"fan_avg","distribution":"normal","seed":null}},"bias_initializer":{"class_name":"Zeros","config":{}},"kernel_regularizer":null,"bias_regularizer":null,"activity_regularizer":null,"kernel_constraint":null,"bias_constraint":null,"name":"dense_Dense242","trainable":true,"batch_input_shape":[null,25],"dtype":"float32"}},{"class_name":"Dense","config":{"units":25,"activation":"linear","use_bias":true,"kernel_initializer":{"class_name":"VarianceScaling","config":{"scale":1,"mode":"fan_avg","distribution":"normal","seed":null}},"bias_initializer":{"class_name":"Zeros","config":{}},"kernel_regularizer":null,"bias_regularizer":null,"activity_regularizer":null,"kernel_constraint":null,"bias_constraint":null,"name":"dense_Dense243","trainable":true,"batch_input_shape":[null,25],"dtype":"float32"}},{"class_name":"Dense","config":{"units":25,"activation":"linear","use_bias":true,"kernel_initializer":{"class_name":"VarianceScaling","config":{"scale":1,"mode":"fan_avg","distribution":"normal","seed":null}},"bias_initializer":{"class_name":"Zeros","config":{}},"kernel_regularizer":null,"bias_regularizer":null,"activity_regularizer":null,"kernel_constraint":null,"bias_constraint":null,"name":"dense_Dense244","trainable":true,"batch_input_shape":[null,25],"dtype":"float32"}},{"class_name":"Dense","config":{"units":25,"activation":"linear","use_bias":true,"kernel_initializer":{"class_name":"VarianceScaling","config":{"scale":1,"mode":"fan_avg","distribution":"normal","seed":null}},"bias_initializer":{"class_name":"Zeros","config":{}},"kernel_regularizer":null,"bias_regularizer":null,"activity_regularizer":null,"kernel_constraint":null,"bias_constraint":null,"name":"dense_Dense245","trainable":true,"batch_input_shape":[null,25],"dtype":"float32"}},{"class_name":"Dense","config":{"units":25,"activation":"linear","use_bias":true,"kernel_initializer":{"class_name":"VarianceScaling","config":{"scale":1,"mode":"fan_avg","distribution":"normal","seed":null}},"bias_initializer":{"class_name":"Zeros","config":{}},"kernel_regularizer":null,"bias_regularizer":null,"activity_regularizer":null,"kernel_constraint":null,"bias_constraint":null,"name":"dense_Dense246","trainable":true,"batch_input_shape":[null,25],"dtype":"float32"}},{"class_name":"Dense","config":{"units":25,"activation":"linear","use_bias":true,"kernel_initializer":{"class_name":"VarianceScaling","config":{"scale":1,"mode":"fan_avg","distribution":"normal","seed":null}},"bias_initializer":{"class_name":"Zeros","config":{}},"kernel_regularizer":null,"bias_regularizer":null,"activity_regularizer":null,"kernel_constraint":null,"bias_constraint":null,"name":"dense_Dense247","trainable":true,"batch_input_shape":[null,25],"dtype":"float32"}},{"class_name":"Dense","config":{"units":25,"activation":"linear","use_bias":true,"kernel_initializer":{"class_name":"VarianceScaling","config":{"scale":1,"mode":"fan_avg","distribution":"normal","seed":null}},"bias_initializer":{"class_name":"Zeros","config":{}},"kernel_regularizer":null,"bias_regularizer":null,"activity_regularizer":null,"kernel_constraint":null,"bias_constraint":null,"name":"dense_Dense248","trainable":true,"batch_input_shape":[null,25],"dtype":"float32"}},{"class_name":"Dense","config":{"units":25,"activation":"linear","use_bias":true,"kernel_initializer":{"class_name":"VarianceScaling","config":{"scale":1,"mode":"fan_avg","distribution":"normal","seed":null}},"bias_initializer":{"class_name":"Zeros","config":{}},"kernel_regularizer":null,"bias_regularizer":null,"activity_regularizer":null,"kernel_constraint":null,"bias_constraint":null,"name":"dense_Dense249","trainable":true,"batch_input_shape":[null,25],"dtype":"float32"}},{"class_name":"Dense","config":{"units":25,"activation":"linear","use_bias":true,"kernel_initializer":{"class_name":"VarianceScaling","config":{"scale":1,"mode":"fan_avg","distribution":"normal","seed":null}},"bias_initializer":{"class_name":"Zeros","config":{}},"kernel_regularizer":null,"bias_regularizer":null,"activity_regularizer":null,"kernel_constraint":null,"bias_constraint":null,"name":"dense_Dense250","trainable":true,"batch_input_shape":[null,25],"dtype":"float32"}},{"class_name":"Dense","config":{"units":25,"activation":"linear","use_bias":true,"kernel_initializer":{"class_name":"VarianceScaling","config":{"scale":1,"mode":"fan_avg","distribution":"normal","seed":null}},"bias_initializer":{"class_name":"Zeros","config":{}},"kernel_regularizer":null,"bias_regularizer":null,"activity_regularizer":null,"kernel_constraint":null,"bias_constraint":null,"name":"dense_Dense251","trainable":true,"batch_input_shape":[null,25],"dtype":"float32"}},{"class_name":"Dense","config":{"units":25,"activation":"linear","use_bias":true,"kernel_initializer":{"class_name":"VarianceScaling","config":{"scale":1,"mode":"fan_avg","distribution":"normal","seed":null}},"bias_initializer":{"class_name":"Zeros","config":{}},"kernel_regularizer":null,"bias_regularizer":null,"activity_regularizer":null,"kernel_constraint":null,"bias_constraint":null,"name":"dense_Dense252","trainable":true,"batch_input_shape":[null,25],"dtype":"float32"}},{"class_name":"Dense","config":{"units":25,"activation":"linear","use_bias":true,"kernel_initializer":{"class_name":"VarianceScaling","config":{"scale":1,"mode":"fan_avg","distribution":"normal","seed":null}},"bias_initializer":{"class_name":"Zeros","config":{}},"kernel_regularizer":null,"bias_regularizer":null,"activity_regularizer":null,"kernel_constraint":null,"bias_constraint":null,"name":"dense_Dense253","trainable":true,"batch_input_shape":[null,25],"dtype":"float32"}},{"class_name":"Dense","config":{"units":25,"activation":"linear","use_bias":true,"kernel_initializer":{"class_name":"VarianceScaling","config":{"scale":1,"mode":"fan_avg","distribution":"normal","seed":null}},"bias_initializer":{"class_name":"Zeros","config":{}},"kernel_regularizer":null,"bias_regularizer":null,"activity_regularizer":null,"kernel_constraint":null,"bias_constraint":null,"name":"dense_Dense254","trainable":true,"batch_input_shape":[null,25],"dtype":"float32"}},{"class_name":"Dense","config":{"units":25,"activation":"linear","use_bias":true,"kernel_initializer":{"class_name":"VarianceScaling","config":{"scale":1,"mode":"fan_avg","distribution":"normal","seed":null}},"bias_initializer":{"class_name":"Zeros","config":{}},"kernel_regularizer":null,"bias_regularizer":null,"activity_regularizer":null,"kernel_constraint":null,"bias_constraint":null,"name":"dense_Dense255","trainable":true,"batch_input_shape":[null,25],"dtype":"float32"}},{"class_name":"Dense","config":{"units":25,"activation":"linear","use_bias":true,"kernel_initializer":{"class_name":"VarianceScaling","config":{"scale":1,"mode":"fan_avg","distribution":"normal","seed":null}},"bias_initializer":{"class_name":"Zeros","config":{}},"kernel_regularizer":null,"bias_regularizer":null,"activity_regularizer":null,"kernel_constraint":null,"bias_constraint":null,"name":"dense_Dense256","trainable":true,"batch_input_shape":[null,25],"dtype":"float32"}},{"class_name":"Dense","config":{"units":25,"activation":"linear","use_bias":true,"kernel_initializer":{"class_name":"VarianceScaling","config":{"scale":1,"mode":"fan_avg","distribution":"normal","seed":null}},"bias_initializer":{"class_name":"Zeros","config":{}},"kernel_regularizer":null,"bias_regularizer":null,"activity_regularizer":null,"kernel_constraint":null,"bias_constraint":null,"name":"dense_Dense257","trainable":true,"batch_input_shape":[null,25],"dtype":"float32"}},{"class_name":"Dense","config":{"units":25,"activation":"linear","use_bias":true,"kernel_initializer":{"class_name":"VarianceScaling","config":{"scale":1,"mode":"fan_avg","distribution":"normal","seed":null}},"bias_initializer":{"class_name":"Zeros","config":{}},"kernel_regularizer":null,"bias_regularizer":null,"activity_regularizer":null,"kernel_constraint":null,"bias_constraint":null,"name":"dense_Dense258","trainable":true,"batch_input_shape":[null,25],"dtype":"float32"}},{"class_name":"Dense","config":{"units":25,"activation":"linear","use_bias":true,"kernel_initializer":{"class_name":"VarianceScaling","config":{"scale":1,"mode":"fan_avg","distribution":"normal","seed":null}},"bias_initializer":{"class_name":"Zeros","config":{}},"kernel_regularizer":null,"bias_regularizer":null,"activity_regularizer":null,"kernel_constraint":null,"bias_constraint":null,"name":"dense_Dense259","trainable":true,"batch_input_shape":[null,25],"dtype":"float32"}},{"class_name":"Dense","config":{"units":25,"activation":"linear","use_bias":true,"kernel_initializer":{"class_name":"VarianceScaling","config":{"scale":1,"mode":"fan_avg","distribution":"normal","seed":null}},"bias_initializer":{"class_name":"Zeros","config":{}},"kernel_regularizer":null,"bias_regularizer":null,"activity_regularizer":null,"kernel_constraint":null,"bias_constraint":null,"name":"dense_Dense260","trainable":true,"batch_input_shape":[null,25],"dtype":"float32"}},{"class_name":"Dense","config":{"units":25,"activation":"linear","use_bias":true,"kernel_initializer":{"class_name":"VarianceScaling","config":{"scale":1,"mode":"fan_avg","distribution":"normal","seed":null}},"bias_initializer":{"class_name":"Zeros","config":{}},"kernel_regularizer":null,"bias_regularizer":null,"activity_regularizer":null,"kernel_constraint":null,"bias_constraint":null,"name":"dense_Dense261","trainable":true,"batch_input_shape":[null,25],"dtype":"float32"}},{"class_name":"Dense","config":{"units":25,"activation":"linear","use_bias":true,"kernel_initializer":{"class_name":"VarianceScaling","config":{"scale":1,"mode":"fan_avg","distribution":"normal","seed":null}},"bias_initializer":{"class_name":"Zeros","config":{}},"kernel_regularizer":null,"bias_regularizer":null,"activity_regularizer":null,"kernel_constraint":null,"bias_constraint":null,"name":"dense_Dense262","trainable":true,"batch_input_shape":[null,25],"dtype":"float32"}},{"class_name":"Dense","config":{"units":25,"activation":"linear","use_bias":true,"kernel_initializer":{"class_name":"VarianceScaling","config":{"scale":1,"mode":"fan_avg","distribution":"normal","seed":null}},"bias_initializer":{"class_name":"Zeros","config":{}},"kernel_regularizer":null,"bias_regularizer":null,"activity_regularizer":null,"kernel_constraint":null,"bias_constraint":null,"name":"dense_Dense263","trainable":true,"batch_input_shape":[null,25],"dtype":"float32"}},{"class_name":"Dense","config":{"units":25,"activation":"linear","use_bias":true,"kernel_initializer":{"class_name":"VarianceScaling","config":{"scale":1,"mode":"fan_avg","distribution":"normal","seed":null}},"bias_initializer":{"class_name":"Zeros","config":{}},"kernel_regularizer":null,"bias_regularizer":null,"activity_regularizer":null,"kernel_constraint":null,"bias_constraint":null,"name":"dense_Dense264","trainable":true,"batch_input_shape":[null,25],"dtype":"float32"}},{"class_name":"Dense","config":{"units":25,"activation":"linear","use_bias":true,"kernel_initializer":{"class_name":"VarianceScaling","config":{"scale":1,"mode":"fan_avg","distribution":"normal","seed":null}},"bias_initializer":{"class_name":"Zeros","config":{}},"kernel_regularizer":null,"bias_regularizer":null,"activity_regularizer":null,"kernel_constraint":null,"bias_constraint":null,"name":"dense_Dense265","trainable":true,"batch_input_shape":[null,25],"dtype":"float32"}},{"class_name":"Dense","config":{"units":25,"activation":"linear","use_bias":true,"kernel_initializer":{"class_name":"VarianceScaling","config":{"scale":1,"mode":"fan_avg","distribution":"normal","seed":null}},"bias_initializer":{"class_name":"Zeros","config":{}},"kernel_regularizer":null,"bias_regularizer":null,"activity_regularizer":null,"kernel_constraint":null,"bias_constraint":null,"name":"dense_Dense266","trainable":true,"batch_input_shape":[null,25],"dtype":"float32"}},{"class_name":"Dense","config":{"units":25,"activation":"linear","use_bias":true,"kernel_initializer":{"class_name":"VarianceScaling","config":{"scale":1,"mode":"fan_avg","distribution":"normal","seed":null}},"bias_initializer":{"class_name":"Zeros","config":{}},"kernel_regularizer":null,"bias_regularizer":null,"activity_regularizer":null,"kernel_constraint":null,"bias_constraint":null,"name":"dense_Dense267","trainable":true,"batch_input_shape":[null,25],"dtype":"float32"}},{"class_name":"Dense","config":{"units":25,"activation":"linear","use_bias":true,"kernel_initializer":{"class_name":"VarianceScaling","config":{"scale":1,"mode":"fan_avg","distribution":"normal","seed":null}},"bias_initializer":{"class_name":"Zeros","config":{}},"kernel_regularizer":null,"bias_regularizer":null,"activity_regularizer":null,"kernel_constraint":null,"bias_constraint":null,"name":"dense_Dense268","trainable":true,"batch_input_shape":[null,25],"dtype":"float32"}},{"class_name":"Dense","config":{"units":25,"activation":"linear","use_bias":true,"kernel_initializer":{"class_name":"VarianceScaling","config":{"scale":1,"mode":"fan_avg","distribution":"normal","seed":null}},"bias_initializer":{"class_name":"Zeros","config":{}},"kernel_regularizer":null,"bias_regularizer":null,"activity_regularizer":null,"kernel_constraint":null,"bias_constraint":null,"name":"dense_Dense269","trainable":true,"batch_input_shape":[null,25],"dtype":"float32"}},{"class_name":"Dense","config":{"units":25,"activation":"linear","use_bias":true,"kernel_initializer":{"class_name":"VarianceScaling","config":{"scale":1,"mode":"fan_avg","distribution":"normal","seed":null}},"bias_initializer":{"class_name":"Zeros","config":{}},"kernel_regularizer":null,"bias_regularizer":null,"activity_regularizer":null,"kernel_constraint":null,"bias_constraint":null,"name":"dense_Dense270","trainable":true,"batch_input_shape":[null,25],"dtype":"float32"}},{"class_name":"Dense","config":{"units":25,"activation":"linear","use_bias":true,"kernel_initializer":{"class_name":"VarianceScaling","config":{"scale":1,"mode":"fan_avg","distribution":"normal","seed":null}},"bias_initializer":{"class_name":"Zeros","config":{}},"kernel_regularizer":null,"bias_regularizer":null,"activity_regularizer":null,"kernel_constraint":null,"bias_constraint":null,"name":"dense_Dense271","trainable":true,"batch_input_shape":[null,25],"dtype":"float32"}},{"class_name":"Dense","config":{"units":25,"activation":"linear","use_bias":true,"kernel_initializer":{"class_name":"VarianceScaling","config":{"scale":1,"mode":"fan_avg","distribution":"normal","seed":null}},"bias_initializer":{"class_name":"Zeros","config":{}},"kernel_regularizer":null,"bias_regularizer":null,"activity_regularizer":null,"kernel_constraint":null,"bias_constraint":null,"name":"dense_Dense272","trainable":true,"batch_input_shape":[null,25],"dtype":"float32"}},{"class_name":"Dense","config":{"units":25,"activation":"linear","use_bias":true,"kernel_initializer":{"class_name":"VarianceScaling","config":{"scale":1,"mode":"fan_avg","distribution":"normal","seed":null}},"bias_initializer":{"class_name":"Zeros","config":{}},"kernel_regularizer":null,"bias_regularizer":null,"activity_regularizer":null,"kernel_constraint":null,"bias_constraint":null,"name":"dense_Dense273","trainable":true,"batch_input_shape":[null,25],"dtype":"float32"}},{"class_name":"Dense","config":{"units":25,"activation":"linear","use_bias":true,"kernel_initializer":{"class_name":"VarianceScaling","config":{"scale":1,"mode":"fan_avg","distribution":"normal","seed":null}},"bias_initializer":{"class_name":"Zeros","config":{}},"kernel_regularizer":null,"bias_regularizer":null,"activity_regularizer":null,"kernel_constraint":null,"bias_constraint":null,"name":"dense_Dense274","trainable":true,"batch_input_shape":[null,25],"dtype":"float32"}},{"class_name":"Dense","config":{"units":25,"activation":"linear","use_bias":true,"kernel_initializer":{"class_name":"VarianceScaling","config":{"scale":1,"mode":"fan_avg","distribution":"normal","seed":null}},"bias_initializer":{"class_name":"Zeros","config":{}},"kernel_regularizer":null,"bias_regularizer":null,"activity_regularizer":null,"kernel_constraint":null,"bias_constraint":null,"name":"dense_Dense275","trainable":true,"batch_input_shape":[null,25],"dtype":"float32"}},{"class_name":"Dense","config":{"units":25,"activation":"linear","use_bias":true,"kernel_initializer":{"class_name":"VarianceScaling","config":{"scale":1,"mode":"fan_avg","distribution":"normal","seed":null}},"bias_initializer":{"class_name":"Zeros","config":{}},"kernel_regularizer":null,"bias_regularizer":null,"activity_regularizer":null,"kernel_constraint":null,"bias_constraint":null,"name":"dense_Dense276","trainable":true,"batch_input_shape":[null,25],"dtype":"float32"}},{"class_name":"Dense","config":{"units":25,"activation":"linear","use_bias":true,"kernel_initializer":{"class_name":"VarianceScaling","config":{"scale":1,"mode":"fan_avg","distribution":"normal","seed":null}},"bias_initializer":{"class_name":"Zeros","config":{}},"kernel_regularizer":null,"bias_regularizer":null,"activity_regularizer":null,"kernel_constraint":null,"bias_constraint":null,"name":"dense_Dense277","trainable":true,"batch_input_shape":[null,25],"dtype":"float32"}},{"class_name":"Dense","config":{"units":25,"activation":"linear","use_bias":true,"kernel_initializer":{"class_name":"VarianceScaling","config":{"scale":1,"mode":"fan_avg","distribution":"normal","seed":null}},"bias_initializer":{"class_name":"Zeros","config":{}},"kernel_regularizer":null,"bias_regularizer":null,"activity_regularizer":null,"kernel_constraint":null,"bias_constraint":null,"name":"dense_Dense278","trainable":true,"batch_input_shape":[null,25],"dtype":"float32"}},{"class_name":"Dense","config":{"units":25,"activation":"linear","use_bias":true,"kernel_initializer":{"class_name":"VarianceScaling","config":{"scale":1,"mode":"fan_avg","distribution":"normal","seed":null}},"bias_initializer":{"class_name":"Zeros","config":{}},"kernel_regularizer":null,"bias_regularizer":null,"activity_regularizer":null,"kernel_constraint":null,"bias_constraint":null,"name":"dense_Dense279","trainable":true,"batch_input_shape":[null,25],"dtype":"float32"}},{"class_name":"Dense","config":{"units":25,"activation":"linear","use_bias":true,"kernel_initializer":{"class_name":"VarianceScaling","config":{"scale":1,"mode":"fan_avg","distribution":"normal","seed":null}},"bias_initializer":{"class_name":"Zeros","config":{}},"kernel_regularizer":null,"bias_regularizer":null,"activity_regularizer":null,"kernel_constraint":null,"bias_constraint":null,"name":"dense_Dense280","trainable":true,"batch_input_shape":[null,25],"dtype":"float32"}},{"class_name":"Dense","config":{"units":25,"activation":"linear","use_bias":true,"kernel_initializer":{"class_name":"VarianceScaling","config":{"scale":1,"mode":"fan_avg","distribution":"normal","seed":null}},"bias_initializer":{"class_name":"Zeros","config":{}},"kernel_regularizer":null,"bias_regularizer":null,"activity_regularizer":null,"kernel_constraint":null,"bias_constraint":null,"name":"dense_Dense281","trainable":true,"batch_input_shape":[null,25],"dtype":"float32"}},{"class_name":"Dense","config":{"units":25,"activation":"linear","use_bias":true,"kernel_initializer":{"class_name":"VarianceScaling","config":{"scale":1,"mode":"fan_avg","distribution":"normal","seed":null}},"bias_initializer":{"class_name":"Zeros","config":{}},"kernel_regularizer":null,"bias_regularizer":null,"activity_regularizer":null,"kernel_constraint":null,"bias_constraint":null,"name":"dense_Dense282","trainable":true,"batch_input_shape":[null,25],"dtype":"float32"}},{"class_name":"Dense","config":{"units":25,"activation":"linear","use_bias":true,"kernel_initializer":{"class_name":"VarianceScaling","config":{"scale":1,"mode":"fan_avg","distribution":"normal","seed":null}},"bias_initializer":{"class_name":"Zeros","config":{}},"kernel_regularizer":null,"bias_regularizer":null,"activity_regularizer":null,"kernel_constraint":null,"bias_constraint":null,"name":"dense_Dense283","trainable":true,"batch_input_shape":[null,25],"dtype":"float32"}},{"class_name":"Dense","config":{"units":25,"activation":"linear","use_bias":true,"kernel_initializer":{"class_name":"VarianceScaling","config":{"scale":1,"mode":"fan_avg","distribution":"normal","seed":null}},"bias_initializer":{"class_name":"Zeros","config":{}},"kernel_regularizer":null,"bias_regularizer":null,"activity_regularizer":null,"kernel_constraint":null,"bias_constraint":null,"name":"dense_Dense284","trainable":true,"batch_input_shape":[null,25],"dtype":"float32"}},{"class_name":"Dense","config":{"units":25,"activation":"linear","use_bias":true,"kernel_initializer":{"class_name":"VarianceScaling","config":{"scale":1,"mode":"fan_avg","distribution":"normal","seed":null}},"bias_initializer":{"class_name":"Zeros","config":{}},"kernel_regularizer":null,"bias_regularizer":null,"activity_regularizer":null,"kernel_constraint":null,"bias_constraint":null,"name":"dense_Dense285","trainable":true,"batch_input_shape":[null,25],"dtype":"float32"}},{"class_name":"Dense","config":{"units":25,"activation":"linear","use_bias":true,"kernel_initializer":{"class_name":"VarianceScaling","config":{"scale":1,"mode":"fan_avg","distribution":"normal","seed":null}},"bias_initializer":{"class_name":"Zeros","config":{}},"kernel_regularizer":null,"bias_regularizer":null,"activity_regularizer":null,"kernel_constraint":null,"bias_constraint":null,"name":"dense_Dense286","trainable":true,"batch_input_shape":[null,25],"dtype":"float32"}},{"class_name":"Dense","config":{"units":25,"activation":"linear","use_bias":true,"kernel_initializer":{"class_name":"VarianceScaling","config":{"scale":1,"mode":"fan_avg","distribution":"normal","seed":null}},"bias_initializer":{"class_name":"Zeros","config":{}},"kernel_regularizer":null,"bias_regularizer":null,"activity_regularizer":null,"kernel_constraint":null,"bias_constraint":null,"name":"dense_Dense287","trainable":true,"batch_input_shape":[null,25],"dtype":"float32"}},{"class_name":"Dense","config":{"units":25,"activation":"linear","use_bias":true,"kernel_initializer":{"class_name":"VarianceScaling","config":{"scale":1,"mode":"fan_avg","distribution":"normal","seed":null}},"bias_initializer":{"class_name":"Zeros","config":{}},"kernel_regularizer":null,"bias_regularizer":null,"activity_regularizer":null,"kernel_constraint":null,"bias_constraint":null,"name":"dense_Dense288","trainable":true,"batch_input_shape":[null,25],"dtype":"float32"}},{"class_name":"Dense","config":{"units":25,"activation":"linear","use_bias":true,"kernel_initializer":{"class_name":"VarianceScaling","config":{"scale":1,"mode":"fan_avg","distribution":"normal","seed":null}},"bias_initializer":{"class_name":"Zeros","config":{}},"kernel_regularizer":null,"bias_regularizer":null,"activity_regularizer":null,"kernel_constraint":null,"bias_constraint":null,"name":"dense_Dense289","trainable":true,"batch_input_shape":[null,25],"dtype":"float32"}},{"class_name":"Dense","config":{"units":25,"activation":"linear","use_bias":true,"kernel_initializer":{"class_name":"VarianceScaling","config":{"scale":1,"mode":"fan_avg","distribution":"normal","seed":null}},"bias_initializer":{"class_name":"Zeros","config":{}},"kernel_regularizer":null,"bias_regularizer":null,"activity_regularizer":null,"kernel_constraint":null,"bias_constraint":null,"name":"dense_Dense290","trainable":true,"batch_input_shape":[null,25],"dtype":"float32"}},{"class_name":"Dense","config":{"units":25,"activation":"linear","use_bias":true,"kernel_initializer":{"class_name":"VarianceScaling","config":{"scale":1,"mode":"fan_avg","distribution":"normal","seed":null}},"bias_initializer":{"class_name":"Zeros","config":{}},"kernel_regularizer":null,"bias_regularizer":null,"activity_regularizer":null,"kernel_constraint":null,"bias_constraint":null,"name":"dense_Dense291","trainable":true,"batch_input_shape":[null,25],"dtype":"float32"}},{"class_name":"Dense","config":{"units":25,"activation":"linear","use_bias":true,"kernel_initializer":{"class_name":"VarianceScaling","config":{"scale":1,"mode":"fan_avg","distribution":"normal","seed":null}},"bias_initializer":{"class_name":"Zeros","config":{}},"kernel_regularizer":null,"bias_regularizer":null,"activity_regularizer":null,"kernel_constraint":null,"bias_constraint":null,"name":"dense_Dense292","trainable":true,"batch_input_shape":[null,25],"dtype":"float32"}},{"class_name":"Dense","config":{"units":25,"activation":"linear","use_bias":true,"kernel_initializer":{"class_name":"VarianceScaling","config":{"scale":1,"mode":"fan_avg","distribution":"normal","seed":null}},"bias_initializer":{"class_name":"Zeros","config":{}},"kernel_regularizer":null,"bias_regularizer":null,"activity_regularizer":null,"kernel_constraint":null,"bias_constraint":null,"name":"dense_Dense293","trainable":true,"batch_input_shape":[null,25],"dtype":"float32"}},{"class_name":"Dense","config":{"units":25,"activation":"linear","use_bias":true,"kernel_initializer":{"class_name":"VarianceScaling","config":{"scale":1,"mode":"fan_avg","distribution":"normal","seed":null}},"bias_initializer":{"class_name":"Zeros","config":{}},"kernel_regularizer":null,"bias_regularizer":null,"activity_regularizer":null,"kernel_constraint":null,"bias_constraint":null,"name":"dense_Dense294","trainable":true,"batch_input_shape":[null,25],"dtype":"float32"}},{"class_name":"Dense","config":{"units":25,"activation":"linear","use_bias":true,"kernel_initializer":{"class_name":"VarianceScaling","config":{"scale":1,"mode":"fan_avg","distribution":"normal","seed":null}},"bias_initializer":{"class_name":"Zeros","config":{}},"kernel_regularizer":null,"bias_regularizer":null,"activity_regularizer":null,"kernel_constraint":null,"bias_constraint":null,"name":"dense_Dense295","trainable":true,"batch_input_shape":[null,25],"dtype":"float32"}},{"class_name":"Dense","config":{"units":25,"activation":"linear","use_bias":true,"kernel_initializer":{"class_name":"VarianceScaling","config":{"scale":1,"mode":"fan_avg","distribution":"normal","seed":null}},"bias_initializer":{"class_name":"Zeros","config":{}},"kernel_regularizer":null,"bias_regularizer":null,"activity_regularizer":null,"kernel_constraint":null,"bias_constraint":null,"name":"dense_Dense296","trainable":true,"batch_input_shape":[null,25],"dtype":"float32"}},{"class_name":"Dense","config":{"units":25,"activation":"linear","use_bias":true,"kernel_initializer":{"class_name":"VarianceScaling","config":{"scale":1,"mode":"fan_avg","distribution":"normal","seed":null}},"bias_initializer":{"class_name":"Zeros","config":{}},"kernel_regularizer":null,"bias_regularizer":null,"activity_regularizer":null,"kernel_constraint":null,"bias_constraint":null,"name":"dense_Dense297","trainable":true,"batch_input_shape":[null,25],"dtype":"float32"}},{"class_name":"Dense","config":{"units":25,"activation":"linear","use_bias":true,"kernel_initializer":{"class_name":"VarianceScaling","config":{"scale":1,"mode":"fan_avg","distribution":"normal","seed":null}},"bias_initializer":{"class_name":"Zeros","config":{}},"kernel_regularizer":null,"bias_regularizer":null,"activity_regularizer":null,"kernel_constraint":null,"bias_constraint":null,"name":"dense_Dense298","trainable":true,"batch_input_shape":[null,25],"dtype":"float32"}},{"class_name":"Dense","config":{"units":25,"activation":"linear","use_bias":true,"kernel_initializer":{"class_name":"VarianceScaling","config":{"scale":1,"mode":"fan_avg","distribution":"normal","seed":null}},"bias_initializer":{"class_name":"Zeros","config":{}},"kernel_regularizer":null,"bias_regularizer":null,"activity_regularizer":null,"kernel_constraint":null,"bias_constraint":null,"name":"dense_Dense299","trainable":true,"batch_input_shape":[null,25],"dtype":"float32"}},{"class_name":"Dense","config":{"units":25,"activation":"linear","use_bias":true,"kernel_initializer":{"class_name":"VarianceScaling","config":{"scale":1,"mode":"fan_avg","distribution":"normal","seed":null}},"bias_initializer":{"class_name":"Zeros","config":{}},"kernel_regularizer":null,"bias_regularizer":null,"activity_regularizer":null,"kernel_constraint":null,"bias_constraint":null,"name":"dense_Dense300","trainable":true,"batch_input_shape":[null,25],"dtype":"float32"}},{"class_name":"Dense","config":{"units":25,"activation":"linear","use_bias":true,"kernel_initializer":{"class_name":"VarianceScaling","config":{"scale":1,"mode":"fan_avg","distribution":"normal","seed":null}},"bias_initializer":{"class_name":"Zeros","config":{}},"kernel_regularizer":null,"bias_regularizer":null,"activity_regularizer":null,"kernel_constraint":null,"bias_constraint":null,"name":"dense_Dense301","trainable":true,"batch_input_shape":[null,25],"dtype":"float32"}},{"class_name":"Dense","config":{"units":25,"activation":"linear","use_bias":true,"kernel_initializer":{"class_name":"VarianceScaling","config":{"scale":1,"mode":"fan_avg","distribution":"normal","seed":null}},"bias_initializer":{"class_name":"Zeros","config":{}},"kernel_regularizer":null,"bias_regularizer":null,"activity_regularizer":null,"kernel_constraint":null,"bias_constraint":null,"name":"dense_Dense302","trainable":true,"batch_input_shape":[null,25],"dtype":"float32"}},{"class_name":"Dense","config":{"units":25,"activation":"linear","use_bias":true,"kernel_initializer":{"class_name":"VarianceScaling","config":{"scale":1,"mode":"fan_avg","distribution":"normal","seed":null}},"bias_initializer":{"class_name":"Zeros","config":{}},"kernel_regularizer":null,"bias_regularizer":null,"activity_regularizer":null,"kernel_constraint":null,"bias_constraint":null,"name":"dense_Dense303","trainable":true,"batch_input_shape":[null,25],"dtype":"float32"}},{"class_name":"Dense","config":{"units":25,"activation":"linear","use_bias":true,"kernel_initializer":{"class_name":"VarianceScaling","config":{"scale":1,"mode":"fan_avg","distribution":"normal","seed":null}},"bias_initializer":{"class_name":"Zeros","config":{}},"kernel_regularizer":null,"bias_regularizer":null,"activity_regularizer":null,"kernel_constraint":null,"bias_constraint":null,"name":"dense_Dense304","trainable":true,"batch_input_shape":[null,25],"dtype":"float32"}},{"class_name":"Dense","config":{"units":25,"activation":"linear","use_bias":true,"kernel_initializer":{"class_name":"VarianceScaling","config":{"scale":1,"mode":"fan_avg","distribution":"normal","seed":null}},"bias_initializer":{"class_name":"Zeros","config":{}},"kernel_regularizer":null,"bias_regularizer":null,"activity_regularizer":null,"kernel_constraint":null,"bias_constraint":null,"name":"dense_Dense305","trainable":true,"batch_input_shape":[null,25],"dtype":"float32"}},{"class_name":"Dense","config":{"units":25,"activation":"linear","use_bias":true,"kernel_initializer":{"class_name":"VarianceScaling","config":{"scale":1,"mode":"fan_avg","distribution":"normal","seed":null}},"bias_initializer":{"class_name":"Zeros","config":{}},"kernel_regularizer":null,"bias_regularizer":null,"activity_regularizer":null,"kernel_constraint":null,"bias_constraint":null,"name":"dense_Dense306","trainable":true,"batch_input_shape":[null,25],"dtype":"float32"}},{"class_name":"Dense","config":{"units":25,"activation":"linear","use_bias":true,"kernel_initializer":{"class_name":"VarianceScaling","config":{"scale":1,"mode":"fan_avg","distribution":"normal","seed":null}},"bias_initializer":{"class_name":"Zeros","config":{}},"kernel_regularizer":null,"bias_regularizer":null,"activity_regularizer":null,"kernel_constraint":null,"bias_constraint":null,"name":"dense_Dense307","trainable":true,"batch_input_shape":[null,25],"dtype":"float32"}},{"class_name":"Dense","config":{"units":25,"activation":"linear","use_bias":true,"kernel_initializer":{"class_name":"VarianceScaling","config":{"scale":1,"mode":"fan_avg","distribution":"normal","seed":null}},"bias_initializer":{"class_name":"Zeros","config":{}},"kernel_regularizer":null,"bias_regularizer":null,"activity_regularizer":null,"kernel_constraint":null,"bias_constraint":null,"name":"dense_Dense308","trainable":true,"batch_input_shape":[null,25],"dtype":"float32"}},{"class_name":"Dense","config":{"units":25,"activation":"linear","use_bias":true,"kernel_initializer":{"class_name":"VarianceScaling","config":{"scale":1,"mode":"fan_avg","distribution":"normal","seed":null}},"bias_initializer":{"class_name":"Zeros","config":{}},"kernel_regularizer":null,"bias_regularizer":null,"activity_regularizer":null,"kernel_constraint":null,"bias_constraint":null,"name":"dense_Dense309","trainable":true,"batch_input_shape":[null,25],"dtype":"float32"}},{"class_name":"Dense","config":{"units":25,"activation":"linear","use_bias":true,"kernel_initializer":{"class_name":"VarianceScaling","config":{"scale":1,"mode":"fan_avg","distribution":"normal","seed":null}},"bias_initializer":{"class_name":"Zeros","config":{}},"kernel_regularizer":null,"bias_regularizer":null,"activity_regularizer":null,"kernel_constraint":null,"bias_constraint":null,"name":"dense_Dense310","trainable":true,"batch_input_shape":[null,25],"dtype":"float32"}},{"class_name":"Dense","config":{"units":25,"activation":"linear","use_bias":true,"kernel_initializer":{"class_name":"VarianceScaling","config":{"scale":1,"mode":"fan_avg","distribution":"normal","seed":null}},"bias_initializer":{"class_name":"Zeros","config":{}},"kernel_regularizer":null,"bias_regularizer":null,"activity_regularizer":null,"kernel_constraint":null,"bias_constraint":null,"name":"dense_Dense311","trainable":true,"batch_input_shape":[null,25],"dtype":"float32"}},{"class_name":"Dense","config":{"units":25,"activation":"linear","use_bias":true,"kernel_initializer":{"class_name":"VarianceScaling","config":{"scale":1,"mode":"fan_avg","distribution":"normal","seed":null}},"bias_initializer":{"class_name":"Zeros","config":{}},"kernel_regularizer":null,"bias_regularizer":null,"activity_regularizer":null,"kernel_constraint":null,"bias_constraint":null,"name":"dense_Dense312","trainable":true,"batch_input_shape":[null,25],"dtype":"float32"}},{"class_name":"Dense","config":{"units":25,"activation":"linear","use_bias":true,"kernel_initializer":{"class_name":"VarianceScaling","config":{"scale":1,"mode":"fan_avg","distribution":"normal","seed":null}},"bias_initializer":{"class_name":"Zeros","config":{}},"kernel_regularizer":null,"bias…
:"float32"},{"name":"dense_Dense115/bias","shape":[25],"dtype":"float32"},{"name":"dense_Dense116/kernel","shape":[25,25],"dtype":"float32"},{"name":"dense_Dense116/bias","shape":[25],"dtype":"float32"},{"name":"dense_Dense117/kernel","shape":[25,25],"dtype":"float32"},{"name":"dense_Dense117/bias","shape":[25],"dtype":"float32"},{"name":"dense_Dense118/kernel","shape":[25,25],"dtype":"float32"},{"name":"dense_Dense118/bias","shape":[25],"dtype":"float32"},{"name":"dense_Dense119/kernel","shape":[25,25],"dtype":"float32"},{"name":"dense_Dense119/bias","shape":[25],"dtype":"float32"},{"name":"dense_Dense120/kernel","shape":[25,25],"dtype":"float32"},{"name":"dense_Dense120/bias","shape":[25],"dtype":"float32"},{"name":"dense_Dense121/kernel","shape":[25,25],"dtype":"float32"},{"name":"dense_Dense121/bias","shape":[25],"dtype":"float32"},{"name":"dense_Dense122/kernel","shape":[25,25],"dtype":"float32"},{"name":"dense_Dense122/bias","shape":[25],"dtype":"float32"},{"name":"dense_Dense123/kernel","shape":[25,25],"dtype":"float32"},{"name":"dense_Dense123/bias","shape":[25],"dtype":"float32"},{"name":"dense_Dense124/kernel","shape":[25,25],"dtype":"float32"},{"name":"dense_Dense124/bias","shape":[25],"dtype":"float32"},{"name":"dense_Dense125/kernel","shape":[25,25],"dtype":"float32"},{"name":"dense_Dense125/bias","shape":[25],"dtype":"float32"},{"name":"dense_Dense126/kernel","shape":[25,25],"dtype":"float32"},{"name":"dense_Dense126/bias","shape":[25],"dtype":"float32"},{"name":"dense_Dense127/kernel","shape":[25,25],"dtype":"float32"},{"name":"dense_Dense127/bias","shape":[25],"dtype":"float32"},{"name":"dense_Dense128/kernel","shape":[25,25],"dtype":"float32"},{"name":"dense_Dense128/bias","shape":[25],"dtype":"float32"},{"name":"dense_Dense129/kernel","shape":[25,25],"dtype":"float32"},{"name":"dense_Dense129/bias","shape":[25],"dtype":"float32"},{"name":"dense_Dense130/kernel","shape":[25,25],"dtype":"float32"},{"name":"dense_Dense130/bias","shape":[25],"dtype":"float32"},{"name":"dense_Dense131/kernel","shape":[25,25],"dtype":"float32"},{"name":"dense_Dense131/bias","shape":[25],"dtype":"float32"},{"name":"dense_Dense132/kernel","shape":[25,25],"dtype":"float32"},{"name":"dense_Dense132/bias","shape":[25],"dtype":"float32"},{"name":"dense_Dense133/kernel","shape":[25,25],"dtype":"float32"},{"name":"dense_Dense133/bias","shape":[25],"dtype":"float32"},{"name":"dense_Dense134/kernel","shape":[25,25],"dtype":"float32"},{"name":"dense_Dense134/bias","shape":[25],"dtype":"float32"},{"name":"dense_Dense135/kernel","shape":[25,25],"dtype":"float32"},{"name":"dense_Dense135/bias","shape":[25],"dtype":"float32"},{"name":"dense_Dense136/kernel","shape":[25,25],"dtype":"float32"},{"name":"dense_Dense136/bias","shape":[25],"dtype":"float32"},{"name":"dense_Dense137/kernel","shape":[25,25],"dtype":"float32"},{"name":"dense_Dense137/bias","shape":[25],"dtype":"float32"},{"name":"dense_Dense138/kernel","shape":[25,25],"dtype":"float32"},{"name":"dense_Dense138/bias","shape":[25],"dtype":"float32"},{"name":"dense_Dense139/kernel","shape":[25,25],"dtype":"float32"},{"name":"dense_Dense139/bias","shape":[25],"dtype":"float32"},{"name":"dense_Dense140/kernel","shape":[25,25],"dtype":"float32"},{"name":"dense_Dense140/bias","shape":[25],"dtype":"float32"},{"name":"dense_Dense141/kernel","shape":[25,25],"dtype":"float32"},{"name":"dense_Dense141/bias","shape":[25],"dtype":"float32"},{"name":"dense_Dense142/kernel","shape":[25,25],"dtype":"float32"},{"name":"dense_Dense142/bias","shape":[25],"dtype":"float32"},{"name":"dense_Dense143/kernel","shape":[25,25],"dtype":"float32"},{"name":"dense_Dense143/bias","shape":[25],"dtype":"float32"},{"name":"dense_Dense144/kernel","shape":[25,25],"dtype":"float32"},{"name":"dense_Dense144/bias","shape":[25],"dtype":"float32"},{"name":"dense_Dense145/kernel","shape":[25,25],"dtype":"float32"},{"name":"dense_Dense145/bias","shape":[25],"dtype":"float32"},{"name":"dense_Dense146/kernel","shape":[25,25],"dtype":"float32"},{"name":"dense_Dense146/bias","shape":[25],"dtype":"float32"},{"name":"dense_Dense147/kernel","shape":[25,25],"dtype":"float32"},{"name":"dense_Dense147/bias","shape":[25],"dtype":"float32"},{"name":"dense_Dense148/kernel","shape":[25,25],"dtype":"float32"},{"name":"dense_Dense148/bias","shape":[25],"dtype":"float32"},{"name":"dense_Dense149/kernel","shape":[25,25],"dtype":"float32"},{"name":"dense_Dense149/bias","shape":[25],"dtype":"float32"},{"name":"dense_Dense150/kernel","shape":[25,25],"dtype":"float32"},{"name":"dense_Dense150/bias","shape":[25],"dtype":"float32"},{"name":"dense_Dense151/kernel","shape":[25,25],"dtype":"float32"},{"name":"dense_Dense151/bias","shape":[25],"dtype":"float32"},{"name":"dense_Dense152/kernel","shape":[25,25],"dtype":"float32"},{"name":"dense_Dense152/bias","shape":[25],"dtype":"float32"},{"name":"dense_Dense153/kernel","shape":[25,25],"dtype":"float32"},{"name":"dense_Dense153/bias","shape":[25],"dtype":"float32"},{"name":"dense_Dense154/kernel","shape":[25,25],"dtype":"float32"},{"name":"dense_Dense154/bias","shape":[25],"dtype":"float32"},{"name":"dense_Dense155/kernel","shape":[25,25],"dtype":"float32"},{"name":"dense_Dense155/bias","shape":[25],"dtype":"float32"},{"name":"dense_Dense156/kernel","shape":[25,25],"dtype":"float32"},{"name":"dense_Dense156/bias","shape":[25],"dtype":"float32"},{"name":"dense_Dense157/kernel","shape":[25,25],"dtype":"float32"},{"name":"dense_Dense157/bias","shape":[25],"dtype":"float32"},{"name":"dense_Dense158/kernel","shape":[25,25],"dtype":"float32"},{"name":"dense_Dense158/bias","shape":[25],"dtype":"float32"},{"name":"dense_Dense159/kernel","shape":[25,25],"dtype":"float32"},{"name":"dense_Dense159/bias","shape":[25],"dtype":"float32"},{"name":"dense_Dense160/kernel","shape":[25,25],"dtype":"float32"},{"name":"dense_Dense160/bias","shape":[25],"dtype":"float32"},{"name":"dense_Dense161/kernel","shape":[25,25],"dtype":"float32"},{"name":"dense_Dense161/bias","shape":[25],"dtype":"float32"},{"name":"dense_Dense162/kernel","shape":[25,25],"dtype":"float32"},{"name":"dense_Dense162/bias","shape":[25],"dtype":"float32"},{"name":"dense_Dense163/kernel","shape":[25,25],"dtype":"float32"},{"name":"dense_Dense163/bias","shape":[25],"dtype":"float32"},{"name":"dense_Dense164/kernel","shape":[25,25],"dtype":"float32"},{"name":"dense_Dense164/bias","shape":[25],"dtype":"float32"},{"name":"dense_Dense165/kernel","shape":[25,25],"dtype":"float32"},{"name":"dense_Dense165/bias","shape":[25],"dtype":"float32"},{"name":"dense_Dense166/kernel","shape":[25,25],"dtype":"float32"},{"name":"dense_Dense166/bias","shape":[25],"dtype":"float32"},{"name":"dense_Dense167/kernel","shape":[25,25],"dtype":"float32"},{"name":"dense_Dense167/bias","shape":[25],"dtype":"float32"},{"name":"dense_Dense168/kernel","shape":[25,25],"dtype":"float32"},{"name":"dense_Dense168/bias","shape":[25],"dtype":"float32"},{"name":"dense_Dense169/kernel","shape":[25,25],"dtype":"float32"},{"name":"dense_Dense169/bias","shape":[25],"dtype":"float32"},{"name":"dense_Dense170/kernel","shape":[25,25],"dtype":"float32"},{"name":"dense_Dense170/bias","shape":[25],"dtype":"float32"},{"name":"dense_Dense171/kernel","shape":[25,25],"dtype":"float32"},{"name":"dense_Dense171/bias","shape":[25],"dtype":"float32"},{"name":"dense_Dense172/kernel","shape":[25,25],"dtype":"float32"},{"name":"dense_Dense172/bias","shape":[25],"dtype":"float32"},{"name":"dense_Dense173/kernel","shape":[25,25],"dtype":"float32"},{"name":"dense_Dense173/bias","shape":[25],"dtype":"float32"},{"name":"dense_Dense174/kernel","shape":[25,25],"dtype":"float32"},{"name":"dense_Dense174/bias","shape":[25],"dtype":"float32"},{"name":"dense_Dense175/kernel","shape":[25,25],"dtype":"float32"},{"name":"dense_Dense175/bias","shape":[25],"dtype":"float32"},{"name":"dense_Dense176/kernel","shape":[25,25],"dtype":"float32"},{"name":"dense_Dense176/bias","shape":[25],"dtype":"float32"},{"name":"dense_Dense177/kernel","shape":[25,25],"dtype":"float32"},{"name":"dense_Dense177/bias","shape":[25],"dtype":"float32"},{"name":"dense_Dense178/kernel","shape":[25,25],"dtype":"float32"},{"name":"dense_Dense178/bias","shape":[25],"dtype":"float32"},{"name":"dense_Dense179/kernel","shape":[25,25],"dtype":"float32"},{"name":"dense_Dense179/bias","shape":[25],"dtype":"float32"},{"name":"dense_Dense180/kernel","shape":[25,25],"dtype":"float32"},{"name":"dense_Dense180/bias","shape":[25],"dtype":"float32"},{"name":"dense_Dense181/kernel","shape":[25,25],"dtype":"float32"},{"name":"dense_Dense181/bias","shape":[25],"dtype":"float32"},{"name":"dense_Dense182/kernel","shape":[25,25],"dtype":"float32"},{"name":"dense_Dense182/bias","shape":[25],"dtype":"float32"},{"name":"dense_Dense183/kernel","shape":[25,25],"dtype":"float32"},{"name":"dense_Dense183/bias","shape":[25],"dtype":"float32"},{"name":"dense_Dense184/kernel","shape":[25,25],"dtype":"float32"},{"name":"dense_Dense184/bias","shape":[25],"dtype":"float32"},{"name":"dense_Dense185/kernel","shape":[25,25],"dtype":"float32"},{"name":"dense_Dense185/bias","shape":[25],"dtype":"float32"},{"name":"dense_Dense186/kernel","shape":[25,25],"dtype":"float32"},{"name":"dense_Dense186/bias","shape":[25],"dtype":"float32"},{"name":"dense_Dense187/kernel","shape":[25,25],"dtype":"float32"},{"name":"dense_Dense187/bias","shape":[25],"dtype":"float32"},{"name":"dense_Dense188/kernel","shape":[25,25],"dtype":"float32"},{"name":"dense_Dense188/bias","shape":[25],"dtype":"float32"},{"name":"dense_Dense189/kernel","shape":[25,25],"dtype":"float32"},{"name":"dense_Dense189/bias","shape":[25],"dtype":"float32"},{"name":"dense_Dense190/kernel","shape":[25,25],"dtype":"float32"},{"name":"dense_Dense190/bias","shape":[25],"dtype":"float32"},{"name":"dense_Dense191/kernel","shape":[25,25],"dtype":"float32"},{"name":"dense_Dense191/bias","shape":[25],"dtype":"float32"},{"name":"dense_Dense192/kernel","shape":[25,25],"dtype":"float32"},{"name":"dense_Dense192/bias","shape":[25],"dtype":"float32"},{"name":"dense_Dense193/kernel","shape":[25,25],"dtype":"float32"},{"name":"dense_Dense193/bias","shape":[25],"dtype":"float32"},{"name":"dense_Dense194/kernel","shape":[25,25],"dtype":"float32"},{"name":"dense_Dense194/bias","shape":[25],"dtype":"float32"},{"name":"dense_Dense195/kernel","shape":[25,25],"dtype":"float32"},{"name":"dense_Dense195/bias","shape":[25],"dtype":"float32"},{"name":"dense_Dense196/kernel","shape":[25,25],"dtype":"float32"},{"name":"dense_Dense196/bias","shape":[25],"dtype":"float32"},{"name":"dense_Dense197/kernel","shape":[25,25],"dtype":"float32"},{"name":"dense_Dense197/bias","shape":[25],"dtype":"float32"},{"name":"dense_Dense198/kernel","shape":[25,25],"dtype":"float32"},{"name":"dense_Dense198/bias","shape":[25],"dtype":"float32"},{"name":"dense_Dense199/kernel","shape":[25,25],"dtype":"float32"},{"name":"dense_Dense199/bias","shape":[25],"dtype":"float32"},{"name":"dense_Dense200/kernel","shape":[25,25],"dtype":"float32"},{"name":"dense_Dense200/bias","shape":[25],"dtype":"float32"},{"name":"dense_Dense201/kernel","shape":[25,25],"dtype":"float32"},{"name":"dense_Dense201/bias","shape":[25],"dtype":"float32"},{"name":"dense_Dense202/kernel","shape":[25,25],"dtype":"float32"},{"name":"dense_Dense202/bias","shape":[25],"dtype":"float32"},{"name":"dense_Dense203/kernel","shape":[25,25],"dtype":"float32"},{"name":"dense_Dense203/bias","shape":[25],"dtype":"float32"},{"name":"dense_Dense204/kernel","shape":[25,25],"dtype":"float32"},{"name":"dense_Dense204/bias","shape":[25],"dtype":"float32"},{"name":"dense_Dense205/kernel","shape":[25,25],"dtype":"float32"},{"name":"dense_Dense205/bias","shape":[25],"dtype":"float32"},{"name":"dense_Dense206/kernel","shape":[25,25],"dtype":"float32"},{"name":"dense_Dense206/bias","shape":[25],"dtype":"float32"},{"name":"dense_Dense207/kernel","shape":[25,25],"dtype":"float32"},{"name":"dense_Dense207/bias","shape":[25],"dtype":"float32"},{"name":"dense_Dense208/kernel","shape":[25,25],"dtype":"float32"},{"name":"dense_Dense208/bias","shape":[25],"dtype":"float32"},{"name":"dense_Dense209/kernel","shape":[25,25],"dtype":"float32"},{"name":"dense_Dense209/bias","shape":[25],"dtype":"float32"},{"name":"dense_Dense210/kernel","shape":[25,25],"dtype":"float32"},{"name":"dense_Dense210/bias","shape":[25],"dtype":"float32"},{"name":"dense_Dense211/kernel","shape":[25,25],"dtype":"float32"},{"name":"dense_Dense211/bias","shape":[25],"dtype":"float32"},{"name":"dense_Dense212/kernel","shape":[25,25],"dtype":"float32"},{"name":"dense_Dense212/bias","shape":[25],"dtype":"float32"},{"name":"dense_Dense213/kernel","shape":[25,25],"dtype":"float32"},{"name":"dense_Dense213/bias","shape":[25],"dtype":"float32"},{"name":"dense_Dense214/kernel","shape":[25,25],"dtype":"float32"},{"name":"dense_Dense214/bias","shape":[25],"dtype":"float32"},{"name":"dense_Dense215/kernel","shape":[25,25],"dtype":"float32"},{"name":"dense_Dense215/bias","shape":[25],"dtype":"float32"},{"name":"dense_Dense216/kernel","shape":[25,25],"dtype":"float32"},{"name":"dense_Dense216/bias","shape":[25],"dtype":"float32"},{"name":"dense_Dense217/kernel","shape":[25,25],"dtype":"float32"},{"name":"dense_Dense217/bias","shape":[25],"dtype":"float32"},{"name":"dense_Dense218/kernel","shape":[25,25],"dtype":"float32"},{"name":"dense_Dense218/bias","shape":[25],"dtype":"float32"},{"name":"dense_Dense219/kernel","shape":[25,25],"dtype":"float32"},{"name":"dense_Dense219/bias","shape":[25],"dtype":"float32"},{"name":"dense_Dense220/kernel","shape":[25,25],"dtype":"float32"},{"name":"dense_Dense220/bias","shape":[25],"dtype":"float32"},{"name":"dense_Dense221/kernel","shape":[25,25],"dtype":"float32"},{"name":"dense_Dense221/bias","shape":[25],"dtype":"float32"},{"name":"dense_Dense222/kernel","shape":[25,25],"dtype":"float32"},{"name":"dense_Dense222/bias","shape":[25],"dtype":"float32"},{"name":"dense_Dense223/kernel","shape":[25,25],"dtype":"float32"},{"name":"dense_Dense223/bias","shape":[25],"dtype":"float32"},{"name":"dense_Dense224/kernel","shape":[25,25],"dtype":"float32"},{"name":"dense_Dense224/bias","shape":[25],"dtype":"float32"},{"name":"dense_Dense225/kernel","shape":[25,25],"dtype":"float32"},{"name":"dense_Dense225/bias","shape":[25],"dtype":"float32"},{"name":"dense_Dense226/kernel","shape":[25,25],"dtype":"float32"},{"name":"dense_Dense226/bias","shape":[25],"dtype":"float32"},{"name":"dense_Dense227/kernel","shape":[25,25],"dtype":"float32"},{"name":"dense_Dense227/bias","shape":[25],"dtype":"float32"},{"name":"dense_Dense228/kernel","shape":[25,25],"dtype":"float32"},{"name":"dense_Dense228/bias","shape":[25],"dtype":"float32"},{"name":"dense_Dense229/kernel","shape":[25,25],"dtype":"float32"},{"name":"dense_Dense229/bias","shape":[25],"dtype":"float32"},{"name":"dense_Dense230/kernel","shape":[25,25],"dtype":"float32"},{"name":"dense_Dense230/bias","shape":[25],"dtype":"float32"},{"name":"dense_Dense231/kernel","shape":[25,25],"dtype":"float32"},{"name":"dense_Dense231/bias","shape":[25],"dtype":"float32"},{"name":"dense_Dense232/kernel","shape":[25,25],"dtype":"float32"},{"name":"dense_Dense232/bias","shape":[25],"dtype":"float32"},{"name":"dense_Dense233/kernel","shape":[25,25],"dtype":"float32"},{"name":"dense_Dense233/bias","shape":[25],"dtype":"float32"},{"name":"dense_Dense234/kernel","shape":[25,25],"dtype":"float32"},{"name":"dense_Dense234/bias","shape":[25],"dtype":"float32"},{"name":"dense_Dense235/kernel","shape":[25,25],"dtype":"float32"},{"name":"dense_Dense235/bias","shape":[25],"dtype":"float32"},{"name":"dense_Dense236/kernel","shape":[25,25],"dtype":"float32"},{"name":"dense_Dense236/bias","shape":[25],"dtype":"float32"},{"name":"dense_Dense237/kernel","shape":[25,25],"dtype":"float32"},{"name":"dense_Dense237/bias","shape":[25],"dtype":"float32"},{"name":"dense_Dense238/kernel","shape":[25,25],"dtype":"float32"},{"name":"dense_Dense238/bias","shape":[25],"dtype":"float32"},{"name":"dense_Dense239/kernel","shape":[25,25],"dtype":"float32"},{"name":"dense_Dense239/bias","shape":[25],"dtype":"float32"},{"name":"dense_Dense240/kernel","shape":[25,25],"dtype":"float32"},{"name":"dense_Dense240/bias","shape":[25],"dtype":"float32"},{"name":"dense_Dense241/kernel","shape":[25,25],"dtype":"float32"},{"name":"dense_Dense241/bias","shape":[25],"dtype":"float32"},{"name":"dense_Dense242/kernel","shape":[25,25],"dtype":"float32"},{"name":"dense_Dense242/bias","shape":[25],"dtype":"float32"},{"name":"dense_Dense243/kernel","shape":[25,25],"dtype":"float32"},{"name":"dense_Dense243/bias","shape":[25],"dtype":"float32"},{"name":"dense_Dense244/kernel","shape":[25,25],"dtype":"float32"},{"name":"dense_Dense244/bias","shape":[25],"dtype":"float32"},{"name":"dense_Dense245/kernel","shape":[25,25],"dtype":"float32"},{"name":"dense_Dense245/bias","shape":[25],"dtype":"float32"},{"name":"dense_Dense246/kernel","shape":[25,25],"dtype":"float32"},{"name":"dense_Dense246/bias","shape":[25],"dtype":"float32"},{"name":"dense_Dense247/kernel","shape":[25,25],"dtype":"float32"},{"name":"dense_Dense247/bias","shape":[25],"dtype":"float32"},{"name":"dense_Dense248/kernel","shape":[25,25],"dtype":"float32"},{"name":"dense_Dense248/bias","shape":[25],"dtype":"float32"},{"name":"dense_Dense249/kernel","shape":[25,25],"dtype":"float32"},{"name":"dense_Dense249/bias","shape":[25],"dtype":"float32"},{"name":"dense_Dense250/kernel","shape":[25,25],"dtype":"float32"},{"name":"dense_Dense250/bias","shape":[25],"dtype":"float32"},{"name":"dense_Dense251/kernel","shape":[25,25],"dtype":"float32"},{"name":"dense_Dense251/bias","shape":[25],"dtype":"float32"},{"name":"dense_Dense252/kernel","shape":[25,25],"dtype":"float32"},{"name":"dense_Dense252/bias","shape":[25],"dtype":"float32"},{"name":"dense_Dense253/kernel","shape":[25,25],"dtype":"float32"},{"name":"dense_Dense253/bias","shape":[25],"dtype":"float32"},{"name":"dense_Dense254/kernel","shape":[25,25],"dtype":"float32"},{"name":"dense_Dense254/bias","shape":[25],"dtype":"float32"},{"name":"dense_Dense255/kernel","shape":[25,25],"dtype":"float32"},{"name":"dense_Dense255/bias","shape":[25],"dtype":"float32"},{"name":"dense_Dense256/kernel","shape":[25,25],"dtype":"float32"},{"name":"dense_Dense256/bias","shape":[25],"dtype":"float32"},{"name":"dense_Dense257/kernel","shape":[25,25],"dtype":"float32"},{"name":"dense_Dense257/bias","shape":[25],"dtype":"float32"},{"name":"dense_Dense258/kernel","shape":[25,25],"dtype":"float32"},{"name":"dense_Dense258/bias","shape":[25],"dtype":"float32"},{"name":"dense_Dense259/kernel","shape":[25,25],"dtype":"float32"},{"name":"dense_Dense259/bias","shape":[25],"dtype":"float32"},{"name":"dense_Dense260/kernel","shape":[25,25],"dtype":"float32"},{"name":"dense_Dense260/bias","shape":[25],"dtype":"float32"},{"name":"dense_Dense261/kernel","shape":[25,25],"dtype":"float32"},{"name":"dense_Dense261/bias","shape":[25],"dtype":"float32"},{"name":"dense_Dense262/kernel","shape":[25,25],"dtype":"float32"},{"name":"dense_Dense262/bias","shape":[25],"dtype":"float32"},{"name":"dense_Dense263/kernel","shape":[25,25],"dtype":"float32"},{"name":"dense_Dense263/bias","shape":[25],"dtype":"float32"},{"name":"dense_Dense264/kernel","shape":[25,25],"dtype":"float32"},{"name":"dense_Dense264/bias","shape":[25],"dtype":"float32"},{"name":"dense_Dense265/kernel","shape":[25,25],"dtype":"float32"},{"name":"dense_Dense265/bias","shape":[25],"dtype":"float32"},{"name":"dense_Dense266/kernel","shape":[25,25],"dtype":"float32"},{"name":"dense_Dense266/bias","shape":[25],"dtype":"float32"},{"name":"dense_Dense267/kernel","shape":[25,25],"dtype":"float32"},{"name":"dense_Dense267/bias","shape":[25],"dtype":"float32"},{"name":"dense_Dense268/kernel","shape":[25,25],"dtype":"float32"},{"name":"dense_Dense268/bias","shape":[25],"dtype":"float32"},{"name":"dense_Dense269/kernel","shape":[25,25],"dtype":"float32"},{"name":"dense_Dense269/bias","shape":[25],"dtype":"float32"},{"name":"dense_Dense270/kernel","shape":[25,25],"dtype":"float32"},{"name":"dense_Dense270/bias","shape":[25],"dtype":"float32"},{"name":"dense_Dense271/kernel","shape":[25,25],"dtype":"float32"},{"name":"dense_Dense271/bias","shape":[25],"dtype":"float32"},{"name":"dense_Dense272/kernel","shape":[25,25],"dtype":"float32"},{"name":"dense_Dense272/bias","shape":[25],"dtype":"float32"},{"name":"dense_Dense273/kernel","shape":[25,25],"dtype":"float32"},{"name":"dense_Dense273/bias","shape":[25],"dtype":"float32"},{"name":"dense_Dense274/kernel","shape":[25,25],"dtype":"float32"},{"name":"dense_Dense274/bias","shape":[25],"dtype":"float32"},{"name":"dense_Dense275/kernel","shape":[25,25],"dtype":"float32"},{"name":"dense_Dense275/bias","shape":[25],"dtype":"float32"},{"name":"dense_Dense276/kernel","shape":[25,25],"dtype":"float32"},{"name":"dense_Dense276/bias","shape":[25],"dtype":"float32"},{"name":"dense_Dense277/kernel","shape":[25,25],"dtype":"float32"},{"name":"dense_Dense277/bias","shape":[25],"dtype":"float32"},{"name":"dense_Dense278/kernel","shape":[25,25],"dtype":"float32"},{"name":"dense_Dense278/bias","shape":[25],"dtype":"float32"},{"name":"dense_Dense279/kernel","shape":[25,25],"dtype":"float32"},{"name":"dense_Dense279/bias","shape":[25],"dtype":"float32"},{"name":"dense_Dense280/kernel","shape":[25,25],"dtype":"float32"},{"name":"dense_Dense280/bias","shape":[25],"dtype":"float32"},{"name":"dense_Dense281/kernel","shape":[25,25],"dtype":"float32"},{"name":"dense_Dense281/bias","shape":[25],"dtype":"float32"},{"name":"dense_Dense282/kernel","shape":[25,25],"dtype":"float32"},{"name":"dense_Dense282/bias","shape":[25],"dtype":"float32"},{"name":"dense_Dense283/kernel","shape":[25,25],"dtype":"float32"},{"name":"dense_Dense283/bias","shape":[25],"dtype":"float32"},{"name":"dense_Dense284/kernel","shape":[25,25],"dtype":"float32"},{"name":"dense_Dense284/bias","shape":[25],"dtype":"float32"},{"name":"dense_Dense285/kernel","shape":[25,25],"dtype":"float32"},{"name":"dense_Dense285/bias","shape":[25],"dtype":"float32"},{"name":"dense_Dense286/kernel","shape":[25,25],"dtype":"float32"},{"name":"dense_Dense286/bias","shape":[25],"dtype":"float32"},{"name":"dense_Dense287/kernel","shape":[25,25],"dtype":"float32"},{"name":"dense_Dense287/bias","shape":[25],"dtype":"float32"},{"name":"dense_Dense288/kernel","shape":[25,25],"dtype":"float32"},{"name":"dense_Dense288/bias","shape":[25],"dtype":"float32"},{"name":"dense_Dense289/kernel","shape":[25,25],"dtype":"float32"},{"name":"dense_Dense289/bias","shape":[25],"dtype":"float32"},{"name":"dense_Dense290/kernel","shape":[25,25],"dtype":"float32"},{"name":"dense_Dense290/bias","shape":[25],"dtype":"float32"},{"name":"dense_Dense291/kernel","shape":[25,25],"dtype":"float32"},{"name":"dense_Dense291/bias","shape":[25],"dtype":"float32"},{"name":"dense_Dense292/kernel","shape":[25,25],"dtype":"float32"},{"name":"dense_Dense292/bias","shape":[25],"dtype":"float32"},{"name":"dense_Dense293/kernel","shape":[25,25],"dtype":"float32"},{"name":"dense_Dense293/bias","shape":[25],"dtype":"float32"},{"name":"dense_Dense294/kernel","shape":[25,25],"dtype":"float32"},{"name":"dense_Dense294/bias","shape":[25],"dtype":"float32"},{"name":"dense_Dense295/kernel","shape":[25,25],"dtype":"float32"},{"name":"dense_Dense295/bias","shape":[25],"dtype":"float32"},{"name":"dense_Dense296/kernel","shape":[25,25],"dtype":"float32"},{"name":"dense_Dense296/bias","shape":[25],"dtype":"float32"},{"name":"dense_Dense297/kernel","shape":[25,25],"dtype":"float32"},{"name":"dense_Dense297/bias","shape":[25],"dtype":"float32"},{"name":"dense_Dense298/kernel","shape":[25,25],"dtype":"float32"},{"name":"dense_Dense298/bias","shape":[25],"dtype":"float32"},{"name":"dense_Dense299/kernel","shape":[25,25],"dtype":"float32"},{"name":"dense_Dense299/bias","shape":[25],"dtype":"float32"},{"name":"dense_Dense300/kernel","shape":[25,25],"dtype":"float32"},{"name":"dense_Dense300/bias","shape":[25],"dtype":"float32"},{"name":"dense_Dense301/kernel","shape":[25,25],"dtype":"float32"},{"name":"dense_Dense301/bias","shape":[25],"dtype":"float32"},{"name":"dense_Dense302/kernel","shape":[25,25],"dtype":"float32"},{"name":"dense_Dense302/bias","shape":[25],"dtype":"float32"},{"name":"dense_Dense303/kernel","shape":[25,25],"dtype":"float32"},{"name":"dense_Dense303/bias","shape":[25],"dtype":"float32"},{"name":"dense_Dense304/kernel","shape":[25,25],"dtype":"float32"},{"name":"dense_Dense304/bias","shape":[25],"dtype":"float32"},{"name":"dense_Dense305/kernel","shape":[25,25],"dtype":"float32"},{"name":"dense_Dense305/bias","shape":[25],"dtype":"float32"},{"name":"dense_Dense306/kernel","shape":[25,25],"dtype":"float32"},{"name":"dense_Dense306/bias","shape":[25],"dtype":"float32"},{"name":"dense_Dense307/kernel","shape":[25,25],"dtype":"float32"},{"name":"dense_Dense307/bias","shape":[25],"dtype":"float32"},{"name":"dense_Dense308/kernel","shape":[25,25],"dtype":"float32"},{"name":"dense_Dense308/bias","shape":[25],"dtype":"float32"},{"name":"dense_Dense309/kernel","shape":[25,25],"dtype":"float32"},{"name":"dense_Dense309/bias","shape":[25],"dtype":"float32"},{"name":"dense_Dense310/kernel","shape":[25,25],"dtype":"float32"},{"name":"dense_Dense310/bias","shape":[25],"dtype":"float32"},{"name":"dense_Dense311/kernel","shape":[25,25],"dtype":"float32"},{"name":"dense_Dense311/bias","shape":[25],"dtype":"float32"},{"name":"dense_Dense312/kernel","shape":[25,25],"dtype":"float32"},{"name":"dense_Dense312/bias","shape":[25],"dtype":"float32"},{"name":"dense_Dense313/kernel","shape":[25,25],"dtype":"float32"},{"name":"dense_Dense313/bias","shape":[25],"dtype":"float32"},{"name":"dense_Dense314/kernel","shape":[25,25],"dtype":"float32"},{"name":"dense_Dense314/bias","shape":[25],"dtype":"float32"},{"name":"dense_Dense315/kernel","shape":[25,25],"dtype":"float32"},{"name":"dense_Dense315/bias","shape":[25],"dtype":"float32"},{"name":"dense_Dense316/kernel","shape":[25,25],"dtype":"float32"},{"name":"dense_Dense316/bias","shape":[25],"dtype":"float32"},{"name":"dense_Dense317/kernel","shape":[25,25],"dtype":"float32"},{"name":"dense_Dense317/bias","shape":[25],"dtype":"float32"},{"name":"dense_Dense318/kernel","shape":[25,25],"dtype":"float32"},{"name":"dense_Dense318/bias","shape":[25],"dtype":"float32"},{"name":"dense_Dense319/kernel","shape":[25,25],"dtype":"float32"},{"name":"dense_Dense319/bias","shape":[25],"dtype":"float32"},{"name":"dense_Dense320/kernel","shape":[25,25],"dtype":"float32"},{"name":"dense_Dense320/bias","shape":[25],"dtype":"float32"},{"name":"dense_Dense321/kernel","shape":[25,25],"dtype":"float32"},{"name":"dense_Dense321/bias","shape":[25],"dtype":"float32"},{"name":"dense_Dense322/kernel","shape":[25,25],"dtype":"float32"},{"name":"dense_Dense322/bias","shape":[25],"dtype":"float32"},{"name":"dense_Dense323/kernel","shape":[25,25],"dtype":"float32"},{"name":"dense_Dense323/bias","shape":[25],"dtype":"float32"},{"name":"dense_Dense324/kernel","shape":[25,25],"dtype":"float32"},{"name":"dense_Dense324/bias","shape":[25],"dtype":"float32"},{"name":"dense_Dense325/kernel","shape":[25,25],"dtype":"float32"},{"name":"dense_Dense325/bias","shape":[25],"dtype":"float32"},{"name":"dense_Dense326/kernel","shape":[25,25],"dtype":"float32"},{"name":"dense_Dense326/bias","shape":[25],"dtype":"float32"},{"name":"dense_Dense327/kernel","shape":[25,25],"dtype":"float32"},{"name":"dense_Dense327/bias","shape":[25],"dtype":"float32"},{"name":"dense_Dense328/kernel","shape":[25,25],"dtype":"float32"},{"name":"dense_Dense328/bias","shape":[25],"dtype":"float32"},{"name":"dense_Dense329/kernel","shape":[25,25],"dtype":"float32"},{"name":"dense_Dense329/bias","shape":[25],"dtype":"float32"},{"name":"dense_Dense330/kernel","shape":[25,25],"dtype":"float32"},{"name":"dense_Dense330/bias","shape":[25],"dtype":"float32"},{"name":"dense_Dense331/kernel","shape":[25,25],"dtype":"float32"},{"name":"dense_Dense331/bias","shape":[25],"dtype":"float32"},{"name":"dense_Dense332/kernel","shape":[25,25],"dtype":"float32"},{"name":"dense_Dense332/bias","shape":[25],"dtype":"float32"},{"name":"dense_Dense333/kernel","shape":[25,25],"dtype":"float32"},{"name":"dense_Dense333/bias","shape":[25],"dtype":"float32"},{"name":"dense_Dense334/kernel","shape":[25,25],"dtype":"float32"},{"name":"dense_Dense334/bias","shape":[25],"dtype":"float32"},{"name":"dense_Dense335/kernel","shape":[25,25],"dtype":"float32"},{"name":"dense_Dense335/bias","shape":[25],"dtype":"float32"},{"name":"dense_Dense336/kernel","shape":[25,25],"dtype":"float32"},{"name":"dense_Dense336/bias","shape":[25],"dtype":"float32"},{"name":"dense_Dense337/kernel","shape":[25,25],"dtype":"float32"},{"name":"dense_Dense337/bias","shape":[25],"dtype":"float32"},{"name":"dense_Dense338/kernel","shape":[25,25],"dtype":"float32"},{"name":"dense_Dense338/bias","shape":[25],"dtype":"float32"},{"name":"dense_Dense339/kernel","shape":[25,25],"dtype":"float32"},{"name":"dense_Dense339/bias","shape":[25],"dtype":"float32"},{"name":"dense_Dense340/kernel","shape":[25,25],"dtype":"float32"},{"name":"dense_Dense340/bias","shape":[25],"dtype":"float32"},{"name":"dense_Dense341/kernel","shape":[25,25],"dtype":"float32"},{"name":"dense_Dense341/bias","shape":[25],"dtype":"float32"},{"name":"dense_Dense342/kernel","shape":[25,25],"dtype":"float32"},{"name":"dense_Dense342/bias","shape":[25],"dtype":"float32"},{"name":"dense_Dense343/kernel","shape":[25,25],"dtype":"float32"},{"name":"dense_Dense343/bias","shape":[25],"dtype":"float32"},{"name":"dense_Dense344/kernel","shape":[25,25],"dtype":"float32"},{"name":"dense_Dense344/bias","shape":[25],"dtype":"float32"},{"name":"dense_Dense345/kernel","shape":[25,25],"dtype":"float32"},{"name":"dense_Dense345/bias","shape":[25],"dtype":"float32"},{"name":"dense_Dense346/kernel","shape":[25,25],"dtype":"float32"},{"name":"dense_Dense346/bias","shape":[25],"dtype":"float32"},{"name":"dense_Dense347/kernel","shape":[25,25],"dtype":"float32"},{"name":"dense_Dense347/bias","shape":[25],"dtype":"float32"},{"name":"dense_Dense348/kernel","shape":[25,25],"dtype":"float32"},{"name":"dense_Dense348/bias","shape":[25],"dtype":"float32"},{"name":"dense_Dense349/kernel","shape":[25,25],"dtype":"float32"},{"name":"dense_Dense349/bias","shape":[25],"dtype":"float32"},{"name":"dense_Dense350/kernel","shape":[25,25],"dtype":"float32"},{"name":"dense_Dense350/bias","shape":[25],"dtype":"float32"},{"name":"dense_Dense351/kernel","shape":[25,25],"dtype":"float32"},{"name":"dense_Dense351/bias","shape":[25],"dtype":"float32"},{"name":"dense_Dense352/kernel","shape":[25,25],"dtype":"float32"},{"name":"dense_Dense352/bias","shape":[25],"dtype":"float32"},{"name":"dense_Dense353/kernel","shape":[25,25],"dtype":"float32"},{"name":"dense_Dense353/bias","shape":[25],"dtype":"float32"},{"name":"dense_Dense354/kernel","shape":[25,25],"dtype":"float32"},{"name":"dense_Dense354/bias","shape":[25],"dtype":"float32"},{"name":"dense_Dense355/kernel","shape":[25,25],"dtype":"float32"},{"name":"dense_Dense355/bias","shape":[25],"dtype":"float32"},{"name":"dense_Dense356/kernel","shape":[25,25],"dtype":"float32"},{"name":"dense_Dense356/bias","shape":[25],"dtype":"float32"},{"name":"dense_Dense357/kernel","shape":[25,25],"dtype":"float32"},{"name":"dense_Dense357/bias","shape":[25],"dtype":"float32"},{"name":"dense_Dense358/kernel","shape":[25,25],"dtype":"float32"},{"name":"dense_Dense358/bias","shape":[25],"dtype":"float32"},{"name":"dense_Dense359/kernel","shape":[25,25],"dtype":"float32"},{"name":"dense_Dense359/bias","shape":[25],"dtype":"float32"},{"name":"dense_Dense360/kernel","shape":[25,25],"dtype":"float32"},{"name":"dense_Dense360/bias","shape":[25],"dtype":"float32"},{"name":"dense_Dense361/kernel","shape":[25,25],"dtype":"float32"},{"name":"dense_Dense361/bias","shape":[25],"dtype":"float32"},{"name":"dense_Dense362/kernel","shape":[25,25],"dtype":"float32"},{"name":"dense_Dense362/bias","shape":[25],"dtype":"float32"},{"name":"dense_Dense363/kernel","shape":[25,25],"dtype":"float32"},{"name":"dense_Dense363/bias","shape":[25],"dtype":"float32"},{"name":"dense_Dense364/kernel","shape":[25,25],"dtype":"float32"},{"name":"dense_Dense364/bias","shape":[25],"dtype":"float32"},{"name":"dense_Dense365/kernel","shape":[25,25],"dtype":"float32"},{"name":"dense_Dense365/bias","shape":[25],"dtype":"float32"},{"name":"dense_Dense366/kernel","shape":[25,25],"dtype":"float32"},{"name":"dense_Dense366/bias","shape":[25],"dtype":"float32"},{"name":"dense_Dense367/kernel","shape":[25,25],"dtype":"float32"},{"name":"dense_Dense367/bias","shape":[25],"dtype":"float32"},{"name":"dense_Dense368/kernel","shape":[25,25],"dtype":"float32"},{"name":"dense_Dense368/bias","shape":[25],"dtype":"float32"},{"name":"dense_Dense369/kernel","shape":[25,25],"dtype":"float32"},{"name":"dense_Dense369/bias","shape":[25],"dtype":"float32"},{"name":"dense_Dense370/kernel","shape":[25,25],"dtype":"float32"},{"name":"dense_Dense370/bias","shape":[25],"dtype":"float32"},{"name":"dense_Dense371/kernel","shape":[25,25],"dtype":"float32"},{"name":"dense_Dense371/bias","shape":[25],"dtype":"float32"},{"name":"dense_Dense372/kernel","shape":[25,25],"dtype":"float32"},{"name":"dense_Dense372/bias","shape":[25],"dtype":"float32"},{"name":"dense_Dense373/kernel","shape":[25,25],"dtype":"float32"},{"name":"dense_Dense373/bias","shape":[25],"dtype":"float32"},{"name":"dense_Dense374/kernel","shape":[25,25],"dtype":"float32"},{"name":"dense_Dense374/bias","shape":[25],"dtype":"float32"},{"name":"dense_Dense375/kernel","shape":[25,25],"dtype":"float32"},{"name":"dense_Dense375/bias","shape":[25],"dtype":"float32"},{"name":"dense_Dense376/kernel","shape":[25,25],"dtype":"float32"},{"name":"dense_Dense376/bias","shape":[25],"dtype":"float32"},{"name":"dense_Dense377/kernel","shape":[25,25],"dtype":"float32"},{"name":"dense_Dense377/bias","shape":[25],"dtype":"float32"},{"name":"dense_Dense378/kernel","shape":[25,25],"dtype":"float32"},{"name":"dense_Dense378/bias","shape":[25],"dtype":"float32"},{"name":"dense_Dense379/kernel","shape":[25,25],"dtype":"float32"},{"name":"dense_Dense379/bias","shape":[25],"dtype":"float32"},{"name":"dense_Dense380/kernel","shape":[25,25],"dtype":"float32"},{"name":"dense_Dense380/bias","shape":[25],"dtype":"float32"},{"name":"dense_Dense381/kernel","shape":[25,25],"dtype":"float32"},{"name":"dense_Dense381/bias","shape":[25],"dtype":"float32"},{"name":"dense_Dense382/kernel","shape":[25,25],"dtype":"float32"},{"name":"dense_Dense382/bias","shape":[25],"dtype":"float32"},{"name":"dense_Dense383/kernel","shape":[25,25],"dtype":"float32"},{"name":"dense_Dense383/bias","shape":[25],"dtype":"float32"},{"name":"dense_Dense384/kernel","shape":[25,25],"dtype":"float32"},{"name":"dense_Dense384/bias","shape":[25],"dtype":"float32"},{"name":"dense_Dense385/kernel","shape":[25,25],"dtype":"float32"},{"name":"dense_Dense385/bias","shape":[25],"dtype":"float32"},{"name":"dense_Dense386/kernel","shape":[25,25],"dtype":"float32"},{"name":"dense_Dense386/bias","shape":[25],"dtype":"float32"},{"name":"dense_Dense387/kernel","shape":[25,25],"dtype":"float32"},{"name":"dense_Dense387/bias","shape":[25],"dtype":"float32"},{"name":"dense_Dense388/kernel","shape":[25,25],"dtype":"float32"},{"name":"dense_Dense388/bias","shape":[25],"dtype":"float32"},{"name":"dense_Dense389/kernel","shape":[25,25],"dtype":"float32"},{"name":"dense_Dense389/bias","shape":[25],"dtype":"float32"},{"name":"dense_Dense390/kernel","shape":[25,25],"dtype":"float32"},{"name":"dense_Dense390/bias","shape":[25],"dtype":"float32"},{"name":"dense_Dense391/kernel","shape":[25,25],"dtype":"float32"},{"name":"dense_Dense391/bias","shape":[25],"dtype":"float32"},{"name":"dense_Dense392/kernel","shape":[25,25],"dtype":"float32"},{"name":"dense_Dense392/bias","shape":[25],"dtype":"float32"},{"name":"dense_Dense393/kernel","shape":[25,25],"dtype":"float32"},{"name":"dense_Dense393/bias","shape":[25],"dtype":"float32"},{"name":"dense_Dense394/kernel","shape":[25,25],"dtype":"float32"},{"name":"dense_Dense394/bias","shape":[25],"dtype":"float32"},{"name":"dense_Dense395/kernel","shape":[25,25],"dtype":"float32"},{"name":"dense_Dense395/bias","shape":[25],"dtype":"float32"},{"name":"dense_Dense396/kernel","shape":[25,25],"dtype":"float32"},{"name":"dense_Dense396/bias","shape":[25],"dtype":"float32"},{"name":"dense_Dense397/kernel","shape":[25,25],"dtype":"float32"},{"name":"dense_Dense397/bias","shape":[25],"dtype":"float32"},{"name":"dense_Dense398/kernel","shape":[25,25],"dtype":"float32"},{"name":"dense_Dense398/bias","shape":[25],"dtype":"float32"},{"name":"dense_Dense399/kernel","shape":[25,25],"dtype":"float32"},{"name":"dense_Dense399/bias","shape":[25],"dtype":"float32"},{"name":"dense_Dense400/kernel","shape":[25,25],"dtype":"float32"},{"name":"dense_Dense400/bias","shape":[25],"dtype":"float32"},{"name":"dense_Dense401/kernel","shape":[25,25],"dtype":"float32"},{"name":"dense_Dense401/bias","shape":[25],"dtype":"float32"},{"name":"dense_Dense402/kernel","shape":[25,25],"dtype":"float32"},{"name":"dense_Dense402/bias","shape":[25],"dtype":"float32"},{"name":"dense_Dense403/kernel","shape":[25,25],"dtype":"float32"},{"name":"dense_Dense403/bias","shape":[25],"dtype":"float32"},{"name":"dense_Dense404/kernel","shape":[25,25],"dtype":"float32"},{"name":"dense_Dense404/bias","shape":[25],"dtype":"float32"},{"name":"dense_Dense405/kernel","shape":[25,25],"dtype":"float32"},{"name":"dense_Dense405/bias","shape":[25],"dtype":"float32"},{"name":"dense_Dense406/kernel","shape":[25,25],"dtype":"float32"},{"name":"dense_Dense406/bias","shape":[25],"dtype":"float32"},{"name":"dense_Dense407/kernel","shape":[25,25],"dtype":"float32"},{"name":"dense_Dense407/bias","shape":[25],"dtype":"float32"},{"name":"dense_Dense408/kernel","shape":[25,25],"dtype":"float32"},{"name":"dense_Dense408/bias","shape":[25],"dtype":"float32"},{"name":"dense_Dense409/kernel","shape":[25,25],"dtype":"float32"},{"name":"dense_Dense409/bias","shape":[25],"dtype":"float32"},{"name":"dense_Dense410/kernel","shape":[25,25],"dtype":"float32"},{"name":"dense_Dense410/bias","shape":[25],"dtype":"float32"},{"name":"dense_Dense411/kernel","shape":[25,25],"dtype":"float32"},{"name":"dense_Dense411/bias","shape":[25],"dtype":"float32"},{"name":"dense_Dense412/kernel","shape":[25,25],"dtype":"float32"},{"name":"dense_Dense412/bias","shape":[25],"dtype":"float32"},{"name":"dense_Dense413/kernel","shape":[25,25],"dtype":"float32"},{"name":"dense_Dense413/bias","shape":[25],"dtype":"float32"},{"name":"dense_Dense414/kernel","shape":[25,25],"dtype":"float32"},{"name":"dense_Dense414/bias","shape":[25],"dtype":"float32"},{"name":"dense_Dense415/kernel","shape":[25,25],"dtype":"float32"},{"name":"dense_Dense415/bias","shape":[25],"dtype":"float32"},{"name":"dense_Dense416/kernel","shape":[25,25],"dtype":"float32"},{"name":"dense_Dense416/bias","shape":[25],"dtype":"float32"},{"name":"dense_Dense417/kernel","shape":[25,25],"dtype":"float32"},{"name":"dense_Dense417/bias","shape":[25],"dtype":"float32"},{"name":"dense_Dense418/kernel","shape":[25,25],"dtype":"float32"},{"name":"dense_Dense418/bias","shape":[25],"dtype":"float32"},{"name":"dense_Dense419/kernel","shape":[25,25],"dtype":"float32"},{"name":"dense_Dense419/bias","shape":[25],"dtype":"float32"},{"name":"dense_Dense420/kernel","shape":[25,25],"dtype":"float32"},{"name":"dense_Dense420/bias","shape":[25],"dtype":"float32"},{"name":"dense_Dense421/kernel","shape":[25,25],"dtype":"float32"},{"name":"dense_Dense421/bias","shape":[25],"dtype":"float32"},{"name":"dense_Dense422/kernel","shape":[25,25],"dtype":"float32"},{"name":"dense_Dense422/bias","shape":[25],"dtype":"float32"},{"name":"dense_Dense423/kernel","shape":[25,25],"dtype":"float32"},{"name":"dense_Dense423/bias","shape":[25],"dtype":"float32"},{"name":"dense_Dense424/kernel","shape":[25,25],"dtype":"float32"},{"name":"dense_Dense424/bias","shape":[25],"dtype":"float32"},{"name":"dense_Dense425/kernel","shape":[25,25],"dtype":"float32"},{"name":"dense_Dense425/bias","shape":[25],"dtype":"float32"},{"name":"dense_Dense426/kernel","shape":[25,25],"dtype":"float32"},{"name":"dense_Dense426/bias","shape":[25],"dtype":"float32"},{"name":"dense_Dense427/kernel","shape":[25,25],"dtype":"float32"},{"name":"dense_Dense427/bias","shape":[25],"dtype":"float32"},{"name":"dense_Dense428/kernel","shape":[25,25],"dtype":"float32"},{"name":"dense_Dense428/bias","shape":[25],"dtype":"float32"},{"name":"dense_Dense429/kernel","shape":[25,25],"dtype":"float32"},{"name":"dense_Dense429/bias","shape":[25],"dtype":"float32"},{"name":"dense_Dense430/kernel","shape":[25,25],"dtype":"float32"},{"name":"dense_Dense430/bias","shape":[25],"dtype":"float32"},{"name":"dense_Dense431/kernel","shape":[25,25],"dtype":"float32"},{"name":"dense_Dense431/bias","shape":[25],"dtype":"float32"},{"name":"dense_Dense432/kernel","shape":[25,25],"dtype":"float32"},{"name":"dense_Dense432/bias","shape":[25],"dtype":"float32"},{"name":"dense_Dense433/kernel","shape":[25,25],"dtype":"float32"},{"name":"dense_Dense433/bias","shape":[25],"dtype":"float32"},{"name":"dense_Dense434/kernel","shape":[25,25],"dtype":"float32"},{"name":"dense_Dense434/bias","shape":[25],"dtype":"float32"},{"name":"dense_Dense435/kernel","shape":[25,25],"dtype":"float32"},{"name":"dense_Dense435/bias","shape":[25],"dtype":"float32"},{"name":"dense_Dense436/kernel","shape":[25,25],"dtype":"float32"},{"name":"dense_Dense436/bias","shape":[25],"dtype":"float32"},{"name":"dense_Dense437/kernel","shape":[25,25],"dtype":"float32"},{"name":"dense_Dense437/bias","shape":[25],"dtype":"float32"},{"name":"dense_Dense438/kernel","shape":[25,25],"dtype":"float32"},{"name":"dense_Dense438/bias","shape":[25],"dtype":"float32"},{"name":"dense_Dense439/kernel","shape":[25,25],"dtype":"float32"},{"name":"dense_Dense439/bias","shape":[25],"dtype":"float32"},{"name":"dense_Dense440/kernel","shape":[25,25],"dtype":"float32"},{"name":"dense_Dense440/bias","shape":[25],"dtype":"float32"},{"name":"dense_Dense441/kernel","shape":[25,25],"dtype":"float32"},{"name":"dense_Dense441/bias","shape":[25],"dtype":"float32"},{"name":"dense_Dense442/kernel","shape":[25,25],"dtype":"float32"},{"name":"dense_Dense442/bias","shape":[25],"dtype":"float32"},{"name":"dense_Dense443/kernel","shape":[25,25],"dtype":"float32"},{"name":"dense_Dense443/bias","shape":[25],"dtype":"float32"},{"name":"dense_Dense444/kernel","shape":[25,25],"dtype":"float32"},{"name":"dense_Dense444/bias","shape":[25],"dtype":"float32"},{"name":"dense_Dense445/kernel","shape":[25,25],"dtype":"float32"},{"name":"dense_Dense445/bias","shape":[25],"dtype":"float32"},{"name":"dense_Dense446/kernel","shape":[25,25],"dtype":"float32"},{"name":"dense_Dense446/bias","shape":[25],"dtype":"float32"},{"name":"dense_Dense447/kernel","shape":[25,25],"dtype":"float32"},{"name":"dense_Dense447/bias","shape":[25],"dtype":"float32"},{"name":"dense_Dense448/kernel","shape":[25,25],"dtype":"float32"},{"name":"dense_Dense448/bias","shape":[25],"dtype":"float32"},{"name":"dense_Dense449/kernel","shape":[25,25],"dtype":"float32"},{"name":"dense_Dense449/bias","shape":[25],"dtype":"float32"},{"name":"dense_Dense450/kernel","shape":[25,25],"dtype":"float32"},{"name":"dense_Dense450/bias","shape":[25],"dtype":"float32"},{"name":"dense_Dense451/kernel","shape":[25,25],"dtype":"float32"},{"name":"dense_Dense451/bias","shape":[25],"dtype":"float32"},{"name":"dense_Dense452/kernel","shape":[25,25],"dtype":"float32"},{"name":"dense_Dense452/bias","shape":[25],"dtype":"float32"},{"name":"dense_Dense453/kernel","shape":[25,25],"dtype":"float32"},{"name":"dense_Dense453/bias","shape":[25],"dtype":"float32"},{"name":"dense_Dense454/kernel","shape":[25,25],"dtype":"float32"},{"name":"dense_Dense454/bias","shape":[25],"dtype":"float32"},{"name":"dense_Dense455/kernel","shape":[25,25],"dtype":"float32"},{"name":"dense_Dense455/bias","shape":[25],"dtype":"float32"},{"name":"dense_Dense456/kernel","shape":[25,25],"dtype":"float32"},{"name":"dense_Dense456/bias","shape":[25],"dtype":"float32"},{"name":"dense_Dense457/kernel","shape":[25,25],"dtype":"float32"},{"name":"dense_Dense457/bias","shape":[25],"dtype":"float32"},{"name":"dense_Dense458/kernel","shape":[25,25],"dtype":"float32"},{"name":"dense_Dense458/bias","shape":[25],"dtype":"float32"},{"name":"dense_Dense459/kernel","shape":[25,25],"dtype":"float32"},{"name":"dense_Dense459/bias","shape":[25],"dtype":"float32"},{"name":"dense_Dense460/kernel","shape":[25,25],"dtype":"float32"},{"name":"dense_Dense460/bias","shape":[25],"dtype":"float32"},{"name":"dense_Dense461/kernel","shape":[25,25],"dtype":"float32"},{"name":"dense_Dense461/bias","shape":[25],"dtype":"float32"},{"name":"dense_Dense462/kernel","shape":[25,25],"dtype":"float32"},{"name":"dense_Dense462/bias","shape":[25],"dtype":"float32"},{"name":"dense_Dense463/kernel","shape":[25,25],"dtype":"float32"},{"name":"dense_Dense463/bias","shape":[25],"dtype":"float32"},{"name":"dense_Dense464/kernel","shape":[25,25],"dtype":"float32"},{"name":"dense_Dense464/bias","shape":[25],"dtype":"float32"},{"name":"dense_Dense465/kernel","shape":[25,25],"dtype":"float32"},{"name":"dense_Dense465/bias","shape":[25],"dtype":"float32"},{"name":"dense_Dense466/kernel","shape":[25,25],"dtype":"float32"},{"name":"dense_Dense466/bias","shape":[25],"dtype":"float32"},{"name":"dense_Dense467/kernel","shape":[25,25],"dtype":"float32"},{"name":"dense_Dense467/bias","shape":[25],"dtype":"float32"},{"name":"dense_Dense468/kernel","shape":[25,25],"dtype":"float32"},{"name":"dense_Dense468/bias","shape":[25],"dtype":"float32"},{"name":"dense_Dense469/kernel","shape":[25,25],"dtype":"float32"},{"name":"dense_Dense469/bias","shape":[25],"dtype":"float32"},{"name":"dense_Dense470/kernel","shape":[25,25],"dtype":"float32"},{"name":"dense_Dense470/bias","shape":[25],"dtype":"float32"},{"name":"dense_Dense471/kernel","shape":[25,25],"dtype":"float32"},{"name":"dense_Dense471/bias","shape":[25],"dtype":"float32"},{"name":"dense_Dense472/kernel","shape":[25,25],"dtype":"float32"},{"name":"dense_Dense472/bias","shape":[25],"dtype":"float32"},{"name":"dense_Dense473/kernel","shape":[25,25],"dtype":"float32"},{"name":"dense_Dense473/bias","shape":[25],"dtype":"float32"},{"name":"dense_Dense474/kernel","shape":[25,25],"dtype":"float32"},{"name":"dense_Dense474/bias","shape":[25],"dtype":"float32"},{"name":"dense_Dense475/kernel","shape":[25,25],"dtype":"float32"},{"name":"dense_Dense475/bias","shape":[25],"dtype":"float32"},{"name":"dense_Dense476/kernel","shape":[25,25],"dtype":"float32"},{"name":"dense_Dense476/bias","shape":[25],"dtype":"float32"},{"name":"dense_Dense477/kernel","shape":[25,25],"dtype":"float32"},{"name":"dense_Dense477/bias","shape":[25],"dtype":"float32"},{"name":"dense_Dense478/kernel","shape":[25,25],"dtype":"float32"},{"name":"dense_Dense478/bias","shape":[25],"dtype":"float32"},{"name":"dense_Dense479/kernel","shape":[25,25],"dtype":"float32"},{"name":"dense_Dense479/bias","shape":[25],"dtype":"float32"},{"name":"dense_Dense480/kernel","shape":[25,25],"dtype":"float32"},{"name":"dense_Dense480/bias","shape":[25],"dtype":"float32"},{"name":"dense_Dense481/kernel","shape":[25,25],"dtype":"float32"},{"name":"dense_Dense481/bias","shape":[25],"dtype":"float32"},{"name":"dense_Dense482/kernel","shape":[25,25],"dtype":"float32"},{"name":"dense_Dense482/bias","shape":[25],"dtype":"float32"},{"name":"dense_Dense483/kernel","shape":[25,25],"dtype":"float32"},{"name":"dense_Dense483/bias","shape":[25],"dtype":"float32"},{"name":"dense_Dense484/kernel","shape":[25,25],"dtype":"float32"},{"name":"dense_Dense484/bias","shape":[25],"dtype":"float32"},{"name":"dense_Dense485/kernel","shape":[25,25],"dtype":"float32"},{"name":"dense_Dense485/bias","shape":[25],"dtype":"float32"},{"name":"dense_Dense486/kernel","shape":[25,25],"dtype":"float32"},{"name":"dense_Dense486/bias","shape":[25],"dtype":"float32"},{"name":"dense_Dense487/kernel","shape":[25,25],"dtype":"float32"},{"name":"dense_Dense487/bias","shape":[25],"dtype":"float32"},{"name":"dense_Dense488/kernel","shape":[25,25],"dtype":"float32"},{"name":"dense_Dense488/bias","shape":[25],"dtype":"float32"},{"name":"dense_Dense489/kernel","shape":[25,25],"dtype":"float32"},{"name":"dense_Dense489/bias","shape":[25],"dtype":"float32"},{"name":"dense_Dense490/kernel","shape":[25,25],"dtype":"float32"},{"name":"dense_Dense490/bias","shape":[25],"dtype":"float32"},{"name":"dense_Dense491/kernel","shape":[25,25],"dtype":"float32"},{"name":"dense_Dense491/bias","shape":[25],"dtype":"float32"},{"name":"dense_Dense492/kernel","shape":[25,25],"dtype":"float32"},{"name":"dense_Dense492/bias","shape":[25],"dtype":"float32"},{"name":"dense_Dense493/kernel","shape":[25,25],"dtype":"float32"},{"name":"dense_Dense493/bias","shape":[25],"dtype":"float32"},{"name":"dense_Dense494/kernel","shape":[25,25],"dtype":"float32"},{"name":"dense_Dense494/bias","shape":[25],"dtype":"float32"},{"name":"dense_Dense495/kernel","shape":[25,25],"dtype":"float32"},{"name":"dense_Dense495/bias","shape":[25],"dtype":"float32"},{"name":"dense_Dense496/kernel","shape":[25,25],"dtype":"float32"},{"name":"dense_Dense496/bias","shape":[25],"dtype":"float32"},{"name":"dense_Dense497/kernel","shape":[25,25],"dtype":"float32"},{"name":"dense_Dense497/bias","shape":[25],"dtype":"float32"},{"name":"dense_Dense498/kernel","shape":[25,25],"dtype":"float32"},{"name":"dense_Dense498/bias","shape":[25],"dtype":"float32"},{"name":"dense_Dense499/kernel","shape":[25,25],"dtype":"float32"},{"name":"dense_Dense499/bias","shape":[25],"dtype":"float32"},{"name":"dense_Dense500/kernel","shape":[25,25],"dtype":"float32"},{"name":"dense_Dense500/bias","shape":[25],"dtype":"float32"},{"name":"dense_Dense501/kernel","shape":[25,25],"dtype":"float32"},{"name":"dense_Dense501/bias","shape":[25],"dtype":"float32"},{"name":"dense_Dense502/kernel","shape":[25,25],"dtype":"float32"},{"name":"dense_Dense502/bias","shape":[25],"dtype":"float32"}]}]}